CNN/Model_Weights_Logs/54/latest.pth (torch, 535111 bytes, 10 tensors)

conv1.0.weight f4 [16, 1, 3, 3]
00000000: 7185 15be a68b 93be 6745 29bd 036c 2f3e
00000010: e3e1 5e3d e1a6 6e3d f5a3 a8bd c6a5 963d
00000020: 0384 d7bd 6fbe 68bd b90e 55be 8bb7 353e
00000030: f6f0 6c3c db78 60be 844e 813d c61f 0ebe
00000040: 29b8 59be a65e 343e 8b0e d8bd ca19 583e
00000050: 7d64 45bb f7b2 adbd 6b04 c1be 7d14 b3bd
00000060: 5ce8 f1bd 2965 bcbe f52d 99be 0dcb 313d
00000070: 8722 e73d 42f0 06be c87a aa3d 38f4 80be
00000080: 968a 563c 6fc8 a2bd 93e5 8b3d f119 393d
00000090: 378c bb3d ab77 37be 98e6 ad3c 3deb 5ebe
000000a0: 259e 353e 8fff 983b db81 5a3b e0f2 2fbe
000000b0: c000 6cbd b34e b93c 62a7 f0bd 9a9b de3d
000000c0: 3509 4dbe 7d8c cabe a90b d8be d83f cfbc
000000d0: 2427 1abe 68c7 bc3d 2320 a13d 36be 8d3d
000000e0: 1eff 5abe c43f 30be 9ff7 08bd ae80 333d
000000f0: 0c58 4cbe e732 3b3d 8200 ff3d 45e2 52bd
00000100: 0743 0b3e 7736 38be e96b 91bd c9f7 84be
00000110: b788 5fbe 795a db3d a584 303d c74c 003e
00000120: 946e 863d 3187 813d fd24 98bd bceb 643d
00000130: 7b81 b2be 6822 54bd 9631 adbc 9340 09bf
00000140: 7d9c a2be a21f 993d 86f3 8b3d 3f36 94bd
00000150: 3641 e03d 4412 863c c060 24bd e465 a33a
00000160: 3fed 873d ceff 66be f52b 54bd 9a93 20bc
00000170: d4d1 ac3c 83b2 a9be 1b3d 753e 17f8 63be
00000180: 051b 74be 69f4 a3bd 1c4a a5bb 2478 813c
00000190: e8c6 063e f82a b9bd d322 5abe 5f89 22bd
000001a0: 8101 18be 2d99 c23b c55f 2c3e 5ab9 39be
000001b0: 565b 773d bcb6 f13d 38de f8bd fcb9 7dbd
000001c0: f39d e83d 91b8 da3d c36a 273c b42a edba
000001d0: 4d50 3cbc 2921 833d 27fd 0ebe 3666 10bd
000001e0: 1c7a 2dbe 8c8d 40be 3074 f73d fb4a eabe
000001f0: 224c 0f3e 95d8 babd 8774 aebe 5609 2bbe
00000200: 182a e53d 3fa4 88be 3aa0 71be d498 64be
00000210: b1ef be3d 07df 05bd 6efb 873d fed5 ba3b
00000220: 0bc1 f9bd f9e9 f53c 549d b93d cc13 3c3e
00000230: 37df 403d 8908 65be 4a2e 59be 551f f0bd
-0.14601685 -0.2881748 -0.041325953 0.17131047 0.05441464 0.058264617 -0.08234397 0.073558375
-0.10523226 -0.056822237 -0.20806397 0.17745797 0.014461746 -0.21921103 0.06313804 -0.13879308
-0.21261658 0.1761423 -0.10549649 0.21103588 -0.003011971 -0.084814005 -0.37698683 -0.08744142
-0.11811897 -0.3679593 -0.29917875 0.043406535 0.112858824 -0.13177589 0.083242 -0.25186324
0.013094565 -0.07948386 0.06830897 0.045190755 0.09157603 -0.17916743 0.02122812 -0.21769424
0.17736109 0.004669137 0.003334156 -0.17182493 -0.057617903 0.022620535 -0.11750676 0.108695224
-0.20023043 -0.3956031 -0.42196396 -0.025298998 -0.15053993 0.09217721 0.07867458 0.069210455
-0.21386382 -0.17211825 -0.033439275 0.04382389 -0.19955462 0.04570284 0.12451269 -0.05148532
0.13599788 -0.17989527 -0.0710066 -0.25970295 -0.21829496 0.10710616 0.04309525 0.12529288
0.0656406 0.06324614 -0.0742893 0.055888876 -0.3486441 -0.051790625 -0.021141808 -0.5361416
-0.31760016 0.074767366 0.06833558 -0.07236909 0.10949938 0.016366132 -0.04013133 0.0012466279
0.06637048 -0.22558519 -0.051799733 -0.009800816 0.021096148 -0.33144006 0.23949091 -0.22262608
-0.23838432 -0.08005602 -0.005044235 0.015804358 0.13161814 -0.09041399 -0.21302347 -0.03968179
-0.14844324 0.00593867 0.16833408 -0.18137112 0.06038984 0.11802432 -0.1215176 -0.061944947
0.113582514 0.106797345 0.010218325 -0.0018094392 -0.011493755 0.06402809 -0.13963757 -0.035253726
-0.16941112 -0.18803996 0.12082708 -0.4576033 0.13993886 -0.09123341 -0.34073278 -0.1670278
0.11189669 -0.2668781 -0.23596278 -0.22323924 0.09323061 -0.0326834 0.06639753 0.0057017794
-0.12195023 0.030018793 0.09063211 0.18366927 0.047087874 -0.22366537 -0.21209064 -0.11724726

conv1.0.bias f4 [16]
00000000: 175d b2be fdec 403e 22ce 20bf a1c2 9abf
00000010: 05bc da3e fd22 fbbd dcea d4bf 98f6 323e
00000020: d2a9 eebf 65d9 26be dc18 213e 20ed 88bc
00000030: 96fd 70bb 6239 c1bf 638b 3fbf 4698 373e
-0.34836647 0.18840404 -0.62814534 -1.2090646 0.42721573 -0.12262533 -1.6634173 0.1747688
-1.8645575 -0.16293867 0.1573214 -0.016714633 -0.0036772243 -1.5095637 -0.7482206 0.17929181

conv2.0.weight f4 [32, 16, 3, 3]
00000000: a5ba 85bc 55de d1bd 8990 263d 21f8 15be
00000010: 9559 e63b d3ce afbd 6c74 2cbd dc3e 013d
00000020: 0ba5 3dbe e9ec 823d c31d 7a3c 96ee 733c
00000030: f861 6d3d ab37 b73c fefe 7e3d ea62 bd3a
00000040: f7eb 2ebd 4168 593d a9fc 323a a18a bdbb
00000050: 53c3 da3c 71f5 2a3d ce0c 483e f040 44be
00000060: 2d51 b9bc e6f8 d6bd 4d58 d03d 77f9 55bd
00000070: 2030 37be bb99 243d 31eb e5bd 3024 c03c
00000080: 0c10 ac3c e6b2 2ebd 6fe6 3d3d 198f ebbd
00000090: d093 063c 7a8c 2dbe 0e03 b13c 5778 02bd
000000a0: bb95 013d 5318 ca3c fc70 1b3d 4c63 8bbc
000000b0: 4626 f83b 7d1e c3bb 7ae1 053d 615b 1abc
000000c0: 9fb6 4cbd 84b6 f8bd 5b6e 8dbd dbbd 233c
000000d0: f3fc 1ebb 5199 d63c 77e4 2e3d 30f3 a93d
000000e0: c595 0e3e bd84 a9bd 83e2 423d d1b8 1cbd
000000f0: a256 8cbc 23a3 0dbe 6306 a93c 24d0 debd
00000100: 9742 883d de5c 24be ae53 023d 5b18 253d
00000110: 164d 0abd 9208 153e 6d7f a9bd 6d43 7fbd
00000120: 2fc9 7fbd 5808 1fbd 9a91 2d3c c6c8 82bd
00000130: 877b 6f3d 5095 a1bd 0556 2dbd 55b6 dd3c
00000140: ebaa 0b3e 6cce d43d 038f 2abe 54ef eebd
00000150: b266 943d 1a03 013d 7f06 7ebe 619f d93c
00000160: af95 933c fc60 21be 6bfe ab3d 44db 123e
00000170: 90a7 423e 5456 423e cb56 7a3d 5e03 3cbb
00000180: a16e 66bd 0041 a83c 37fd d33c ba98 cd3d
00000190: 3632 0cbd 2af8 2bbe f342 a8bd f9a0 e2bd
000001a0: 501e ffbd 9923 b0bd 7ab0 e13b 995c 1dbe
000001b0: 8a22 ebbd 2b3f 98be d648 ca3d aac0 1f3d
000001c0: 6948 5abe 185a 7dbd 98f7 463c 7421 73bc
000001d0: 25cf b2bc 45ef f93a f57d 8a3d 2a87 c63d
000001e0: a3d4 843d 8c2b c73d 2512 ac3c 7de7 1dbd
000001f0: 0253 c9bd 48e6 45be 91e0 86bd 6b5e 593d
00000200: 503d fcbc 4fb0 35bd a37d 10be 5758 c4bd
00000210: 1894 2b3d e082 3f3c 78e6 0b3d 2938 2ebd
00000220: 7e3c 30be 3dc4 4dbd 933d 58bd b7c0 20bd
00000230: fedc 263c b4c2 de3d ae9f 9f3d d495 40bd
00000240: 3fa2 35be 316c 363d 614a 043c 52d7 6fbd
00000250: d91e b5bc 8583 0ebc 5705 083e 8780 fcbb
00000260: 3d35 b73c 0bc7 5fbe 6c70 cebd 7492 443d
00000270: 5c1c 1bbe e0fb 5cbe bca8 043d d159 eebc
00000280: 2989 3fbe 74a1 643d 51db 8f3d 2011 2c3d
00000290: f8e3 7ebd 33e6 613d b91a 0c3d f074 463e
000002a0: 21d2 f2bc 065e 7a3c f00d 42be 4d39 10be
000002b0: b2fb f9bd 98ae dabc ec19 bcbd ce48 30bd
000002c0: bc10 373c e5d7 26bd eb79 8fbd acb8 93bd
000002d0: 8ff5 46be 36c9 ffbd 1b8c aebc 7b12 fbbd
000002e0: 3b9d e33c 4287 1bbe da52 c4bd 7144 803c
000002f0: 2112 acbb 05ac 0cbd f306 5a3d 8f5a b5bd
00000300: 0d7f a5bd 9085 01be 2e68 76bd 7288 6d3c
00000310: 2db1 723d b541 03bd cc95 8dbd 1c31 e5bd
00000320: b78e 93bd ff30 73bd 1125 06be 0c29 7cbc
00000330: dd93 7d3d 5f24 05be fa7d 33be 5ae6 c6bd
00000340: ecd4 22bd ef36 34bc c186 f4bd 5f72 ebbd
00000350: 4852 0a3d 3aa7 95bc 8225 6bbd ddb7 bdbd
00000360: efe0 683d 8b6e 443e 9e8d 4e3d 9e1e 053e
00000370: 5c35 093e bc8e 02bd 985b bdbd 16b3 e4bd
00000380: fb98 85bd cfe9 1fbe d79f c3bd acef 13be
00000390: c78a 46be 9bc1 d5bd 13aa d0bd 70ed 063e
000003a0: 4959 b63c dcff c2bc aafb c3bd 0fc8 9abd
000003b0: a91d 16bd ae5d 833c dd76 21be 66f9 8e3d
000003c0: 9822 cb3d d62d 28be a4c9 b6bd 7fdc 5bbd
000003d0: 405f 343d a829 79bd c24a 38be 425a 923d
000003e0: 0efa e13b 7027 91bd 97bc 9cbd 4d51 073d
000003f0: f30f 67be 1f1d b9bd 23c1 6cbe f9f0 8cbe
-0.01632435 -0.102474846 0.040665183 -0.14645435 0.007029722 -0.085843705 -0.042103216 0.031554088
-0.1851999 0.06392843 0.015265885 0.014888426 0.05795476 0.022365412 0.0622549 0.0014449034
-0.042705502 0.05307794 0.00068278104 -0.005784348 0.026704466 0.041737977 0.19536135 -0.19165397
-0.022621715 -0.10496692 0.10173092 -0.05223986 -0.17889452 0.04018567 -0.112265 0.023454756
0.021003745 -0.04265108 0.046362337 -0.11501903 0.008213952 -0.16948119 0.021607902 -0.031853046
0.031636935 0.024669802 0.037949547 -0.017015122 0.007572922 -0.005954562 0.032685734 -0.0094212005
-0.04997885 -0.12144187 -0.06905814 0.009993996 -0.0024259656 0.026196154 0.04269835 0.082983375
0.1392432 -0.08277271 0.0475793 -0.038262192 -0.017131153 -0.13831763 0.020632928 -0.108795434
0.06653326 -0.16051051 0.031818084 0.04030643 -0.03376492 0.1455405 -0.08276258 -0.06232016
-0.062447723 -0.038826317 0.010593796 -0.06385951 0.058467414 -0.07889807 -0.042318363 0.027064482
0.13639419 0.10390934 -0.16656117 -0.11666742 0.0724615 0.0314971 -0.24807166 0.026565256
0.01801571 -0.15759653 0.08398136 0.14341456 0.19009233 0.18978244 0.06111793 -0.002868853
-0.056257848 0.020538807 0.025877578 0.10038896 -0.034227572 -0.16793886 -0.082158946 -0.11065859
-0.124569535 -0.0860054 0.0068874927 -0.15367354 -0.11481197 -0.29735693 0.098771736 0.0390021
-0.21316685 -0.0618535 0.012143992 -0.014839519 -0.02182729 0.00190685 0.06762306 0.09693749
0.0648587 0.09725103 0.021004746 -0.038550843 -0.098302856 -0.19326127 -0.065858014 0.05306856
-0.030790955 -0.044357594 -0.14110427 -0.09587162 0.04188928 0.011688918 0.03415534 -0.042534027
-0.17210576 -0.050235976 -0.052793097 -0.039246287 0.010184525 0.108769804 0.07794128 -0.047017887
-0.17737673 0.044536773 0.008074374 -0.058554955 -0.022109436 -0.008698349 0.13283287 -0.0077057513
0.022364253 -0.21853273 -0.100800365 0.04799123 -0.15147537 -0.21580458 0.03238748 -0.029095562
-0.18704666 0.055818036 0.07024253 0.04200852 -0.062229127 0.055151176 0.034205172 0.19380546
-0.029641213 0.015281206 -0.18950629 -0.14084359 -0.1220621 -0.02669458 -0.09184632 -0.043038182
0.011173423 -0.040733237 -0.07005676 -0.07212958 -0.1942961 -0.1248955 -0.021307042 -0.12259384
0.027784934 -0.15188316 -0.09586115 0.015657635 -0.0052511846 -0.034343738 0.053229284 -0.08855163
-0.08080874 -0.12648606 -0.060157947 0.014497863 0.059251 -0.032045085 -0.06913337 -0.111910075
-0.07204955 -0.0593729 -0.13100077 -0.015390646 0.06190859 -0.13002156 -0.17528525 -0.09711905
-0.03975384 -0.010999425 -0.11939765 -0.11496424 0.033769876 -0.018268216 -0.057408817 -0.09263585
0.05685514 0.19182794 0.050428025 0.12999961 0.13399261 -0.031874403 -0.09245986 -0.111669704
-0.06523319 -0.15616535 -0.095519714 -0.14446896 -0.19388877 -0.10437318 -0.10188689 0.13176513
0.022259371 -0.023803644 -0.095694855 -0.075576894 -0.03664938 0.01603588 -0.15767999 0.06981163
0.099187076 -0.16423735 -0.08925179 -0.05367708 0.04403615 -0.060830742 -0.17997268 0.071461216
0.006896264 -0.070876 -0.07653158 0.03303652 -0.22564678 -0.090387575 -0.23120551 -0.27527598

conv2.0.bias f4 [32]
00000000: a5e4 fc3d ecdb 47bf 2351 ba3e 4147 b73e
00000010: 0aa7 fe3e 179c 9b3e 214d 083f ff5a e3be
00000020: 7edf a5bd eb36 9a3d 0b59 583e 0af0 8d3e
00000030: e803 ae3e 1c7d bdbd 27f9 4a3e 456b 97bf
00000040: e696 7abe 4330 723e f9a9 33bf 6d71 df3e
00000050: 8eb7 f63e b804 fbbd 8934 993e 60a8 403f
00000060: 2116 073f 5d1b 313e ad15 12bf bcb7 3fbf
00000070: 5eff 12bf 4547 eabe 5a3c 18bf 8267 1d3e
0.12348298 -0.7806995 0.36390027 0.3579655 0.49736816 0.30392525 0.5324269 -0.44405362
-0.080992684 0.07530006 0.21127717 0.27722198 0.33987355 -0.09252378 0.19821607 -1.1829611
-0.24471626 0.23651223 -0.7018123 0.43641225 0.48186916 -0.122567594 0.29922894 0.7525692
0.5276814 0.17295595 -0.57064325 -0.7488973 -0.5742091 -0.457575 -0.5946709 0.15371516

conv3.0.weight f4 [64, 32, 3, 3]
00000000: 001a 143e fe9c 66bd e550 24bb 3f7a 0fbd
00000010: b30d b1bd 6429 84bd bf59 41bd 6c1d a9bd
00000020: 60d7 6d3d 887a a2bd b30a 1a3d 2cf0 93bd
00000030: d31f 143c d4b8 533c 762b 35bd 56a8 86bd
00000040: a51a 9c3b 4e2a 17bd 0cfb c8bd 3ba5 a6bd
00000050: 2d96 5bbd 0deb c8bd d5c6 3ebd 9559 40be
00000060: 1d23 a2bd 6ba6 bbbd e417 dabd 13b7 9abc
00000070: adc4 703d 5156 7dbd 4f51 8dbd 104e 52bd
00000080: 7e54 43bd 77fa 593d fca8 9039 6c14 4cbe
00000090: df72 0fbe 8247 c0bb fb9b 30be 6b10 e2bc
000000a0: 112c 1abd a22c 36bd 4795 4bbd 9a82 85bd
000000b0: 4d95 77be 4c44 0cbe 128a e0bd daf6 71bd
000000c0: 7551 09bc 2e94 f1bd 2f39 61be 41f1 bebd
000000d0: 5fdd 24be 190d 95bd d053 d2bd 0d88 233d
000000e0: da21 1d3d 4a37 76bc d90e 7cbd 5320 343d
000000f0: d6e6 003d bcef b33c e17c db3c 3466 bdbb
00000100: 62a0 793d 4671 cabd 8641 583b ce63 43bd
00000110: b993 75bc 0937 a7bd 29c1 8ebc 8cc7 71bd
00000120: d14c fbbc 3bf9 4d3d ef7e b1bb f82b 85bd
00000130: 7f07 34be d0d9 babc 861e aabc e461 5e3d
00000140: 6a82 eebd 2830 d13c 272c c5bd 3666 873d
00000150: 55d2 abbc 2e78 4fbc 9ecb 073d 2727 8dbd
00000160: 377f e2bc af96 99bc 7274 c8bd 0153 3ebe
00000170: 4d6b dcbd bc3c b43c 66f0 aabd 7ab6 19be
00000180: 4ea1 7cbd 4b10 2e3b a216 a13d fded 74bc
00000190: 650a 03bc 3bde 693d a252 09bd 957a 82bd
000001a0: f0a0 e3bd 53cd 903d 01a3 babd 07ac 5dbd
000001b0: 2d0f a33c dfcb 4e3e f8fd 57bb 3d5b 7d3d
000001c0: c706 9d3d 4762 53bd 6f3c 033c 4cb9 2a3d
000001d0: 8cc1 723c 743b 993c d6ca d83d 7a4a 17be
000001e0: e28b a1bd a06e 50bd 72f8 1abe 2f3e c1bd
000001f0: 3d4d 68bd 87cf 15bd 3fac b1bd 3755 283d
00000200: 652f d93c 1051 9ebd 8b27 0b3d 2fd4 e5bc
00000210: be4c d7bd f52e a43d e41b e3bb 4b4c 183c
00000220: b80a 31bd d898 54bd 851e e0bd bc62 03be
00000230: bf77 96bc fc31 703b 5f7f 49be 6b31 313d
00000240: 309d d3bc 1c99 06be 48f2 29bd af2f ce3d
00000250: 15ac e2bd dfc9 0a3e 7975 13bd 5a08 febc
00000260: 00b9 d6bd c05c 75bd 51f3 133d 6fac 11bc
00000270: cbb9 03be 9b55 d93b 3b18 27bd 0720 63bc
00000280: 00be 15bc 96cf 61be a4f6 84ba 9b43 81bd
00000290: 6929 18bc d0f4 64be 2a01 76be 96db 20be
000002a0: accc 9e3b 3200 45bd 148c 063d d229 dfbd
000002b0: 19c1 eb3c 96a0 c83d e4bc bbbd b92c 6a3d
000002c0: 1671 b0bc be9d d1bd a797 3e3d 76b9 293d
000002d0: ab6c 073c 4acd d4bd a109 1f3d 3b65 bdbd
000002e0: 7bd9 d7bd 9530 273e 6aa4 acbd c675 9abe
000002f0: 8860 bb3d a28e 19be 32e8 85bd 1c4c 0ebe
00000300: 2736 2bbc 2a4d f4bc 5931 7abe 18ab 18bc
00000310: 20a1 c93c fb18 0a3e d203 cabc 67f1 9dbd
00000320: 46cb 0d3d d4ca 903a 6dff 75bd 4a18 5a3d
00000330: 5504 86bc 2c74 11be cd9c eebc 4fb7 58bd
00000340: 9a6c 12bd 021a 4abd 617e e1bc 5483 9a3d
00000350: 657e 98bd 3924 293d 7bdb 533d 8ec7 db3b
00000360: f377 03bd cf12 a83d 23f5 cbbd 0e59 6b3c
00000370: 7b89 39be 37da cc3c 2cde 10be d9a8 45bb
00000380: 72bd 5cbd 6008 cbbc eb69 babc 5310 533d
00000390: f5ba 39bd f5ae 89bd 1592 1fbd b093 8f3c
000003a0: f71b d1bd 2e06 203c a6b0 0abd 9c2f 203d
000003b0: 3b50 d3bd 7da8 603d c8ec 09bd 122b 53bd
000003c0: efc1 e4bd 8c51 4b3c f59a 79bd 50da fcba
000003d0: 71a2 3ebd 2f4d 4fbe 871a d6bc 2912 083e
000003e0: d848 7e3b d51f 2fbe bfae 373c 4bb5 ef3d
000003f0: 35ab a0bc 0b62 1bbe 96c6 a6bd 9626 8bbd
0.14463043 -0.056302063 -0.002507263 -0.035028692 -0.08645191 -0.06453207 -0.04720473 -0.08257565
0.058066726 -0.07933527 0.03760786 -0.072235435 0.009040791 0.012922484 -0.0442309 -0.06575076
0.0047639185 -0.03690558 -0.098135084 -0.08136984 -0.053610016 -0.098104574 -0.04657634 -0.18784173
-0.079168536 -0.09162601 -0.10649088 -0.018886125 0.058781315 -0.061849896 -0.06900274 -0.051343977
-0.047688 0.053217378 0.00027591723 -0.19929665 -0.14008664 -0.0058678994 -0.17247002 -0.02759572
-0.03763968 -0.04447616 -0.04970291 -0.06519051 -0.24178047 -0.13697928 -0.10963835 -0.059073307
-0.008381237 -0.11795841 -0.2199447 -0.09323359 -0.16100071 -0.07277889 -0.10269892 0.03992467
0.03836236 -0.01502783 -0.061537597 0.04397614 0.031470142 0.0219649 0.026792945 -0.005780006
0.06094397 -0.098848864 0.003299804 -0.047702603 -0.014988833 -0.08164794 -0.01742609 -0.059028193
-0.030676277 0.050286513 -0.005416743 -0.06502527 -0.17580985 -0.02280894 -0.020766508 0.054292575
-0.11645968 0.025535658 -0.09627562 0.06611292 -0.020974318 -0.01266293 0.03315317 -0.06892233
-0.027648551 -0.01874861 -0.09787835 -0.18586351 -0.107626535 0.022001617 -0.083466336 -0.15011016
-0.06167727 0.0026560004 0.07865645 -0.014949319 -0.007998084 0.0570967 -0.03352607 -0.06371037
-0.11114681 0.070704125 -0.09113122 -0.054119136 0.019904697 0.20194958 -0.0032957774 0.06185459
0.07667308 -0.051607396 0.008010014 0.04168062 0.014816653 0.018705107 0.10585563 -0.14774504
-0.07888009 -0.05088675 -0.15133837 -0.09435689 -0.056714285 -0.036574867 -0.086754315 0.041096892
0.026511857 -0.07730305 0.033973258 -0.028055279 -0.10512684 0.08016769 -0.006930815 0.009295533
-0.043223113 -0.051903576 -0.10943321 -0.12830633 -0.018367646 0.0036650887 -0.19677494 0.04326002
-0.025831789 -0.13144344 -0.041490823 0.10067689 -0.11067978 0.1355357 -0.036000703 -0.031009842
-0.10484505 -0.059902906 0.036120716 -0.008891209 -0.12863843 0.0066325194 -0.040794592 -0.013862616
-0.009139538 -0.22051844 -0.0010144305 -0.06311723 -0.009287217 -0.22359014 -0.24023882 -0.15708765
0.004846176 -0.04809589 0.032848433 -0.108966485 0.0287786 0.09796254 -0.091668874 0.057171557
-0.021538299 -0.10235165 0.046531346 0.041436635 0.008265655 -0.10390718 0.038827542 -0.09247824
-0.10539528 0.16327126 -0.08429797 -0.3016798 0.09149271 -0.14995816 -0.06538428 -0.13896221
-0.010449923 -0.029821951 -0.24432887 -0.009318136 0.024612963 0.13486092 -0.024660025 -0.077120595
0.034617685 0.0011046776 -0.060058046 0.05324582 -0.016359488 -0.14204472 -0.029127503 -0.05290919
-0.0357481 -0.04934121 -0.027526082 0.0754458 -0.07445983 0.04129431 0.051722985 0.0067071384
-0.032096814 0.082067125 -0.099588655 0.014364494 -0.18118851 0.025006397 -0.14147252 -0.0030160455
-0.053891607 -0.024784267 -0.022755584 0.05152924 -0.04534431 -0.067228235 -0.038957674 0.017526478
-0.10210412 0.009767098 -0.03385987 0.039107904 -0.10318037 0.054848183 -0.033673078 -0.051554747
-0.111698024 0.012409579 -0.060938794 -0.0019291136 -0.046541635 -0.20244287 -0.026135696 0.13288178
0.0038800742 -0.17101987 0.011211096 0.11704501 -0.019612888 -0.15174119 -0.08143346 -0.06794469

conv3.0.bias f4 [64]
00000000: d0f5 8d3e 4c9e 963e ca34 94be 6843 ca3e
00000010: b580 c73e b1dd 6cbf 5d8b 323f 0db5 d53e
00000020: b36c eebe acf9 b3bf c397 51be d3d2 1ebf
00000030: e201 b83e ff0c 06c0 7b50 003f 08b2 5a3f
00000040: b572 383e 7653 d93e f943 b43e 0475 2bbc
00000050: 8b9a f6bf f17a cebf 27f5 8d3e 02b8 9abf
00000060: bf58 3a3c 4a35 02be 4331 013e 5044 7b3e
00000070: 93f7 76bd 3ace dd3e 0116 8c3e 3874 40bf
00000080: 860e 683e de22 81bf bc93 f3be a20b 0a3e
00000090: 3b46 ecbc 78d7 1dbf 4db8 87bf 512b 9fbd
000000a0: 8914 da3e 0389 433e 846a a5bf 20b1 9b3c
000000b0: 6408 083f d87f ecbe a3e2 17be bbef f2bf
000000c0: 5f8c 38bf 7da1 8a3e 1512 133f 0445 9bbf
000000d0: 95c2 153e 6e9b e6bf 6b37 103f 49e8 e9bf
000000e0: 70a8 963e b5e9 32bf bcb9 98bf c694 1e3e
000000f0: 2f85 20bf 750c 81bf 40b3 75bf eac9 743e
0.27726603 0.29417646 -0.28946525 0.39504552 0.38965383 -0.92525774 0.697439 0.41739693
-0.46567306 -1.4060569 -0.20468049 -0.6204044 0.35938936 -2.0945432 0.50122803 0.85427904
0.18012507 0.42446488 0.3520811 -0.01046491 -1.9265913 -1.6131269 0.277261 -1.2087405
0.011373698 -0.1271564 0.12616448 0.24537778 -0.0602947 0.433214 0.27360538 -0.75177336
0.2266179 -1.0088766 -0.4757365 0.13481 -0.028842082 -0.61656904 -1.0603119 -0.07771934
0.42593792 0.19095235 -1.2923131 0.019005358 0.53137803 -0.46191287 -0.14832549 -1.897941
-0.7208919 0.2707633 0.57449466 -1.2130437 0.14625008 -1.8016183 0.5633456 -1.8274013
0.29425383 -0.6988786 -1.1931682 0.1548644 -0.6270322 -1.0081927 -0.9597664 0.23905149

conv4.0.weight f4 [128, 64, 3, 3]
00000000: ff15 e6bc 9561 8c3d a161 5f3e 4098 093d
00000010: c7da 8e3d 0c6e 83bc b5d3 a33c d815 953d
00000020: 1eda 973c 699f 803d ff23 153e fed5 92bd
00000030: aec4 f1bc f624 12bd d94d 0c3e f2de a6bd
00000040: 36cf cd3d 0f4b a5bc 47e5 20bd ac41 943c
00000050: 9054 1c3c a7a5 353c c411 37bb f8eb 9f3d
00000060: 7e8b 61bc 2d77 02bd b93d d23c 968f 85bc
00000070: e8fb 0ebe 8e44 aebd db2a 723c 06fd 973c
00000080: 090b dfbd 7058 cb3d 773d 0fbe be6e 703d
00000090: e0dc ffbd 5d9b 67bd e0d6 1bbe 4a06 2dbd
000000a0: 1a4c 05be a142 773c bba5 0b3d 585e ec3c
000000b0: 0d38 abbd 7964 b1ba c6ec 8ebc ae12 2fbe
000000c0: 4756 68bd 64ed f6bc c690 4abe d3f2 38bc
000000d0: 89bf 81bd df36 22be 24d6 5b3d 15c8 3abd
000000e0: 686a ee3c 4a37 5ebd faa8 c03d f22b c2bd
000000f0: c980 3bbb 35c2 8cbd 54f3 353d 54ee 47be
00000100: c488 57bd 24b0 bcbc 3cf7 013d 39d0 cfbd
00000110: 2434 cd3d f8fd 433d 4c2f 2f3d 5a4e 08bd
00000120: abea 133b b33a aabd 1b96 063e 184d 033e
00000130: bd4c da3c 5406 2c3c 5f98 16bd c1b0 463d
00000140: ca3e 99bd 74b5 52bd d4b4 94bc 01bd 39be
00000150: d50f 59bd bc1d 6bbd 48c2 163e 53f5 503c
00000160: 947b 0d3b a4b2 333d dfdc d0bc 5965 e33c
00000170: 20c6 83bc 0d58 c43d 71d3 a1bc 8154 b73d
00000180: d9fd 983c 2245 b8bd fb58 adbd c3ed 373d
00000190: b813 34bd a5a4 ef3b 10d2 123e 3972 5f3d
000001a0: 3b4a 423d c60c 97bd 8058 063d 4701 a63c
000001b0: 08e0 42bd 80ec a03d 2610 20be 47e4 d43d
000001c0: 6959 e7bd 6004 393e f071 9d3d 69e8 10bd
000001d0: 9532 3abd 2627 febd 4ed5 adbc d72f d13d
000001e0: 5f5f e9bc abe7 f0bd fcc6 b0bd 890b 9b3d
000001f0: c2ed ecbd 99c9 22bc 676e d03c d7b1 9c3d
00000200: 0933 693c 5b2a c6bc c6c3 3ebc 26a0 c13d
00000210: 624c 3bbd 759f 59bd 1707 ea3d 73f0 35bc
00000220: 7916 e13d b584 9abc 4863 dbbd 99fd 173d
00000230: 1251 44bc 7236 963d 7c00 173e b80a 04be
00000240: 295c 9e3c d150 b83b 3b9b fb3c cfff 09bd
00000250: a798 533d fe81 30bd 7d31 06bd 7ee6 74bd
00000260: b1aa a33d 0d63 60bd 31ae 07be 6109 31bd
00000270: eb76 a13d 4010 963c d9ff d23d 78cd ccbd
00000280: e22d f7bb 5eeb cdbd 379e 92bd 4920 a93d
00000290: aa3d 4cbe ad99 873d 9b19 4b3d 0887 92bd
000002a0: 3fb8 3ebd ceab 0bbd 1407 9e39 5b1e 64bd
000002b0: c062 abbd 44f6 bcbd b05c 90bd 541c 16bd
000002c0: d17a 98bd 238e 473d 0703 63bd e811 fbbd
000002d0: 5bb5 053e 4b8d 6dbd 964a 76bd 1a79 debd
000002e0: bb08 dfbc b9f6 123d cc9f d2bd ad2e a03a
000002f0: 90d3 ccbd 74d6 4abd 0d81 0ebd ebe7 e73b
00000300: 0e8e c6bd 0d62 f6bd a616 0cbd f0ae 313d
00000310: 672f 873d a17a fcbd 5f09 0abd 5971 bd3d
00000320: 9279 74bd 847d 2dbd e48f f23d cca5 ae3d
00000330: de1d fcbc 4821 223d 6b5c 6fbd 618d 2cbd
00000340: d07a 56bd 49af e8bd 70f7 b63c a27e 3fbd
00000350: c3dd 06be 3eff 76bd 8517 a53c bfbf 3bbd
00000360: 3704 96bc 3234 a3bc 7ed8 0bbd de0d c5bd
00000370: 3ca9 6bbc cc32 84bd 2fac 323c 3c3c e2bc
00000380: 0706 7bbd 3426 b43d e648 7fbc 80f3 0e3e
00000390: 0bf0 e1bd 4613 10bb 84c3 4d3d 94b2 10bd
000003a0: b836 7abd aa5d 67be fb07 dabd b0fd 98bc
000003b0: 741d 60bc b179 1e3a b99a 573c 537e 023c
000003c0: da04 3fbd 810e 2fbd c7fd 8e3b de0b e9bd
000003d0: f604 23be 18fa 92bc e912 de3d 5a0b 61b9
000003e0: 0c29 2bbd a5e3 37bd 085a 653d 7d9b a23d
000003f0: c224 84bd 0ca4 0e3c d39f 01bc 6100 ac3d
-0.02808666 0.0685455 0.21814586 0.033592463 0.06975322 -0.016043685 0.01999841 0.07279557
0.018536624 0.06280405 0.14564513 -0.07169722 -0.02951273 -0.03567978 0.13701572 -0.08147992
0.10049288 -0.020177392 -0.039281156 0.018097721 0.009541646 0.011086858 -0.0027934173 0.07808679
-0.013766168 -0.031851936 0.025664197 -0.016303819 -0.13963282 -0.085091695 0.014780725 0.018553268
-0.10890777 0.099289775 -0.1398829 0.058699362 -0.124933004 -0.05654465 -0.15218687 -0.042242326
-0.13017312 0.015091569 0.0340936 0.02885358 -0.083603 -0.0013533972 -0.017446887 -0.1709697
-0.056722905 -0.030142494 -0.19781789 -0.011288363 -0.063353606 -0.15841244 0.053671017 -0.04560097
0.029103473 -0.054251947 0.0940723 -0.09481038 -0.0028610697 -0.068729796 0.04442151 -0.19524509
-0.052620664 -0.02303321 0.03172992 -0.10147137 0.10019711 0.047849625 0.042769715 -0.033277847
0.0022570293 -0.08311977 0.13143198 0.12822378 0.02664792 0.010499556 -0.036766406 0.04850841
-0.07482679 -0.05144258 -0.018152632 -0.18138506 -0.052993614 -0.057401404 0.1472255 0.012753802
0.002158855 0.043871537 -0.025495945 0.027758287 -0.016085684 0.09587107 -0.019754143 0.08951665
0.018675731 -0.08997561 -0.08464237 0.04490448 -0.043964118 0.0073133283 0.14337945 0.05455229
0.047434073 -0.07375483 0.032799244 0.020264281 -0.047576934 0.07857609 -0.1563116 0.10395103
-0.112963505 0.18068075 0.076877475 -0.035377894 -0.045458395 -0.12409811 -0.021219876 0.10214203
-0.02848786 -0.11762937 -0.08631703 0.075705595 -0.11568786 -0.00993576 0.025443269 0.07651108
0.014233359 -0.024190119 -0.011643356 0.09454374 -0.04572714 -0.053130586 0.114271335 -0.011104691
0.109906144 -0.018862108 -0.10712296 0.037107084 -0.011982219 0.07334603 0.14746279 -0.12894714
0.019331055 0.0056248684 0.030713668 -0.033691224 0.051659252 -0.04309272 -0.03276204 -0.059790127
0.07991541 -0.054781962 -0.13250042 -0.043221835 0.0788401 0.018318295 0.10302705 -0.100001276
-0.0075433115 -0.10054658 -0.07159083 0.08258111 -0.19945398 0.06621108 0.049584966 -0.071546614
-0.04656243 -0.034099393 0.00030141382 -0.05569301 -0.083684444 -0.09226659 -0.07048929 -0.03664811
-0.074453 0.048719537 -0.05542281 -0.12259275 0.13057463 -0.057996076 -0.060129724 -0.10862942
-0.027225843 0.035879824 -0.10284385 0.0012220942 -0.1000129 -0.049520925 -0.03479104 0.0070772073
-0.096950635 -0.120304205 -0.034201287 0.043379724 0.06600838 -0.12328077 -0.033700343 0.09250135
-0.05968625 -0.04235603 0.11843851 0.08527717 -0.03077596 0.03958252 -0.058437746 -0.042127017
-0.052363217 -0.11361558 0.022334784 -0.046751626 -0.13170533 -0.06030201 0.020152817 -0.04583716
-0.018312557 -0.01992235 -0.03414201 -0.096217856 -0.01438361 -0.06455001 0.01090531 -0.027616613
-0.061285045 0.08796349 -0.015581345 0.13960075 -0.11032113 -0.0021984144 0.050235286 -0.035326555
-0.06108734 -0.22594324 -0.106460534 -0.018675655 -0.013678897 0.0006045355 0.013159447 0.007964688
-0.046635486 -0.04273844 0.0043637487 -0.113792166 -0.15919861 -0.01794152 0.108434506 -0.00021461901
-0.041787192 -0.044894833 0.055994064 0.07939813 -0.064523235 0.008706104 -0.00791164 0.0839851

conv4.0.bias f4 [128]
00000000: 8283 fa3c b043 1e3f 2571 393c c8ec 603e
00000010: 3d50 b03d 44b3 273e 6134 8d3a 86f4 c5bd
00000020: 7c82 883e 8121 c73d 7760 6c3d 7961 103e
00000030: ee48 bfbc 6ea7 c1be 16f4 a93e 1f7b 9a3e
00000040: 0d49 fa3d c8f4 8c3d 3b89 2c3f 83d3 4d3d
00000050: c4e9 b9bc 30fd f13e 6a8a 8dbe f8fd abbe
00000060: b58a ce3e 784b 0f3f 1935 6e3d 393c bfbe
00000070: 46e3 24be fbe9 723e bdf3 b0be ee43 f9be
00000080: 310f fa3d 1d93 d83d 4dc1 3f3d 6478 773e
00000090: 4b16 0e3f 7855 fc3d 4f9a c63e 7c1e c53e
000000a0: 44e0 213d be7d 18be 3273 3b3e 3472 03bf
000000b0: ac60 65bd 2aef cebe 8e50 1c3d fa7c ba3e
000000c0: 2840 a0bb 84bc 8bbd f6a1 773e e1bd c13e
000000d0: 9f29 bfbe 21e8 773d 0c91 6b3e 221d eb3d
000000e0: 3a17 143e 8289 443b 0690 823d 9be7 b73e
000000f0: c98d 4dbe 0389 663e 1bbe a03e abe1 923e
00000100: 8aae c93e 1d51 a13d 5510 a03d ec1b ee3e
00000110: 25fd fa3e 7156 d13d 4e6d 343e 768b ab3d
00000120: 2363 d6be 1101 233e 3c92 e83e 6814 6e3e
00000130: 458e 6d3c 07d3 44bd 694b 843e b848 d43d
00000140: a9a0 cd3d be35 4ebe fd1d cf3d 6ca9 263e
00000150: fe7e 5cbd 7793 313f b19b 8cbd e901 643f
00000160: d4a1 85bd ea29 e23d d2aa 7abd b911 113f
00000170: 687c 8abe 5d81 1a3e cff4 9bbd a69c c73d
00000180: 7843 823e 0457 aa3d afc3 173d c64b 16bf
00000190: 241a de3d 2578 943e 7ab1 19be b358 ab3b
000001a0: 05c7 a53e a6c3 08bd b644 043e b969 a73d
000001b0: c8b0 8c3d f461 1e3e 57ef 52bd 76bf 693e
000001c0: b82c 8a3e c4d1 073f 4f40 0e3e ec33 863d
000001d0: bbe0 acbe b882 73be 288c c53d 7eb2 193f
000001e0: b3a8 233d c8af ec3d e66e 37be bcb2 503e
000001f0: df33 3bbe 1e67 d43e 7fcc 6f3e 646b ca3e
0.030580286 0.6182203 0.01131848 0.21965325 0.08609054 0.16376978 0.0010773056 -0.0966578
0.26662052 0.09723187 0.057709184 0.14099683 -0.023350205 -0.3782305 0.33194035 0.3017206
0.122209646 0.06882626 0.673969 0.05025054 -0.022694476 0.4726348 -0.27644664 -0.335922
0.403402 0.5597453 0.058156107 -0.37350634 -0.16102323 0.23722069 -0.34560958 -0.4868464
0.12209929 0.10574935 0.046815205 0.24167019 0.55502766 0.12320989 0.38789603 0.3849982
0.039520517 -0.14891717 0.18305662 -0.51346135 -0.056000397 -0.40416843 0.03816276 0.36423475
-0.0048904605 -0.06823066 0.24182877 0.3784018 -0.37336442 0.06052411 0.2300455 0.11480166
0.14461985 0.0029989188 0.063751265 0.35918888 -0.20073618 0.22513203 0.3139504 0.28687796
0.39390975 0.07876799 0.07815615 0.46505678 0.4902126 0.102215655 0.17619821 0.083762094
-0.4187251 0.15918376 0.45424068 0.23249972 0.014499252 -0.048052814 0.25838783 0.103654325
0.10040409 -0.20137689 0.10113142 0.16275567 -0.053832047 0.6936564 -0.06865633 0.89065415
-0.06525007 0.11043151 -0.061198063 0.5666767 -0.2704804 0.1508841 -0.07615053 0.09746675
0.254421 0.08317378 0.037051853 -0.5870937 0.1084483 0.28997913 -0.15009108 0.0052290796
0.32378402 -0.03338971 0.12916836 0.08174462 0.06869656 0.15467054 -0.051497784 0.22826943
0.26987243 0.5305445 0.1389172 0.06552872 -0.33765206 -0.23780334 0.09645873 0.6003798
0.039955806 0.11556965 -0.17913398 0.20380682 -0.18281506 0.41484922 0.23417853 0.39535058

linear.weight f4 [14, 2560]
00000000: deac 2abd 7e21 133c c793 253c d2a8 febb
00000010: 6a0f 07bb e49e 3535 991e 85bc b2a4 aabc
00000020: e7d6 5fbc 607d d2bc eb5a dd3b 88c2 06bb
00000030: 8a4f 2abd 5a7a 24bc 3217 48bc 5d34 3fbc
00000040: 6103 2cbd e0d3 9cbc cc37 60bb 7878 0dbd
00000050: 158d 4bbe 214e dfbd 1d31 03be ab6a 85bd
00000060: 6c85 01be 0783 00bd 9c4f f83b 23fe b33b
00000070: 674d 11bd c703 9cbb d379 a2bc ed2d c7ba
00000080: a1dd 02be 0efa 89bc ca09 e4bc 9385 18bc
00000090: 4cd9 05be 7ffb 6dbd d214 dabc 0bdc 84bd
000000a0: 3fa4 febc e5eb a2bc fb65 00bd eb03 7ebc
000000b0: fb5a d6bc 2e32 3ab9 29b7 95bc 36b6 8ebc
000000c0: f6b3 debc 3675 bd3b 57b0 403b 53b8 88bc
000000d0: e86b e9bc f3d2 223c 5153 d5bc ecc0 c8ba
000000e0: 2038 f3bd 7f51 ccbb 62ae 17bd b642 1abe
000000f0: 85f5 eebc 02d4 8f3a 6fb1 a2ba 7577 28bc
00000100: 2a05 153c d1b9 02bc a209 90bc dce7 d03b
00000110: 373d 0b3c 1d7e 8dbc 7650 00bc f2e2 a4bc
00000120: 7046 c8bc 852e 46bb 1d32 05bd 450e 21bc
00000130: 81a1 87bd 89ee 66bd 0d79 bebd 31a3 f0bd
00000140: 701c b7bc d40a 3d3c 92a7 0d37 43a0 7dbc
00000150: f846 8cbc fc97 a03b fe51 ed3b d6a4 b1bc
00000160: 519b 55bc 2bad 8a3b 6eee 96bc 9ff0 fb3b
00000170: 46cf b9bc e3e2 d3bc 6549 cdbc 287f f1bc
00000180: e69f 54bd bd20 50bd 9ea1 31bd f304 45bd
00000190: 009e edbc f3da a5bc 89c5 d8bc 387a 88bd
000001a0: 3f36 23bd 5568 ccbc 38ab a5bc 437d c8bb
000001b0: b3f3 ccbc e204 463a 43af fe3a 3ac2 cdbc
000001c0: 69d8 18bc ffef b7bc 8302 033c 93e0 96bc
000001d0: 7e8d 3ebd 2f1d e0bc 31a0 7e39 827f 85bc
000001e0: 14a0 92bc 4e86 aabb 8310 54ba 0dd2 77bc
000001f0: 97e7 a2bc d2e7 7f3b 7511 23bc cf3f ccbc
00000200: 3723 a3bb cf4e 14bc b36c a9bb 9748 90bb
00000210: f022 073a 3bcb 333b 4ec0 dcbc 5e8b 0abc
00000220: f3c6 9dbc fc10 cdbc f197 1e3c bbb3 00bc
00000230: a55b 1a3a a51b afbc 3a3a 43bc 7b83 c5bc
00000240: 71bb 5bbb dfc5 38bc a56e b4bb 8fe6 64bb
00000250: e32e 00bd 7c4f c0ba ec5e 3dbc 9e99 b0bc
00000260: a263 1cbd c542 e2bc 45d2 2fba 2257 d2bb
00000270: 9b04 69bd 550c 0dbd b7e7 2bbc c1c7 723b
00000280: 3de5 59bc 1800 a53b 1aa4 f43a 65fd d2bc
00000290: a810 b4bc 0c6f 213c 831b 89bb 137c b63b
000002a0: b498 83bd 91c8 bdbc 1598 92bc a589 c73b
000002b0: d922 24bd 2fcf c3bc 5835 d3bc d8f3 c6bc
000002c0: bfc7 5bbd f96a 4dbd fc0d 63bd 3f0c 86bd
000002d0: 04bd cfbd 7211 c3bc b2cb 18bc ec9c 0abd
000002e0: 334c 823b b79d a6bc 1ba1 343c 3a58 a4bb
000002f0: e6ab 88ba 6337 19bc c192 dbbb 8679 24bc
00000300: 5ad8 6abd 30ba 89bb 9dfa 933b f6ca 92bc
00000310: 5098 7bbd df59 3abd d4a1 52bd 7667 3ebd
00000320: 6c97 3fbd adb4 8abb 45e8 7bbc 3e5e dcbb
00000330: 52d2 d4bc d004 cdba c9dc 5e3a 3306 123a
00000340: a3e7 d4bc 4f12 cfba 1304 7c3b dedb b63b
00000350: d4be 51bb 1462 91bb 1402 c2bc 980b 9eba
00000360: 600c cfbc ff40 94bc f804 c5ba 78de eabc
00000370: e495 f0bd 3106 80bd 3e0d 21bd bc30 3abd
00000380: f7f4 89bc 22fd dbbb 7e89 973b 8597 50bc
00000390: 1dc8 e8bc 6cf9 9a3b 789e e9bc bec1 05bc
000003a0: fd7b 18bd ae19 1eb9 a194 77bc 272e 4b3c
000003b0: edbb 8ebd 907f 3abd f981 e2bc 5b7d f7bd
000003c0: 7250 8abc e74e 8cbc 550f 28bc 894a babb
000003d0: a13b cbba 201a acbc 9945 0abc 24c9 823b
000003e0: a295 92bc 9b7c 7cbc ed93 3fbc 6213 9dbc
000003f0: 3e16 053b 33c9 f5bb 8de3 e7bb f3e2 52bc
-0.041668765 0.008980153 0.010106034 -0.00777159 -0.0020608553 6.765897e-07 -0.016249942 -0.020830486
-0.013662077 -0.02569455 0.006755223 -0.0020562727 -0.04157976 -0.0100389365 -0.012212561 -0.011670199
-0.04199541 -0.019143999 -0.0034212945 -0.034538716 -0.19878037 -0.10903574 -0.12811704 -0.06514486
-0.12648553 -0.031374957 0.0075778496 0.005492942 -0.035474207 -0.0047611925 -0.019833481 -0.0015196182
-0.12779857 -0.016842868 -0.027836699 -0.00930919 -0.13071173 -0.058101173 -0.026621256 -0.06487282
-0.031084178 -0.019887874 -0.031347256 -0.015503864 -0.02616643 -0.00017757036 -0.018275814 -0.01742087
-0.027185421 0.005781795 0.0029401982 -0.016689455 -0.028493837 0.0099379895 -0.026040705 -0.0015316284
-0.11875939 -0.006235301 -0.03703154 -0.1506451 -0.029169807 0.0010973217 -0.0012412498 -0.010282387
0.0090954695 -0.007978872 -0.017582718 0.006375296 0.0084984815 -0.01727205 -0.007831683 -0.020127747
-0.02444765 -0.003024013 -0.032518495 -0.009830062 -0.06622601 -0.05637983 -0.09300432 -0.11749876
-0.022352427 0.011538226 8.44327e-06 -0.015480104 -0.017123684 0.0049009304 0.0072424402 -0.021685045
-0.013037519 0.004232069 -0.018424239 0.0076885964 -0.022681843 -0.025865024 -0.025059411 -0.029479578
-0.051910304 -0.05081247 -0.04336702 -0.048100423 -0.029006004 -0.020246005 -0.02646138 -0.066639364
-0.039846655 -0.024952093 -0.020223245 -0.006118448 -0.025018549 0.0007553828 0.0019430894 -0.025117029
-0.00932894 -0.022453306 0.007996204 -0.018417632 -0.046521656 -0.027357666 0.00024283004 -0.016296152
-0.017898597 -0.0052039986 -0.00080896186 -0.015125764 -0.019885821 0.0039048088 -0.009952893 -0.02493277
-0.004978563 -0.009051993 -0.0051704287 -0.0044031846 0.00051550474 0.0027434367 -0.026947167 -0.008456079
-0.019259905 -0.025032513 0.00967978 -0.007855351 0.000588829 -0.021375487 -0.011915738 -0.024110546
-0.0033528472 -0.011277645 -0.005506354 -0.0034927463 -0.031294715 -0.0014672126 -0.011558276 -0.021557625
-0.038180955 -0.027619729 -0.0006707053 -0.0064190784 -0.056889158 -0.03443559 -0.010492257 0.0037045332
-0.013299284 0.0050354116 0.0018664629 -0.025755594 -0.021980599 0.009853136 -0.004184188 0.00556899
-0.0642561 -0.023166927 -0.017894784 0.0060894066 -0.040072296 -0.023902504 -0.025782272 -0.024286196
-0.05365729 -0.050150845 -0.05543326 -0.065453045 -0.10143474 -0.02381203 -0.0093259085 -0.03384106
0.003976369 -0.020338876 0.011024739 -0.0050154002 -0.0010427206 -0.009351584 -0.006700844 -0.010038739
-0.057335235 -0.0042031035 0.0045159594 -0.017919045 -0.061424553 -0.045495864 -0.051423863 -0.046485387
-0.046775267 -0.004232964 -0.015375202 -0.0067251017 -0.025979195 -0.0015641693 0.00085015275 0.0005570382
-0.02598936 -0.0015798303 0.0038454577 0.0055804094 -0.0032004612 -0.0044367407 -0.023682632 -0.0012057899
-0.025274456 -0.018097399 -0.0015031388 -0.028670534 -0.11747339 -0.06251181 -0.03931927 -0.045456633
-0.016840441 -0.0067135254 0.0046245446 -0.012731438 -0.028415734 0.0047294404 -0.028517947 -0.0081638675
-0.03722762 -0.0001507762 -0.0151111195 0.01240114 -0.06969438 -0.04553181 -0.027649866 -0.120844565
-0.016884062 -0.017127467 -0.010257562 -0.005685155 -0.0015505442 -0.021008551 -0.008439445 0.003991263
-0.017893616 -0.015410568 -0.011692983 -0.019174282 0.0020307447 -0.0075007915 -0.0070766867 -0.012871492

linear.bias f4 [14]
00000000: e3e3 8dbd 66ab f43d a522 9c3c 9353 313d
00000010: 0fb1 d8bd 1362 89bd dfde a7bc a7bc bc3b
00000020: a332 9cbc 5b6f 38be b19e 00be 08f5 7b3e
00000030: 02a4 11bc 1936 373e
-0.069282316 0.11946754 0.019059489 0.043292593 -0.10580646 -0.06708159 -0.020492015 0.005759794
-0.019067114 -0.18011229 -0.12560536 0.24605191 -0.0088892 0.1789173
