CNN/Model_Weights_Logs/54/lowest_val_loss.pth (torch, 535111 bytes, 10 tensors)

conv1.0.weight f4 [16, 1, 3, 3]
00000000: 6bd8 85be e1df a4be d0fc 41bd d7c2 953e
00000010: 141a bf3d 1e76 373e d674 85bd cf97 203e
00000020: bfc0 02be 5eb2 d5bd 89aa 94be 51ac 9c3e
00000030: 8c18 d43c ea7b a6be 3bf5 5d3e 1cf3 a7be
00000040: e646 91be 6d7a 9f3e 5f17 c3bd 8d39 7a3e
00000050: 82a5 003d ce37 b6bd 36ee 9dbe 1c6f 61be
00000060: 7d51 15be 0da0 99be 7f1f 7fbe 5234 7b3e
00000070: 25ce 6e3e fc60 30be d1e2 463e dba1 7ebe
00000080: 6945 1cbd 4693 46bd df0c 4a3e 9874 3f3e
00000090: c697 c83d 7f50 07be 5ff9 e03d 2c9e 5fbe
000000a0: b877 4d3e 6112 0c3d 7bd3 da3c 9619 c7bd
000000b0: c7fa 66ba 3641 86bc 8adc 90bd 8e8d cd3d
000000c0: 7719 c6bd 2cd5 2dbe a1ee 77be f96f d5bd
000000d0: 53de 3abe e087 2e3e e09e e33d 8676 fe3d
000000e0: 0f37 50be 1c32 4dbe d01b a0bd 99fa 953d
000000f0: 8c52 8dbe d90a 3b3d 33c4 943e ae09 31bd
00000100: 734e 303e e520 68be 6a00 dbbd 74b3 99be
00000110: 1d69 78be 1f9a 333e f35e 143e 60b1 6f3e
00000120: 23b4 963d 6858 963d 67e8 08be 4a59 52bc
00000130: 8cfa adbe 4b69 1c3d a2bf 16bd e588 b5be
00000140: 8e3f 18be 5cc1 8f3e 96de 8a3e ed8a f8bd
00000150: 156c 9a3e 7abe 2e3e 8981 f0bc ce01 563d
00000160: 433e 293e c787 a1be 2156 50bd 842d 953c
00000170: 0f47 583d 7a1a a4be 8a5e 8e3e b680 57be
00000180: d072 63be 6824 ddbc 3c6d 8b3d e98d 743d
00000190: 8f71 573e 637e d1bd afee 40be 9dc2 59bb
000001a0: 7389 f6bd df9b bc3d ff27 763e 96a5 fdbd
000001b0: 2dda 363e 6908 963e 16f1 2cbe a41c 3fbc
000001c0: b505 623e 61b9 473e f131 743d e3b4 953d
000001d0: a6b0 263c aa88 233d 4e77 23bd 668f 083c
000001e0: b68b 0bbd c500 61be e1ff 433e 0ddc 84be
000001f0: 3859 2a3e f55c 96bd 2873 77be 32db 21be
00000200: 9bfd d23d 0c21 50be f419 59be 67e4 8dbe
00000210: 1d4a 033e 5e0f 453d 226d b73d b4a0 db3c
00000220: 7536 02be 49ec a53d 98b6 233e 557b 833e
00000230: ebbb 733d a6f1 8dbe af35 81be 09d2 ecbd
-0.26141676 -0.32202056 -0.04736024 0.29250214 0.09331146 0.17916152 -0.06516425 0.1568291
-0.1276884 -0.104344115 -0.29036358 0.30600217 0.025890611 -0.32516414 0.21675579 -0.32802665
-0.28374404 0.3114809 -0.09525942 0.24436016 0.03140784 -0.08897363 -0.30845803 -0.22015041
-0.14581867 -0.30004922 -0.24914359 0.24531677 0.23320825 -0.17224497 0.19422461 -0.2486643
-0.038152132 -0.048480295 0.19731472 0.1869682 0.097945735 -0.132143 0.10985064 -0.21837682
0.200652 0.034197215 0.02671217 -0.09721677 -0.00088111724 -0.016388517 -0.070733145 0.10036765
-0.09672826 -0.1697585 -0.24212123 -0.10421748 -0.18248872 0.1704402 0.111142874 0.1242495
-0.20333503 -0.20038646 -0.07817805 0.07323188 -0.2760204 0.045664642 0.29055938 -0.043222122
0.17217426 -0.22668798 -0.10693438 -0.30019724 -0.24258848 0.17539261 0.14489345 0.23407507
0.07358577 0.07341081 -0.13369904 -0.012838671 -0.33980215 0.038186353 -0.03680385 -0.35456005
-0.14867994 0.2807721 0.27122945 -0.12135873 0.30160585 0.17064849 -0.029358642 0.052247815
0.16527657 -0.31548902 -0.05086339 0.01821018 0.05280214 -0.3205145 0.27806503 -0.21045193
-0.22211766 -0.026994899 0.06807944 0.05970565 0.21039413 -0.102291845 -0.1884105 -0.003322757
-0.12037935 0.092094176 0.24038695 -0.12385099 0.17856665 0.2930329 -0.16888842 -0.011664543
0.2207249 0.1950431 0.05961794 0.07309892 0.010173952 0.039925255 -0.0399087 0.00833497
-0.034068786 -0.2197295 0.19140579 -0.25949135 0.16635597 -0.07341949 -0.24165022 -0.15806273
0.10302278 -0.20325106 -0.21201307 -0.2771332 0.1282124 0.04811036 0.08956362 0.026810028
-0.12716086 0.081017084 0.15987623 0.25680032 0.059505384 -0.27723426 -0.2523627 -0.115634985

conv1.0.bias f4 [16]
00000000: 796f 5cbe 9569 303d 8cd4 1bbe d510 ddbe
00000010: 608e e23e 719f 66be e426 c7be 9488 eb3d
00000020: a858 7bbe bcd0 0abf faf8 833c 7150 b6bc
00000030: e880 843e 1577 88bd 0c89 83be 3446 533e
-0.21526898 0.04306944 -0.15217799 -0.43176904 0.44249249 -0.2252176 -0.3889686 0.115006596
-0.24545538 -0.54224753 0.016109932 -0.022255154 0.25879598 -0.06663338 -0.25690496 0.20632249

conv2.0.weight f4 [32, 16, 3, 3]
00000000: ba2b e7bc c5fb 8fbc 9761 083d 58b9 8abd
00000010: 7f90 6d3d 48f2 373c 0551 30bc df3f 503d
00000020: 405b bdbd 6f39 473d afe4 20bd e810 ca3c
00000030: 9f3d 843d a14b fa3c 9b1d 2f3d 035e 343d
00000040: cd87 223d 3fe1 a03c cb6f 213c 2f97 4b3d
00000050: e4ae 2f3c f129 48bc 9c0d 50bb dbd4 51bd
00000060: 7752 90bd 6a36 82bd 09d0 8a3d 8740 51bd
00000070: 62b0 30ba c022 3a3d 75c1 9dbd fd3f c43b
00000080: b62c 833d 35db 32bd b256 e33c 2c7a 98bd
00000090: 43ed 83bc bf6f ec3b 22c5 8ebb b078 51bd
000000a0: 6c16 fdbb 1596 6bbd 4c8f 543b 6481 90bd
000000b0: 84c3 aebc a24a 28bc 7832 0dbd 3413 ef3b
000000c0: 5de6 07bd a324 73bd cbda 18bc 8073 3139
000000d0: c5ed 403d b452 fa3a 9c2d d0bc 0775 9c3c
000000e0: 1adf 1b3d dc3d acbd 3f6b 163d d730 47bc
000000f0: 893a 73bd 972a 4fbd 08da 1e3d 7113 84bd
00000100: 2632 9a3d 2fdc acbd 51d7 7e3d 06d2 253d
00000110: 7c93 7cbc e310 293d cddf 81bd cac3 6c3d
00000120: d90d 87bd 4180 7abd 909e 68bb 0511 81bd
00000130: 7d18 53bd 808f 85bc 0c38 ecbc b3cd 69bd
00000140: aedf 283d 2638 873d fb72 c2bd ac21 31bd
00000150: ab99 973d 8f0e de3c 9f8e 99bd d37a c73c
00000160: 5487 c8bb f3d6 7bbd 99c1 543c b0d6 773c
00000170: 739b 823d 74b8 9a3d a352 a7bd c616 e53c
00000180: 1869 acbd 8d47 8b3c 9293 11bd 47b6 3ebc
00000190: 1c29 0b3d df8c bbbd e105 a6bc 65c8 a0bd
000001a0: 6d3f 3fbc efc9 41bd 8060 7eba c796 52bd
000001b0: 1aa1 55bd a89e 0dbd 85c4 dfbc d79e 5d3d
000001c0: 6912 bbbd 0c67 333c d31f 64bb c315 293c
000001d0: 0a26 053d 338a 88bc f90a 7b3d 7589 563d
000001e0: 2cef 6e3d d745 843c 1e1f d73c 68ef 33bd
000001f0: f2d3 70bd b769 22bc d588 0e3d 5c40 1f3d
00000200: 33f2 c3bc 3074 683b 3e65 93bd bc77 873c
00000210: bb78 a13c 0ee7 be3c 193b 4a3d b091 123d
00000220: 0a4d adbc 1469 bdbc bac1 ffbc a705 52bd
00000230: ddc3 663c d0bb 673d effe 373d 48fe 4b3d
00000240: 768a b9bd ffcd d6ba b122 113d f0d0 2e3b
00000250: d4ba 873c 062e 343d 10b0 923d f52f bebb
00000260: 2142 a63c 966b 8ebd f99e dbbb debf 323d
00000270: 5bd2 88bb 94c3 59bd 095c 3b3d 4b59 21bb
00000280: 8850 64bd cfd7 fe3c 7fd9 923d 39cf 323d
00000290: 506a 283d 8961 a0bc 46f9 393d 0a22 843d
000002a0: 0f70 03bd 987e bd3c 88b0 a7bd e089 a9bd
000002b0: 3cec 9abd 1208 a5bc 71ac f7bc 8931 66bd
000002c0: 3c99 20bc d190 3b3b e4d7 5f3d 70c3 a9bd
000002d0: 40fd 06bc 0117 03bd 68f1 29bd 83c4 9bbd
000002e0: d7de 313d 8827 bfbd 1854 a2bd 7338 b73c
000002f0: 4e98 da3c 92ff cd3c 264a 7e3d 4596 a5bd
00000300: 636a 44bc 6908 9abd 6414 0fbd 331d 76bc
00000310: b5de 55bd 0de2 653b 779e 13bd d342 04bd
00000320: 8e2c 38bd 3bae d83c 684f b6bd b03d d9bb
00000330: f472 0e3d 2293 493d b3f9 c1bd aa85 fbbc
00000340: e80d 313d 6285 6fbc b1b5 b8bd 8969 5dbd
00000350: 2f84 12bd d921 a2bd a363 83bd f3f6 a2bd
00000360: 0145 653c 27c4 773d 2eee 493d d6f9 373c
00000370: 9ed2 f4bb 54c3 13bd b587 2f3d 5fce ecbc
00000380: b0a2 91bd bb1b 93bb f775 973b 72b0 82bd
00000390: 3de3 a1bd 6864 0bbc 45d6 6a3c ce71 933d
000003a0: 8187 ad3b 96f7 b8ba 1aae de3b c845 40bd
000003b0: ab46 94bb 973e 283d 0ff4 7ebd bef7 343d
000003c0: 734f 503d c5fb 13bd fd69 95bd a19a 303d
000003d0: d4df 563d ef24 45bc c5b0 d1bc c8dc 2a3d
000003e0: 1ef8 453d e778 c3bd 96bd 0bbd 9eb5 723d
000003f0: 1941 1cbd 7bab 663d 0ccf 18bd ba1a 87bd
-0.028219093 -0.017576108 0.033296194 -0.06773633 0.05799913 0.011227198 -0.010761504 0.050842162
-0.0924592 0.048638757 -0.03928059 0.024666265 0.06457066 0.03055364 0.042752843 0.04403497
0.03968029 0.019638656 0.009853314 0.049704727 0.0107228495 -0.012217031 -0.0031746393 -0.051228385
-0.07046979 -0.06358035 0.06777961 -0.05108693 -0.000674015 0.045443296 -0.077029146 0.0059890733
0.06405012 -0.043666083 0.0277513 -0.074451774 -0.016104346 0.0072154696 -0.004356996 -0.051140487
-0.00772362 -0.057516176 0.0032434044 -0.07055929 -0.021333463 -0.0102717 -0.03447196 0.0072959904
-0.033178676 -0.05936111 -0.009329508 0.00016923063 0.047101755 0.0019098134 -0.025412373 0.019098772
0.038054563 -0.08410236 0.03672337 -0.01215764 -0.059381995 -0.050577726 0.03878215 -0.06449021
0.07529096 -0.08440434 0.06221706 0.040483497 -0.015416022 0.04127587 -0.06341515 0.057803907
-0.06594438 -0.06115747 -0.0035494901 -0.06302074 -0.051537026 -0.016303778 -0.028835319 -0.057080936
0.041228943 0.06602506 -0.09494587 -0.043245003 0.07402357 0.027106551 -0.07497906 0.02435056
-0.006119648 -0.06148429 0.01298561 0.015126869 0.06377306 0.07554713 -0.081700586 0.02796496
-0.084184825 0.017001892 -0.035541125 -0.011640138 0.03397475 -0.091577284 -0.020266475 -0.07850722
-0.011672837 -0.04731172 -0.00097037107 -0.051413324 -0.05215559 -0.034575135 -0.027315388 0.05410656
-0.09134371 0.010949861 -0.0034809008 0.01032013 0.03250698 -0.016667461 0.06128976 0.052377183
0.05833356 0.016146583 0.026259955 -0.043929487 -0.058795877 -0.0099129 0.034798462 0.038879737
-0.0239192 0.0035469644 -0.07197045 0.016536586 0.01971089 0.023303535 0.049372766 0.03578347
-0.0211549 -0.023121394 -0.031220306 -0.05127492 0.014084783 0.056575596 0.044920858 0.04980305
-0.090596125 -0.0016388296 0.035433475 0.002667483 0.016568579 0.043989204 0.071624875 -0.005804057
0.020295205 -0.06954114 -0.0067023006 0.04364001 -0.004175467 -0.053165033 0.04574207 -0.0024619873
-0.055740863 0.031108765 0.0717039 0.043654654 0.041117013 -0.019577758 0.04540374 0.06451805
-0.03208929 0.023131654 -0.081879675 -0.08278251 -0.075645894 -0.02014545 -0.030233594 -0.056199584
-0.009802159 0.0028620253 0.05464925 -0.0828923 -0.00823909 -0.03200436 -0.04148999 -0.07605841
0.043425407 -0.09333712 -0.07926196 0.022365784 0.026683953 0.02514628 0.062082432 -0.08085302
-0.011988255 -0.07521135 -0.034931555 -0.01502161 -0.052214343 0.0035077364 -0.036039796 -0.03229029
-0.044964366 0.026450267 -0.08901864 -0.006629668 0.034777597 0.049212582 -0.094714545 -0.030703384
0.043226153 -0.014619203 -0.0901903 -0.054055724 -0.03577059 -0.07916612 -0.064154886 -0.07957258
0.013993503 0.0604898 0.04929941 0.011228999 -0.0074713966 -0.03607495 0.04285403 -0.028907
-0.07111108 -0.0044893897 0.004622217 -0.063813105 -0.079046704 -0.008507825 0.014333312 0.07199441
0.0052956943 -0.0014111872 0.006795657 -0.04694155 -0.004525026 0.041075315 -0.06224447 0.044181578
0.05085702 -0.036128778 -0.07295606 0.043116216 0.052459553 -0.012032731 -0.025596986 0.04171446
0.048332326 -0.09544545 -0.03411635 0.059255235 -0.03814802 0.05631588 -0.03730683 -0.065968946

conv2.0.bias f4 [32]
00000000: cbeb 9d3d fd51 45be 5670 2cbb 9884 6b3e
00000010: c195 293e 13dd 593e 134f c33d d90b 843c
00000020: f36a b2bd 0838 d23d 55c7 743e 02bf 273d
00000030: c666 323d e9c6 1fbd fc7c b7bb d2f3 91be
00000040: d8de 00be 1ad3 07be 3833 64be 6f1d 1f3e
00000050: e4ad 863e b29c 8ebd 0857 823e 19e3 9c3e
00000060: 2d0e d63e 9213 1c3e f7ef 3ebe c92d c6bd
00000070: 4783 04be ff2e 14bd e94b 52bc d75c e23d
0.077109896 -0.19269557 -0.0026312075 0.22999799 0.16561033 0.2127574 0.095365666 0.01611893
-0.08711805 0.10264593 0.23904164 0.040953644 0.043555044 -0.039008055 -0.005599616 -0.28506333
-0.12585008 -0.13264123 -0.22285163 0.15538572 0.26304543 -0.06963481 0.25457025 0.30642012
0.4180769 0.1524184 -0.18646227 -0.096767016 -0.12940703 -0.03617763 -0.012835481 0.11052864

conv3.0.weight f4 [64, 32, 3, 3]
00000000: aa5c bd3c c69c 6639 5403 2abc c8d4 0ebc
00000010: 997c 30bd d61f 48bc 23ef 253c 664a 2bba
00000020: 9e1c c53b 8160 5ebd 3d38 613b a642 203d
00000030: 0f5a 283d ee80 20bc 1332 fbbc e9d7 4cbb
00000040: 96b5 e63c 146f 22bd 7277 f7bc 1e25 3c3c
00000050: 35ce cebc fca0 80bd 7e48 49bd 7e54 01bc
00000060: 3dff acbc 3fed 81bc 48ef 40bc cb2e 4d3c
00000070: 3927 e5bb 3acb 36bc ba7f 75bd 1471 8cbc
00000080: 1723 11bd fd6f 58bd 863a bebb 2ded 36bd
00000090: 39b0 d0bc 25bd 20bd ca52 40bd fad9 373c
000000a0: 7456 4ebd 6641 01bd 974a 48bd a0a2 8bbd
000000b0: c735 c7bc df1b 59bd f91e 893c 798a deb9
000000c0: 4511 ebbb 51a9 83bd ba4a 2fbd 1114 33bb
000000d0: b48e 29bd b9b9 d4bc 1bef 3abd aba8 1abd
000000e0: ef8d 5dba 08d9 d0bc bcd7 ab3c 93b0 903c
000000f0: 72de 163d c196 33bd 5c68 6fbc 6045 0a3d
00000100: c9d3 aa3c bc48 f1bc 0618 a8bc b771 c03c
00000110: ada0 e2bb f56d 4dbd e4a5 293d 2fdc 6439
00000120: e311 48bd 53bf 3f3d 1d78 f23c 6a37 853b
00000130: 671b e6bb de15 9b3b 355f 1f3c bcd0 9c3c
00000140: 388b ecbc b535 b7bb d3e1 7ebd 5749 863c
00000150: 7c88 c33c c6ed 463d bbb0 e63c 024d 093d
00000160: 65a9 913c 3f33 10bd 2d40 cabc 35ae 5cbd
00000170: ed3d f9bc 632f 213d f4f8 37bb bc3d 71bd
00000180: e730 49bd f49d 383d a7c3 e83c 434d 5cbd
00000190: 74b0 4dbd 6e0e 31bc f4b8 1dbd 82d3 60bb
000001a0: 7459 11bd bd9b 0b3c e4f0 16bd 369f 46bc
000001b0: 4cdb dbbc dd61 1d3d 0869 56bd 04fd 813c
000001c0: fef3 de3c 9ea7 1cbd 18cf 12bd d39e c0bc
000001d0: 654e 133b b07d 69bd 1203 a03c 8685 a5bc
000001e0: 2b7f f7bc 9c30 453c 5fe7 eebc dbf9 79bd
000001f0: f936 0abd f1ab 0ebd a116 f6bc 5a95 cfbc
00000200: 7d2a 213d 0c6d f6bc 9a17 2c3d 9eac b6bc
00000210: bec6 833c 4c09 423d fbcd e93c ddb5 24bb
00000220: cc82 18bc abba e13c b731 6cbc c293 fcbc
00000230: b7ca 13bc 5070 883b 5700 4dbd 9ab0 2c3d
00000240: 61f8 74bb 7503 ad3b fff3 14bc 34d6 303d
00000250: f275 40bc 8ae4 dd3c 6e2c 483d cfe4 263b
00000260: f567 403c 1efc aa3c 2752 783b 8010 253d
00000270: c9b4 0d3d 2d4e 283d eea7 9ebc f784 d9ba
00000280: f5ba cd3c aadd 27bc 985f e43c 3db8 173d
00000290: 37b3 41bd 6cdd 60bd 1332 79bd 8220 793b
000002a0: 9503 54bc 8f0f 82bd cf8c c93c afdd 2ebd
000002b0: fb1b 2b3c 8f9f 243d fa37 5ebd 3949 453d
000002c0: 8a00 36bd ffeb 08bd 4345 1e3d 2ae6 e73c
000002d0: 6d63 f83c 9d3d f1bc 7390 243d f097 023d
000002e0: 9c6b 663c 722b 003d c622 84bd e2dc 76bd
000002f0: 1b04 213d 4d27 eabb aa8d 42bc 52bd 0fbd
00000300: 3913 343c 500e 133c 0a94 83bd f87a 51bd
00000310: 732b 35bc f5b7 263d 4272 78b9 3a20 12bc
00000320: bd89 1b3c f6b2 ce3c ae14 48bc 3619 f63c
00000330: 81c7 26bd 0d7e 17bd 9ee1 b4bb 508a 02bd
00000340: 4c68 23bd 1e40 85bd 5e7f 70bd a516 123d
00000350: 05e2 d23b 248c 483d b2ce 953c 52af 4a3c
00000360: 616f 273c b33d a93c dc02 8bbd bcc6 0f3d
00000370: bf04 dabb 7d18 f33c 3dad fcbb 7961 ed3c
00000380: 7f76 0cbd 079f bdbc 48da 3b3d bb6a 103b
00000390: 6482 bd3c 34f3 b13a 50a3 a4bc 32a8 433c
000003a0: b220 86bc ec46 d4bc 26b7 a43c b9bf ce3b
000003b0: b44d b4bc 0d28 433d b3ed fabb de33 283c
000003c0: c696 593c 2774 cb3c dfba f1bc 47a6 d6bc
000003d0: ffe0 85bd 290e 8e3c 4f11 e3bc 8a7d 013d
000003e0: 00c3 183d 1546 1dbd b1d1 4b3d 8751 203d
000003f0: 6ad3 40bd fffa 6dbd 4730 8dbd d525 e2bc
0.023115475 0.00021992912 -0.01037677 -0.008717723 -0.043087576 -0.0122146215 0.010127815 -0.00065342186
0.0060153743 -0.054291252 0.0034365796 0.03912606 0.04110151 -0.009796364 -0.030663526 -0.0031256622
0.028162759 -0.039656714 -0.030208323 0.011483459 -0.025244812 -0.06280705 -0.0491414 -0.00789368
-0.0211178 -0.015860198 -0.011775799 0.012523363 -0.006993201 -0.011156851 -0.059936263 -0.017143764
-0.035433855 -0.052841175 -0.0058053164 -0.044659782 -0.025474655 -0.039242882 -0.046953954 0.011221403
-0.050375417 -0.03155651 -0.04889926 -0.06818128 -0.024317635 -0.053005096 0.016738402 -0.0004244631
-0.0071736895 -0.06428779 -0.042795874 -0.0027325193 -0.041395858 -0.025967466 -0.045638185 -0.03775851
-0.0008451631 -0.025494114 0.020976894 0.017662322 0.036833234 -0.043844942 -0.014612284 0.033757567
0.02085294 -0.029453628 -0.020519268 0.023491723 -0.0069161267 -0.05015369 0.04141797 0.00021825799
-0.048845183 0.04681332 0.02959829 0.0040654438 -0.0070223096 0.0047328314 0.009727289 0.019142501
-0.028874978 -0.005591119 -0.06222708 0.016392393 0.023868792 0.048566602 0.028160444 0.033520706
0.017780969 -0.035205122 -0.024688805 -0.053877074 -0.030425036 0.039351832 -0.0028071972 -0.058896765
-0.049118903 0.04507251 0.028413607 -0.05378462 -0.050217107 -0.010806663 -0.038506463 -0.0034305756
-0.0354857 0.008521018 -0.036850825 -0.01212292 -0.026837967 0.038423408 -0.05234626 0.015867718
0.027215954 -0.03824579 -0.03584203 -0.023513233 0.0022477147 -0.05700463 0.019532714 -0.02020527
-0.030212006 0.012035515 -0.02916306 -0.061029296 -0.033743832 -0.034831945 -0.030040087 -0.025339771
0.03934716 -0.030081294 0.042014696 -0.022299107 0.016085979 0.047372147 0.028540602 -0.0025132813
-0.009308528 0.02755483 -0.01441615 -0.030832175 -0.009020499 0.0041637793 -0.050049152 0.042160608
-0.003737949 0.005279953 -0.009091376 0.04317303 -0.01174687 0.027086515 0.048870496 0.002546597
0.011743535 0.020872172 0.0037890763 0.04029894 0.03459624 0.04109018 -0.019367184 -0.0016595413
0.025113562 -0.01024572 0.027877614 0.037040938 -0.047290053 -0.054898664 -0.06083877 0.003801376
-0.012940307 -0.06350624 0.024603276 -0.042691883 0.010443683 0.04019123 -0.054252602 0.048165534
-0.044434108 -0.03342819 0.038640272 0.028307993 0.030320847 -0.029448325 0.04017682 0.03188318
0.014063742 0.031291433 -0.06451945 -0.060269244 0.039310556 -0.0071457983 -0.011874596 -0.03509266
0.010990911 0.00897558 -0.064247206 -0.051142663 -0.011057722 0.04070278 -0.00023693687 -0.008918816
0.009493289 0.02523182 -0.012211962 0.030041318 -0.040717606 -0.036985446 -0.0055200597 -0.031870186
-0.039894387 -0.0650637 -0.058715217 0.035666127 0.006435635 0.048961774 0.018287037 0.012370901
0.010219426 0.020659303 -0.06787655 0.035101637 -0.006653398 0.029674763 -0.0077110813 0.028977143
-0.034292694 -0.02314712 0.045862466 0.0022036273 0.023133464 0.0013576508 -0.020097405 0.011941956
-0.016373012 -0.025912724 0.020106863 0.006309476 -0.022009708 0.047645617 -0.0076577305 0.010266272
0.013280576 0.02483566 -0.029508052 -0.026202334 -0.06537055 0.017340736 -0.027718214 0.031613864
0.03729534 -0.038396914 0.049760524 0.03914025 -0.04707662 -0.058100697 -0.06893974 -0.02760593

conv3.0.bias f4 [64]
00000000: 4be3 91bb c559 adba 783e dabb 8f3a 843d
00000010: f758 8dbc 264d 7abe a96d cc3e 9afb 813c
00000020: 986f 37be 69f9 4fbe f451 4bbd e66a 2ebe
00000030: 8090 c4bd 82b2 92be 8881 94bc 437a b53e
00000040: 066f 42bd da59 e5bc 69a4 4fbd 1e28 70bc
00000050: 0f49 72be 022a 9fbe 9e35 f4bd 5fd8 0dbe
00000060: 3dc2 acbd 86e9 7cbc cc46 b0bb bfc0 34bd
00000070: 53bd d3bc 55f8 40bd c5c9 2fbc ab12 93bd
00000080: 7ac2 fbbb 7cca 6bbe b5d6 39be e30f 10bd
00000090: 17ff bfba bd47 0abe bc56 50be e7f7 5bbc
000000a0: 6b37 b43d a2aa 233b 5ac7 17be 4e02 8abd
000000b0: 6e29 8b3d 7a5f 62be 4bf5 81bd 024c acbe
000000c0: 5699 e0bc 1f36 8abd d168 443e ace7 33be
000000d0: e169 f5bd 4ee8 5ebe fd1c a23d 6c0f 94be
000000e0: fba9 01be 13b3 dabd 3a90 aebe 94f1 44bd
000000f0: fb11 18bd 12af edbd 5035 65be c25d 433d
-0.0044521443 -0.0013225606 -0.006660279 0.06456482 -0.017254336 -0.24443492 0.39927414 0.015867043
-0.17913663 -0.20309986 -0.049638703 -0.17032966 -0.09597874 -0.28651816 -0.018128172 0.3544484
-0.04746916 -0.027996946 -0.050693903 -0.014658002 -0.23660682 -0.31086737 -0.11924289 -0.1385207
-0.084354855 -0.015436536 -0.0053795334 -0.04412913 -0.025847113 -0.047111828 -0.010729258 -0.07181295
-0.0076830955 -0.2302646 -0.1814831 -0.0351714 -0.0014648166 -0.13503928 -0.20345587 -0.013425804
0.08799633 0.0024973531 -0.1482214 -0.06738721 0.067950115 -0.22106734 -0.06345614 -0.3365174
-0.027416866 -0.06748604 0.1918061 -0.17568845 -0.119830854 -0.21768305 0.07915685 -0.28918016
-0.12662499 -0.10678687 -0.3409441 -0.04808195 -0.037126523 -0.11605658 -0.22383618 0.047696836

conv4.0.weight f4 [128, 64, 3, 3]
00000000: df33 0abc 1e38 7b3c 187b 8f3c 97fc f23c
00000010: 7f63 fa3c e890 c5bc 5db2 3c3c c991 933b
00000020: a084 0abc 68b1 d0bc 878f e8bb 75a9 a43c
00000030: f0ad 163d 782e 6bbc cd46 da3c 29af 8a3c
00000040: ac9c cfbc b73e 03bd e2c3 e2bb edc3 46bc
00000050: e58e ef3c 75cc 183d 9b3f 2a3b 330e eb3c
00000060: b0c4 5ebc 63a0 f23c ffa0 193d 4f2d 9abc
00000070: d102 a33c bf14 943c ade2 913b 5a0f 193c
00000080: edd2 24bd 6571 483c 1ab6 dbba 0d1f 113d
00000090: 43a2 36bd 8bfc cdba 68bc 84bc 0af7 a6bc
000000a0: 40c4 1abd 5e02 16bd e2f9 e63c 4fe9 bc3c
000000b0: a57d d5bc 6cfb 3e3c a2a3 2dbd ef42 afbb
000000c0: b855 d4bc 3d1b 2dbd aa47 39bd bf5d 9e3c
000000d0: f2d5 acbc 018f edbc bac3 d73c 19b3 193c
000000e0: ed11 cebc 3b93 e43b dc2f f23c fbb6 0fbd
000000f0: bec1 68bc 22a3 acbc 9063 adba e883 e9bc
00000100: 4aa9 b03c d3c0 863c 44ff 273d 835c 80bc
00000110: 35e9 bfbb 38fb bd3c 8875 fabc 505a 5b3c
00000120: c54b 09bd 6733 e73a f350 863c 27ab a7bc
00000130: 7f76 153c b99e ac3c b2f7 b23b 20e9 37bc
00000140: 2219 7aba 8977 863c 525e 88bc 58f9 e7bc
00000150: 1624 54bc adfd cdb9 6d6a 073c ac3c 193c
00000160: cefc 9bbc b156 d93c 2cff 9fbc a737 b83a
00000170: c0f4 153d ee7b 36bc 0ab1 fdbb 2521 e4bc
00000180: d290 c43c f847 07bd b85b 21bd 75b2 9e3b
00000190: 5d7a a0bc b54e 9e3c 8ac3 d83c 5fb3 37ba
000001a0: 328a fdbc 399a 1bbd 049c 223d e2c0 193c
000001b0: e210 fcbc c6f7 d6bc c73c 19bc 7970 aa3c
000001c0: bd75 5bbc ec7d f33b 7b9b e43c eb4a d23b
000001d0: e72d 8cbc 9863 d9bb 2408 683c 147b 9e3c
000001e0: a3a8 47bb 044f 893b b057 e1bb 464c 54bc
000001f0: 3324 a53b 16ca 5dba c982 193d 98aa 223c
00000200: b6b8 7b3c 7e74 4a3c 1f61 223c 4539 da3c
00000210: b097 d93c 79d5 cabc 7097 adbc 8830 bb3b
00000220: b3ee 5f3c 88e2 82bc 47f5 bbbc 614d 72bc
00000230: 3a0f b23b 894a 0bbd 1d0a 4abc e050 49bb
00000240: 50f0 c73b 1f1b a53c 98eb 0abd 4bb4 18b9
00000250: db33 a83b 6557 74bc 3214 b4bc 2b39 d23c
00000260: b424 123d 60a7 5bbc d20d e7bc 3f23 073d
00000270: 8282 16bd 9a35 133d 98d8 1b3d 6507 85bb
00000280: fdba 043d 42b1 a9ba 9b55 f83c 0de3 563c
00000290: 62fb 1fbd b345 d23c 96ac 14bd 7403 f8bc
000002a0: 4935 eb3b 97dd babc ee1d efbc fa1d ebbc
000002b0: ec5c bebc f276 353c 9706 09bd 330b b83c
000002c0: f0a6 cebc 2662 be3c 6638 133c f9fb bcbc
000002d0: 17c7 093d f7bd b0bc 7d60 923c 1d0e 8dbc
000002e0: 4a7c 36bd 940e 89bb 57d7 68bc 6571 31bd
000002f0: db1c 21bd aced b8bc b7e2 4d3c 64f7 ffbc
00000300: 2594 94bc 4e3b 13bd 201e 06bd 987f b8bc
00000310: 74eb a13c 8453 bcbb e55e fa3c b6de 763c
00000320: fbf1 c33c 8f3a 28bd 3fa5 52ba b8b3 603c
00000330: 70ec 47bc 7849 483b ca00 cd3c fcff 073d
00000340: add3 2ebd 915a 03bd 262e 873c b7fa 08bd
00000350: a532 bcbc 41b4 13bd 740b f43c 1cdd 083d
00000360: dc0c 0bbd 8172 36bd 81ec 40bd d40c 03bd
00000370: 80b0 0d3d 805b 3abc 24a6 993a 46a6 c83c
00000380: 311a 0dbd 62a9 c6bc 6094 5bbc 4ab1 f23c
00000390: a9b2 11bd a064 493c 3209 273d 27cb b6bc
000003a0: fe2d f3bc ae69 0cbd fffd 18bd 87b4 9a3c
000003b0: e8f5 303a 995a b33c d2bb c43c 6d48 24bb
000003c0: f5bb 78ba 8c4c 75bb 0f6f ccbb 7eb9 7a3c
000003d0: 17d5 1fbc aef6 6f3c bdf1 c3bc e2a1 9b3c
000003e0: e9aa 733c 1901 0f3c d09c f0bb 0c51 153d
000003f0: 15e4 0c3d e1a3 acbc b337 2d3c f4f6 b0bc
-0.008435219 0.015333204 0.01751475 0.02966146 0.030565022 -0.024116948 0.0115171345 0.004503463
-0.008454472 -0.025475219 -0.007097188 0.020100335 0.036786973 -0.014354341 0.026645089 0.016929226
-0.025343262 -0.03204223 -0.0069203237 -0.012131673 0.029242942 0.03730436 0.0025977853 0.028693294
-0.013596699 0.029617494 0.037507053 -0.018820433 0.019898804 0.018076299 0.0044520707 0.009342039
-0.040240217 0.012234067 -0.0016762645 0.035430003 -0.04458834 -0.0015715522 -0.01620312 -0.02038147
-0.037784815 -0.03662335 0.028195325 0.023060469 -0.026060889 0.011656623 -0.04239238 -0.0053485553
-0.02591978 -0.042262305 -0.04523436 0.019331811 -0.02109811 -0.028998854 0.026338447 0.009381079
-0.025155032 0.006975559 0.029563837 -0.035086613 -0.014206348 -0.021073882 -0.0013228524 -0.02850528
0.021565098 0.016449368 0.041014925 -0.015669113 -0.005856658 0.02319108 -0.030573621 0.013388231
-0.033519525 0.001763922 0.016396021 -0.020467354 0.00912249 0.021071779 0.0054616565 -0.011225015
-0.0009540488 0.01641442 -0.016646538 -0.028317139 -0.012948057 -0.0003928965 0.00826512 0.009352844
-0.019041445 0.026530595 -0.019530855 0.0014054672 0.036610365 -0.011137946 -0.007742052 -0.027847836
0.023994837 -0.03302762 -0.03939411 0.004843051 -0.019589597 0.01932464 0.026460428 -0.00070076244
-0.030949686 -0.037988875 0.03969957 0.009384366 -0.03076977 -0.026241194 -0.009352869 0.020805584
-0.01339477 0.0074307825 0.02790617 0.0064176223 -0.017111732 -0.006634187 0.014162097 0.019345798
-0.0030465506 0.0041903276 -0.0068769082 -0.012957638 0.0050397157 -0.0008460594 0.037478242 0.009928368
0.015363863 0.012356875 0.009910851 0.026638636 0.026561588 -0.024759995 -0.021190375 0.0057125725
0.01366775 -0.01597716 -0.022944106 -0.014788956 0.005433944 -0.03400663 -0.012331513 -0.0030718371
0.0061016455 0.020154534 -0.033916086 -0.00014563014 0.005133135 -0.014913415 -0.021982286 0.025662025
0.035679534 -0.0134066045 -0.028204832 0.032992598 -0.036745556 0.03593979 0.038048357 -0.0040597194
0.03240489 -0.0012946504 0.030314257 0.013115657 -0.039058097 0.025668 -0.036297403 -0.030275084
0.007177983 -0.02281074 -0.029189076 -0.028700817 -0.023237668 0.011075722 -0.03345355 0.022466278
-0.025226086 0.02324016 0.008985614 -0.023069369 0.033637132 -0.021574957 0.017868275 -0.017218644
-0.044552125 -0.004182646 -0.014211497 -0.043321032 -0.03933416 -0.022574268 0.01256626 -0.031245895
-0.018137047 -0.03594523 -0.032743573 -0.022521779 0.019765593 -0.0057472605 0.030562827 0.015067747
0.023919096 -0.04107147 -0.0008035488 0.013714723 -0.012202367 0.003056137 0.02502479 0.03320311
-0.04268234 -0.032068793 0.016501497 -0.033442225 -0.022973368 -0.036060575 0.029790618 0.03341399
-0.03394781 -0.044542793 -0.047100548 -0.031994656 0.03459215 -0.011374354 0.0011722487 0.024493348
-0.034448806 -0.02425069 -0.013402075 0.029625554 -0.035570774 0.012292057 0.040780254 -0.022313667
-0.029685017 -0.03428047 -0.037351605 0.01888491 0.000675051 0.021893786 0.024015341 -0.0025067583
-0.0009488457 -0.0037429659 -0.006238825 0.015303014 -0.009755394 0.014646215 -0.02391898 0.01899809
0.014872291 0.008728289 -0.0073429123 0.036454245 0.034397203 -0.021074237 0.010572362 -0.021602131

conv4.0.bias f4 [128]
00000000: dff8 c63c e406 793e 8c11 583d 2119 0c3e
00000010: dc1f ae3c 1cc1 313c c884 5fbd de70 80bc
00000020: 0bdd 9e3c 2bda 783d e716 0abc 6424 c53d
00000030: 15e3 1fbd e041 58bd e380 5a3e 7307 c43d
00000040: 6bb2 ac3c 2043 eb3c cf1c bf3e 82cc 3ebd
00000050: bcba afbd 178c 3e3e 400a 4b3b 20c9 1ebd
00000060: c2fb 0b3d 69b0 9c3e 235a e3bc 6df6 083d
00000070: 8ab4 f1bd 111a 443e 37d7 61bc 4187 1bbd
00000080: a418 6c3d eae6 1f3c 0b99 07bd 921e 193e
00000090: 9302 943e 00a4 bb3d ecb5 5f3e 9c9f 513e
000000a0: 3786 4dbd cba9 99bd 8634 d23c d15a 3dbd
000000b0: b828 573d cdc7 a0bd 3db7 46bc 8e4c 673e
000000c0: 6f88 a63c b1e3 dc3d 198f 4b3c 75ec 823e
000000d0: e511 0dbd 2a98 1ebc ecf9 5e3e 2d91 793d
000000e0: e4e6 293c 4c87 a5bc a719 763c 26da fb3d
000000f0: 8a54 32bd 672a 143e 1b7d 183e bf56 d63d
00000100: 003b ec3d d1f3 0c3c f6d2 9abc ea12 8b3e
00000110: c51a 9b3e aa33 093e 148e 153d c9b4 12bd
00000120: 12d8 ddbd c3b6 21bd 3a45 393e 4bad c13d
00000130: c4a4 03bd 89a8 b0bc d6b9 183e 2c37 ff3c
00000140: 115d b03c 6a80 15bd 152e d4bc 6594 213d
00000150: db5a 183c dd6d 913e 7851 ee3c 6ba7 963e
00000160: 94df b73d 1493 983d aab9 bbbd eef8 6b3e
00000170: a7d4 b9bc f46c ec3c a97e 433d ddd1 c43d
00000180: 3933 3e3e 82ff 2d3d 3ab6 403c 00de ec3b
00000190: d507 ebbc 2370 c93d bb0e 5dbd b27f 5ebc
000001a0: 10f9 8e3e 6dcc fcbc 8d8a 103e 0bf0 2f3e
000001b0: 662e d9bc c782 aabb fc4c 0ebd ddca 73bd
000001c0: 25a2 f9bb f570 a33e 4b34 f6ba 51b6 703d
000001d0: 9196 d9bc 876e 7c3d 0f0e e93d 0f53 a83e
000001e0: 6d13 c43c 086a 043d a325 653b a34d 013d
000001f0: 10cb 03bd 941b 873e f0d6 2dbc 787c 943e
0.024288593 0.24319035 0.05275111 0.13681461 0.021255426 0.0108492635 -0.05456999 -0.01567882
0.01939251 0.060754936 -0.008428312 0.096260816 -0.03903492 -0.0527972 0.21338229 0.09571733
0.02108117 0.028718531 0.37326667 -0.046581753 -0.08580539 0.18608128 0.0030981451 -0.038766026
0.03417564 0.3060334 -0.027752941 0.033438135 -0.11802013 0.19150569 -0.013784221 -0.037970785
0.057640687 0.009759644 -0.033104938 0.14953068 0.28908214 0.0916214 0.21846741 0.20471042
-0.050176825 -0.075030886 0.02565981 -0.046229187 0.052529067 -0.07850609 -0.012128648 0.22587797
0.020328728 0.10785616 0.012424254 0.25571027 -0.034440894 -0.009679833 0.21775025 0.060929466
0.01036999 -0.020206116 0.015020764 0.12297468 -0.043537654 0.144693 0.14891474 0.10465764
0.11534691 0.008603052 -0.018899422 0.27162868 0.3029386 0.13398615 0.03651245 -0.03581694
-0.10832228 -0.039480936 0.18092814 0.09456881 -0.032139555 -0.021564739 0.14914641 0.031154238
0.021528753 -0.03649942 -0.02590088 0.03944816 0.009299005 0.28404132 0.029091582 0.29424605
0.08978191 0.07449928 -0.09166272 0.23044178 -0.022684408 0.028860547 0.047728214 0.09610341
0.18574227 0.04248 0.011762196 0.007228613 -0.028690258 0.098358415 -0.053969126 -0.01358025
0.27924395 -0.030859197 0.14115353 0.17181413 -0.026511382 -0.005203578 -0.034741387 -0.059519637
-0.007618206 0.31922117 -0.0018783895 0.05876762 -0.026561053 0.061628845 0.113796346 0.3287587
0.023935044 0.03232768 0.003496506 0.03156818 -0.032176077 0.26388228 -0.010610327 0.29001212

linear.weight f4 [14, 2560]
00000000: 7597 2abd b841 133c b2d4 253c ae37 f7bb
00000010: cf2c b5ba 51d1 7d38 4b1c 84bc 8c5f aabc
00000020: 99a4 5abc 928d d1bc a042 df3b b964 03bb
00000030: 571e 25bd c300 22bc 0457 45bc acf7 3cbc
00000040: 3bb7 13bd ee42 9abc 172b 50bb 6687 09bd
00000050: 4f44 1bbe bb23 c0bd 480c edbd 7c11 70bd
00000060: 7f8b d2bd 7ecf dbbc ead7 083c 3b96 c73b
00000070: 0963 04bd fd06 87bb 23ea 9dbc 5ae5 2cb9
00000080: 6468 edbd 4ba4 5cbc cac9 cabc 8fe6 e0bb
00000090: 32a4 e2bd fa04 1dbd 935a 7dbc 2473 2fbd
000000a0: 7d35 f9bc f1bb 9ebc 0c07 fabc 0543 69bc
000000b0: b678 d3bc 26b0 95b8 e12b 94bc f6c6 8cbc
000000c0: b3f5 d6bc e5fc ca3b 5df7 5c3b 0152 84bc
000000d0: 3cda aebc 0edf 2f3c e246 d1bc 58a9 67ba
000000e0: c0cc 48bb 5e8f af3b cd32 0dbc 0378 13bd
000000f0: 4d32 e8bc 16bf b43a 74a5 51ba 4231 1fbc
00000100: 86ec 173c d380 01bc 3758 8cbc 5934 e53b
00000110: 5fb6 0d3c 4d3d 8bbc 51a1 d9bb 5798 9fbc
00000120: ba07 c1bc a6c5 25bb 0628 03bd 2d4b 15bc
00000130: e37a 7abd 0f62 4dbd a9ca aebd 116e e3bd
00000140: b5ef b5bc bcb7 3f3c 9749 4739 3a98 3bbc
00000150: 08a3 7dbc dbf6 a23b 10ed f03b e288 aebc
00000160: 5619 55bc 0c1f 8b3b f79e 96bc 5941 fe3b
00000170: b57d b9bc b033 d3bc 66dc ccbc 0b15 f0bc
00000180: b21c 4fbd 53ee 4fbd 4700 31bd cf39 43bd
00000190: b817 82bc ebae b7bb 7efa c7bc 3713 7b3b
000001a0: 86ad 1fbd 97e4 c3bc fd65 a3bc c62b b0bb
000001b0: 1833 c8bc 0923 653a 552f 5f3b f519 cabc
000001c0: 122f 80bb b6f1 afbc d6f2 0a3c 99ad 90bc
000001d0: 4265 b6bc c978 d5bc 3d13 803a 28d3 b13b
000001e0: 6177 8fbc 028f a6bb 2dae 21ba 1167 6cbc
000001f0: 432a a2bc 62f0 803b 7b27 21bc bf56 cabc
00000200: d878 4bbb cd5d 10bc 5f52 a1bb 8fdb 87bb
00000210: 22b1 733b 1ce3 4d3b 10d6 d7bc 8058 00bc
00000220: eee1 253b 780f cabc d75b 223c fa03 fdbb
00000230: b97b 1b3a 77d0 aebc 9dc8 41bc 2782 c4bc
00000240: 439f 5bbb eec0 38bc 5a6a b4bb 99d5 64bb
00000250: b20f 00bd ca52 bdba adec 3cbc cc98 b0bc
00000260: 2b55 1cbd 1f1a e2bc 0c64 2fba ae56 d2bb
00000270: 818f 65bd 5507 0dbd 86e6 2bbc 69cd 723b
00000280: 7196 50bc 24ec b53b bb91 143b 8d94 cebc
00000290: 8635 b2bc 4ab5 283c 5bf3 86bb f1d8 b93b
000002a0: 22e2 81bd 7692 b6bc 8425 91bc 69ef cb3b
000002b0: 9ff1 1ebd 803f bbbc 25ec cfbc 36d3 c2bc
000002c0: f37d efbc be19 15bd dd68 9cbc f6aa 0fbd
000002d0: 9d56 c7bd d288 c0bc 1e8e d4bb 9670 03bd
000002e0: 0ed8 873b e424 a6bc 9e8f 363c bc02 99bb
000002f0: 9966 1bba 887e 18bc f4c7 d9bb 2b34 22bc
00000300: 18a5 64bd a943 87bb e0a5 983b 06ff 91bc
00000310: 3c76 74bd c8c6 39bd 1bd2 50bd dcde 3dbd
00000320: 116f 3fbd 3d90 88bb 66f3 7abc 7980 cabb
00000330: 9173 d4bc 3250 c8ba ad96 6a3a 93d5 243a
00000340: 44b2 d3bc bde2 c4ba 1368 803b f01a bc3b
00000350: 48d3 2dbb dede 27bb 38ba c0bc 6bc6 8fba
00000360: 4310 b6bc 5ca6 8fbc fdfa f8b8 2a83 e4bc
00000370: 2f22 13bd 52dd 05bd d8cd d1bc b6db 26bd
00000380: 2b16 5ebc 9ba1 c7bb 3a8c 9d3b 088e 4cbc
00000390: b5dc d9bc 6114 c73b db5f d7bc 8a13 fcbb
000003a0: 4961 90bc 332c e03b 0e59 55bc 9c64 533c
000003b0: 47fa edbc 6644 16bd a82c c8bc b74c 8cbd
000003c0: 1246 89bc 204c 8bbc 4236 26bc 9e98 b4bb
000003d0: eb91 c939 b919 abbc 5928 09bc 0562 843b
000003e0: e4f7 8abc 5061 7bbc 5c7d 26bc 1825 9cbc
000003f0: b902 363b 6505 eebb 70d6 c3bb 183b 52bc
-0.041648347 0.008987837 0.010121511 -0.0075444793 -0.0013822558 6.051484e-05 -0.016126772 -0.020797513
-0.013344907 -0.025580201 0.0068133622 -0.002004905 -0.040312137 -0.009887877 -0.012044672 -0.011533659
-0.036063414 -0.018830743 -0.0031763965 -0.03357639 -0.15162776 -0.09381815 -0.11574608 -0.058610424
-0.10280513 -0.026832338 0.008352259 0.006090907 -0.03232101 -0.004120706 -0.019276684 -0.00016488638
-0.115921766 -0.013466905 -0.024754424 -0.006863422 -0.11066474 -0.038334824 -0.015463489 -0.042834416
-0.030421013 -0.019376727 -0.030520938 -0.01423717 -0.025814395 -7.137684e-05 -0.01808733 -0.017184716
-0.026240205 0.006194698 0.0033716776 -0.016152384 -0.021344297 0.010734333 -0.025546495 -0.0008837185
-0.0030639619 0.005357667 -0.008618069 -0.036003124 -0.028344298 0.0013789858 -0.0007997372 -0.009716334
0.0092727 -0.007904249 -0.017131908 0.0069947657 0.008649438 -0.016997004 -0.006641545 -0.019481821
-0.023563255 -0.002529481 -0.03202059 -0.009112162 -0.06115235 -0.050142344 -0.08534748 -0.11104978
-0.022209028 0.0117015205 0.00019005533 -0.011449868 -0.015480764 0.004973275 0.007352479 -0.021305505
-0.013006529 0.0042456444 -0.018386347 0.007759255 -0.02264295 -0.025781482 -0.025007438 -0.02930691
-0.050564475 -0.050764393 -0.043213155 -0.047662552 -0.01588045 -0.0056055686 -0.024411436 0.0038311013
-0.038983844 -0.023912711 -0.019946093 -0.005376312 -0.024438426 0.00087408774 0.0034055312 -0.02467058
-0.003911861 -0.021477561 0.008480748 -0.017660903 -0.02226508 -0.026058571 0.0009771358 0.005426783
-0.017512979 -0.005082966 -0.0006167617 -0.01442887 -0.019795543 0.003934906 -0.009836073 -0.024699567
-0.003104737 -0.008811426 -0.0049231495 -0.0041460465 0.0037184437 0.0031415885 -0.02634719 -0.0078336
0.0025311667 -0.02466558 0.009909592 -0.0077214213 0.0005931217 -0.021339638 -0.011827615 -0.023987843
-0.0033511675 -0.011276467 -0.005505842 -0.0034917353 -0.03126497 -0.0014444229 -0.011531037 -0.021557234
-0.03816716 -0.027600346 -0.00066906284 -0.0064190244 -0.05604506 -0.03443082 -0.010491973 0.0037048704
-0.0127311805 0.005551832 0.002266987 -0.025217319 -0.021754038 0.010297129 -0.0041183657 0.0056716134
-0.063419595 -0.022286635 -0.017718084 0.0062236083 -0.038804647 -0.022857428 -0.025381157 -0.023782354
-0.029234862 -0.036401503 -0.019092971 -0.03507515 -0.09733317 -0.023502741 -0.0064866683 -0.032089792
0.004145629 -0.020281263 0.011142639 -0.0046695154 -0.0005928069 -0.009307511 -0.0066461507 -0.009900133
-0.05582151 -0.0041279388 0.0046584457 -0.0178218 -0.05968307 -0.04535559 -0.050981622 -0.046355113
-0.04673678 -0.004167585 -0.01531682 -0.006179866 -0.025934013 -0.0015282689 0.0008948844 0.00062879286
-0.02584184 -0.0015021187 0.0039186566 0.005740516 -0.0026523639 -0.0025615017 -0.023526296 -0.0010969167
-0.022224551 -0.017535381 -0.00011872312 -0.027894575 -0.035921272 -0.03268177 -0.02561085 -0.040736876
-0.01355509 -0.006092263 0.004807976 -0.012485035 -0.0265945 0.0060754274 -0.026290825 -0.007692759
-0.017624514 0.0068412065 -0.013021721 0.012902405 -0.029050006 -0.036686324 -0.024435356 -0.0685057
-0.016757045 -0.017004073 -0.010144772 -0.0055113574 0.00038446425 -0.020886289 -0.008371436 0.004040005
-0.016963907 -0.015343025 -0.010161724 -0.019060656 0.002777262 -0.0072638267 -0.0059764907 -0.012831472

linear.bias f4 [14]
00000000: 3cf4 8abd 3657 22bd b416 1dbd 3680 9d3c
00000010: 33f9 d1bd 1282 81bd ccd5 943b 6a96 cdbc
00000020: 49e2 99b9 0892 7dbd 8b81 9fbd 66fe a13d
00000030: fd4f cf3d c2f5 ac3d
-0.06784865 -0.039633952 -0.03835173 0.019226175 -0.10252609 -0.06323637 0.004542088 -0.025096137
-0.0002935103 -0.061906844 -0.0778838 0.07909851 0.101226784 0.08445312
