CNN/test.pth (torch, 535111 bytes, 10 tensors)

conv1.0.weight f4 [16, 1, 3, 3]
000000 0f 65 9e 3e 41 15 f6 3d 31 02 4b 3d c1 27 83 be
       0.30936477 0.120157726 0.049562637 -0.25616267
000010 34 91 3d be 70 d2 84 be 5d 1b 66 be 86 32 1d be
       -0.18512422 -0.259418 -0.22471376 -0.15351304
000020 d4 80 99 3e 8e 06 96 3e 07 75 52 be 22 37 1b be
       0.299811 0.29301876 -0.20552455 -0.1515775
000030 f6 47 3e 3d ee 17 90 3e 1e 50 f2 bd ef e7 a2 bd
       0.046455346 0.28143257 -0.118316874 -0.07954394
000040 73 52 1f be c1 29 2f be b4 73 75 be 74 50 77 be
       -0.15558796 -0.17105772 -0.23969918 -0.24151784
000050 33 91 ce bd 53 44 96 3e 5b d5 4f 3d c0 13 09 3d
       -0.10086288 0.29349002 0.05074058 0.0334661
000060 f3 97 7c 3d 25 3b 34 3e 78 35 9a 3e 4a 78 14 3e
       0.061668348 0.17600687 0.30118918 0.14499012
000070 4b e5 78 bd bc 8d 6b be 4d f6 87 be 67 4c 94 be
       -0.060765546 -0.23003286 -0.265551 -0.2896454
000080 0d ae ab 3d 21 56 00 be 6d 56 99 be 0a 13 10 3e
       0.08382807 -0.12532856 -0.2994875 0.14069763
000090 bf cb a4 be 37 80 fc bd 62 98 ad 3b c5 49 b2 bd
       -0.32186696 -0.123291425 0.0052977065 -0.08705477
0000a0 1c c6 c2 3c f6 a8 70 3e ef 06 40 3c 51 88 2d 3e
       0.023776107 0.23501953 0.011720403 0.16946532
0000b0 55 6b cb 3d 44 d1 6c 3e 3f 6e 42 be 98 0d b1 be
       0.09932581 0.23126704 -0.18987368 -0.34580684
0000c0 66 5c 09 3e 23 48 87 3b 7f f7 c0 bd 68 d1 e2 bd
       0.13414153 0.0041284724 -0.09422206 -0.11075097
0000d0 ec 97 05 be e3 bf 0e be b8 fd 93 be c8 fe 79 bd
       -0.13046235 -0.13940386 -0.2890451 -0.061033994
0000e0 a3 d5 85 3e 2d 56 73 be ab 36 81 3e b4 77 db bd
       0.26139554 -0.23763342 0.2523702 -0.10716191
0000f0 c6 aa 75 3e a1 2a d4 3d 89 19 18 be f2 c9 00 be
       0.23990926 0.10359693 -0.14853491 -0.12577036
000100 96 ea 9a 3e 15 7d 1e be 6a 86 31 3e 4f 11 61 bc
       0.302571 -0.15477403 0.17336431 -0.013737037
000110 da d8 f8 3d 2b cb 13 3e ff 98 be bd 9e ae 80 be
       0.12150736 0.14432971 -0.093065254 -0.25133222
000120 09 24 5c be 03 b7 57 be 16 be af bc 9d 0e 9b be
       -0.21498121 -0.21065907 -0.021452945 -0.30284587
000130 79 83 96 be 2e 29 01 be 48 04 85 3e a1 0e 5a be
       -0.2939718 -0.12613365 0.2597983 -0.21294643
000140 bf 0d 49 3e b4 14 3a bd f2 9c 1b be b3 d6 8a bd
       0.1963415 -0.0454299 -0.15196589 -0.06779232
000150 e0 31 16 3d 84 35 82 bd e1 91 d8 bd 4a 80 77 3d
       0.03666866 -0.063578635 -0.10574699 0.06042508
000160 4f 25 75 3d 2c 5d b3 3e 75 46 ff 3d 06 e2 93 be
       0.059850033 0.35032022 0.124646105 -0.2888338
000170 8b 64 c6 bd c0 fc 68 be 86 cc 8f be 14 c3 99 be
       -0.09687146 -0.22752666 -0.28085726 -0.30031645
000180 1a 02 9a 3c 56 85 96 bd b8 81 2f 3e 1b 4f d4 3c
       0.01879983 -0.073496506 0.17139328 0.025916627
000190 62 6b ce 3d 25 b9 b3 bc 54 e9 59 be 4a cb 2d bd
       0.100790754 -0.02193887 -0.21280414 -0.0424302
0001a0 6b 7f fe 3d 15 fd 91 be ac c1 97 bd 6b a7 4c be
       0.12426647 -0.285134 -0.07409987 -0.1998574
0001b0 29 2b a2 3e 74 c9 50 3e 61 88 af 3b ad 78 6f 3e
       0.31673554 0.20389348 0.005356834 0.23385878
0001c0 b6 38 79 bb d8 82 a8 be 41 fb b5 3d e4 22 4a be
       -0.0038028187 -0.32912326 0.088858135 -0.19739872
0001d0 e9 c5 45 3e b2 e3 a9 be 33 43 5e bd 7a 1d 6a be
       0.19313778 -0.3318153 -0.054263305 -0.22862807
0001e0 b5 b8 93 be df 05 0a 3e 96 68 3c be af a7 8a 3e
       -0.28851858 0.13478802 -0.18399271 0.27081057
0001f0 2b c4 31 bd da 04 92 3e 6e 11 96 be 7b 5d 1b 3e
       -0.04339997 0.28519326 -0.29310173 0.15172379
000200 65 fb 51 be 6e 38 c6 3d 93 1b 9b 3c cb db 2c be
       -0.20506056 0.09678732 0.018934047 -0.1688072
000210 5f 79 7c 3e 52 c2 3b be 6d 9b 8d bd 61 df 80 3e
       0.24655674 -0.18335846 -0.06914411 0.25170425
000220 88 84 9f be 5b 37 8a 3e ea ca 8c 3d 1a 7e 96 3b
       -0.311558 0.26995358 0.0687464 0.004592669
000230 e5 b6 56 3e b3 78 4e 3e b4 9d c4 bd dc c2 88 be
       0.20968206 0.2016323 -0.09600392 -0.26711166

conv1.0.bias f4 [16]
000000 1c 52 59 3d f2 db 80 3e ca af a9 3e 3e 3b ba 3d
       0.05305682 0.25167805 0.3314193 0.09093331
000010 6d 16 50 be 19 6c 46 be 8c 18 7b 3e 3b 7c a0 bd
       -0.20321055 -0.19377173 0.24521083 -0.07836195
000020 92 6b 9f 3e ab ba 3a 3e d9 cc 8f be 3b 6f cb bd
       0.31136757 0.1823527 -0.28085974 -0.09933325
000030 b3 a9 8a be db 8c 25 3e 40 c9 08 be 86 fa a0 be
       -0.27082595 0.16167013 -0.13358021 -0.31441134

conv2.0.weight f4 [32, 16, 3, 3]
000000 1b ff d7 bc ca e9 8a 3d f4 c0 1f bd 26 f0 8e 3d
       -0.026366761 0.06782873 -0.039002374 0.069793984
000010 32 49 a1 3d 56 df 75 bd 67 82 ef 3c e9 37 ef bc
       0.07875289 -0.060027443 0.029236985 -0.029201465
000020 2e 9c c9 3c a5 60 89 bc 74 6a 79 bd 3c 7d a4 bc
       0.024610605 -0.016769717 -0.060892537 -0.020079248
000030 c9 14 10 3c 46 05 64 bd 6b 63 68 3c ef bd 59 bd
       0.008794018 -0.05566909 0.014183859 -0.05315965
000040 26 4f 37 bd 6a b3 2a bd 8f 1c 82 bd 8d a3 12 bd
       -0.044753216 -0.04167501 -0.06353103 -0.035800505
000050 e8 05 37 3d 94 8b 98 3d a7 53 a5 bc a0 80 4c 3d
       0.044683367 0.074484974 -0.02018149 0.049927354
000060 63 67 80 bc 9d 60 87 3d 27 19 15 bd 1c 78 5e bd
       -0.015674299 0.066102244 -0.03640094 -0.054313764
000070 c0 cc 8c 3d 4c 0d 7c 3d 25 12 c7 bc 0c 76 94 bd
       0.068749905 0.06153612 -0.024300644 -0.07249078
000080 21 65 e7 bc 6f f7 8e 3c 7b 19 a8 3d 79 c9 3b 3c
       -0.028246464 0.01745197 0.08207985 0.011461609
000090 c7 cf d9 bc 6f 9d 8f bd b3 4a 6b bd 9d 64 d3 3c
       -0.026588334 -0.0701245 -0.057444286 0.025804812
0000a0 56 1d 51 3c e2 ec 88 3d c4 fa 13 3c 96 1c 98 bc
       0.012763342 0.06685807 0.009031955 -0.018568318
0000b0 09 3d 4f 3d 18 10 ce bd 92 f6 c5 bd 02 4e d5 bd
       0.050595317 -0.100616634 -0.0966617 -0.104152694
0000c0 3a 8c 78 3d 96 ed 92 3c 06 66 95 3c b6 ad 64 bd
       0.060680605 0.017935555 0.018237125 -0.055829726
0000d0 6b 12 16 bd 27 0d 83 3d 8c 35 3e bb aa bd a0 bd
       -0.03663866 0.06398993 -0.0029023616 -0.078486755
0000e0 95 46 b5 bc ba d7 e4 bb 34 55 a3 3d 3b ca 9d 3d
       -0.022128383 -0.0069837244 0.079752356 0.07704588
0000f0 73 c4 0f 3d da 2a 31 3d d9 ee 72 3d 7b 40 35 bd
       0.035099458 0.043253757 0.059309814 -0.044250946
000100 b6 a3 72 bd 17 95 8f 3c 41 7d 57 bd 3a 7a 21 bd
       -0.05923816 0.017527146 -0.052609686 -0.039423205
000110 e0 16 5b bd 56 aa c2 bc aa 4d 89 3d c8 7c 36 bd
       -0.053488612 -0.023762863 0.06704266 -0.044552594
000120 8a ed 8d 3d 89 f3 74 bd 5e 9f 03 bd 32 fa a4 3d
       0.069300726 -0.059802566 -0.032134406 0.080555335
000130 16 04 1a 3d 1a 6f 51 3d 82 65 d8 3d 22 21 a8 bc
       0.037601553 0.051131345 0.10566236 -0.020523611
000140 1d 0f 97 3c 6d 25 82 3d cf f7 4b 3d 7c 4a 9d 3d
       0.018439824 0.06354795 0.049796876 0.076802224
000150 5b b9 7b bd 56 68 84 3c 0d 5e b4 3d 20 f7 96 3d
       -0.061456066 0.016163033 0.08807001 0.07371354
000160 16 61 dc bc ca 70 5e bd 6a 29 5e 3c 00 66 52 bd
       -0.026901763 -0.054306783 0.013559679 -0.051366806
000170 ad fc 08 bd 62 61 0c 3d 7e 6a a5 3d c2 14 ac 3d
       -0.033444095 0.03427256 0.080769524 0.08402397
000180 49 5b 06 3d 78 b9 0d bc c0 16 62 bd 93 35 01 be
       0.0328019 -0.008650176 -0.055197477 -0.12618093
000190 24 39 76 bd 06 b3 c0 bd a1 5b 3f 3d 30 6d 26 3d
       -0.060113087 -0.09409146 0.046718244 0.040631473
0001a0 81 a9 81 bd df 6e a9 3c 68 aa 88 3d 39 be 37 bd
       -0.063311584 0.02068275 0.066731274 -0.044859145
0001b0 1c 19 a5 bd 6d 02 3d bd e3 b0 2e bd ad 88 22 3d
       -0.0806143 -0.04614489 -0.04264916 0.039681125
0001c0 9c ad 9c 3c cf f8 55 bd f4 9d f7 bc 38 47 55 3b
       0.019125752 -0.052239235 -0.030226685 0.003254367
0001d0 7e 79 72 bd bf c6 12 bc c2 30 b5 bc be 90 42 bd
       -0.059197895 -0.008958518 -0.022117976 -0.04750132
0001e0 ce d9 7c bc 96 53 63 3c 8c f6 95 bb c2 bc fb bc
       -0.015432788 0.013874909 -0.00457651 -0.030729655
0001f0 72 dc 98 3d 9b 4d b4 bc ec 94 ab 3d 6c 67 60 bd
       0.074639216 -0.022009661 0.08378014 -0.05478613
000200 52 5f 77 3d c2 e6 2c 3c 96 70 54 bd cd fd 86 bc
       0.06039364 0.010553064 -0.051865183 -0.016478444
000210 01 69 b0 3d 9f 11 b2 3d 32 d7 e7 3c 8a 5f 8e 3c
       0.08613778 0.08694767 0.028300855 0.017379541
000220 3a ce 0d 3c 1f c9 c9 3c 84 65 73 bd 45 a1 a9 3d
       0.008655125 0.024632035 -0.059422985 0.08282713
000230 72 39 69 bc ed 07 88 bd 03 9b ca 3c 12 8f 82 3d
       -0.014234887 -0.06642137 0.024732118 0.06374945
000240 9c 19 6f 3d 01 01 52 3d c8 83 85 bb d8 b2 4e 3d
       0.058374032 0.05127049 -0.0040745474 0.050463527
000250 ec 0f d2 bc 51 ba 03 3d 8c a3 09 3d 50 7a 73 3d
       -0.025642358 0.032160107 0.033603236 0.05944282
000260 50 1e 59 3d 27 1f 45 bd 96 e6 72 3d 6d 90 bf bc
       0.053007424 -0.048125412 0.059301935 -0.023384297
000270 06 eb 6e 3d 10 ac 26 bd c1 6c 9c 3d 01 29 4a 3d
       0.058329605 -0.040691435 0.07637931 0.04935551
000280 8e 0f 36 bd ee ab 4a bd 69 80 18 ba da 83 a8 3d
       -0.044448428 -0.04948037 -0.00058174744 0.08228274
000290 61 8e dc bc c8 a0 8e 3d 4b 3e c5 3c 5f b3 1e bd
       -0.02692336 0.0696426 0.024077555 -0.03874528
0002a0 2c 42 48 3d c2 f9 ab bb a4 c8 e9 3c 68 db 0a 3d
       0.04889123 -0.0052482793 0.028538056 0.03390065
0002b0 27 4a 2a bd da cf b9 bc d5 43 19 3d 31 11 46 3c
       -0.041574623 -0.02268212 0.037418205 0.01208906
0002c0 b2 6c 74 3d 0f a8 85 bb f2 7b 90 bd da 04 b8 3d
       0.059673972 -0.004078872 -0.07054891 0.089853
0002d0 41 de 53 bd e8 de 6d 3d bc ac 85 bd 15 2a b8 bd
       -0.05172563 0.058073908 -0.06527087 -0.089924015
0002e0 09 80 33 3d 2a e9 df 3d 18 81 3d 3d 3e 02 08 3c
       0.043823276 0.109331444 0.04626569 0.008301316
0002f0 ce c9 a5 3d bc b5 ac 3d 83 0f 9e 3d 28 60 35 3d
       0.08095132 0.084331006 0.077178024 0.044281155
000300 fa 50 10 bb 86 d7 62 bc 95 df e8 3c 6f 1a 80 3d
       -0.0022020922 -0.01384533 0.028426925 0.06255042
000310 8f bf 90 bd ab 22 9b 3d 09 f7 6b 3d 91 91 68 bd
       -0.07067787 0.07574972 0.057608638 -0.056779448
000320 a7 1a 5b bd 99 16 94 3d 56 07 67 bd 29 f8 ba bc
       -0.053492215 0.07230873 -0.05640348 -0.02282341
000330 94 8a 00 3d 3c c2 84 3a bc 2e cd bc b8 74 ae 3c
       0.03138216 0.0010128687 -0.025046699 0.02129589
000340 c0 0d b8 3b 39 ec b1 3c d9 e3 17 bc 8b 77 40 3d
       0.0056168735 0.021719085 -0.009270632 0.046989005
000350 e0 b3 a6 3d 7e c9 bb bd dd 93 9c 3d 47 4b 66 3c
       0.08139777 -0.09169291 0.0764539 0.014056033
000360 e3 d6 6a bd b7 c2 20 bd 96 09 37 bd 37 24 4b 3d
       -0.05733384 -0.039248195 -0.044686876 0.049595084
000370 ba dc 19 3d 25 82 cc 38 f6 17 b1 bc 20 a1 25 3d
       0.037564017 9.751719e-05 -0.02161787 0.040436864
000380 ac 20 de 3c 86 b1 44 bd 5b 79 f5 3a f8 38 c0 3c
       0.027115189 -0.048020862 0.0018728183 0.023464665
000390 75 ca a0 bd be 9a d7 3c 6d 2a cd 3d 51 cf 9a 3d
       -0.078511156 0.026318904 0.10017858 0.07559074
0003a0 f9 bc 95 3d 11 4e 95 bd 89 4d 8d bd 61 97 34 3a
       0.07311434 -0.072902806 -0.06899554 0.00068890123
0003b0 6d 7f a4 3d 21 8c a2 bd 6e 52 47 3c ae c0 ce 3d
       0.08032117 -0.07936884 0.012165649 0.100953445
0003c0 c7 78 91 bc 3a b9 80 bd 17 21 9b 3d 7f b3 a0 3d
       -0.017757786 -0.06285329 0.07574671 0.07846736
0003d0 04 6d 82 3d c3 21 5b bd 7c a5 92 3d 9d 80 8d bd
       0.06368449 -0.053498995 0.0716047 -0.06909297
0003e0 82 b5 94 3d a2 7a 37 bd 79 57 27 3d d6 3e 5b 3d
       0.07261182 -0.044794686 0.040854905 0.053526722
0003f0 54 50 94 3d 93 b4 9d bd 1d bc 0c 3d 24 ae 6f 3d
       0.07241884 -0.077004574 0.034359086 0.058515683

conv2.0.bias f4 [32]
000000 15 55 f5 3c a5 05 13 3d 8d bb 28 bc f9 20 80 3d
       0.029947797 0.035894055 -0.010298622 0.06256289
000010 6f 38 65 3d 2b 8f 93 3d 14 d9 33 bd 25 e9 e7 3c
       0.055962022 0.072050415 -0.043908194 0.028309414
000020 66 15 8f 3d c1 4b 20 3d b2 8e a0 3d f8 1c f5 bc
       0.06986503 0.039134745 0.07839717 -0.02992104
000030 1c 51 d6 3d 86 7f 1f bc e0 d9 70 bd 65 c9 bc 3a
       0.10464689 -0.009734994 -0.05880153 0.0014403282
000040 5f 37 42 bd 58 b8 5d bd c6 d2 8b 3d 94 0f e4 bc
       -0.047416087 -0.054130882 0.06827311 -0.02783946
000050 e1 01 d5 3d 1d 3c 36 bd a5 00 2f 3d 6f 14 df bc
       0.10400749 -0.044490922 0.042725224 -0.027231423
000060 b8 76 15 bd f3 c1 c8 3d 27 d6 3e bd 0c b0 44 b9
       -0.036490172 0.09802618 -0.04659095 -0.00018757599
000070 25 92 9c 3b ed 00 ac 3d 54 79 b5 ba ef 18 96 3c
       0.004778164 0.08398614 -0.0013845363 0.018322436

conv3.0.weight f4 [64, 32, 3, 3]
000000 bb bc e3 bc fb 97 0a 3d 7a 90 55 3d 97 ff 21 3d
       -0.027799955 0.033836346 0.052139737 0.03955039
000010 31 b5 a0 bc 59 6c 85 3c d2 ac 45 3d e8 b5 0d bd
       -0.019617649 0.016287016 0.048260517 -0.034597307
000020 16 cd 73 bd b2 cb 49 bd 80 e1 71 bd af ca 7a bd
       -0.059521757 -0.049266525 -0.059052944 -0.06122845
000030 3d 63 89 3a 94 0b 4d bd c6 5b 7a 3c 09 aa 96 bc
       0.0010481846 -0.05005987 0.01528067 -0.018391626
000040 c7 e0 d3 3b de 07 68 bd ff e8 73 bd d2 82 19 3d
       0.0064660045 -0.056648128 -0.059548374 0.037478276
000050 6e bb 83 3c 8c b5 80 bc 03 c1 e9 3c 0e 9d 2c 3d
       0.016080584 -0.015711568 0.028534418 0.042141967
000060 e8 97 55 bc a4 7f 6e b9 73 1c 88 bb 1a 3d 13 3c
       -0.013036706 -0.00022744999 -0.004153782 0.008986736
000070 d4 e7 77 bd 5a cc 03 3c 0d 5f 4d 3d e6 ca 2d 3d
       -0.060523823 0.008044327 0.050139476 0.042429827
000080 79 67 57 3d 35 b4 37 3d fa 6f 33 3d 48 81 3a 3b
       0.052588914 0.044849593 0.04380796 0.0028458405
000090 4b f4 cd 3c 86 ec f1 ba 2d d9 3d bc 47 80 62 bd
       0.025140902 -0.001845733 -0.011587423 -0.055298116
0000a0 f9 94 60 bc 2a da df bc 54 7d c8 3c 4c c1 71 bd
       -0.013707393 -0.027325708 0.024473824 -0.059022233
0000b0 29 b1 1f bc de 56 3d 3d c9 c5 c8 3c 82 f4 68 3a
       -0.009746828 0.04622542 0.024508374 0.0008886532
0000c0 94 27 7d bd 4a d5 68 bd 03 cb 16 bd 5c 24 0d bc
       -0.061805323 -0.056844033 -0.0368147 -0.008614626
0000d0 73 8f 28 3d 74 10 9b bc 09 a0 29 bc ab 16 d4 3c
       0.04115243 -0.018928744 -0.010353097 0.025889715
0000e0 d7 da a9 3b 36 fd 7d bd c9 ad 83 bd 5f 65 f5 3c
       0.0051835584 -0.06200906 -0.06429631 0.029955564
0000f0 3e 85 d5 3a 37 d2 9f bc 97 9f e1 bc 38 05 c3 bc
       0.001629032 -0.019509418 -0.027541919 -0.0238062
000100 88 d3 3e bd 1b 13 34 3d 85 de 8d bc 88 16 01 bd
       -0.04658845 0.043963533 -0.01731802 -0.031515628
000110 80 33 3f 3d ab d2 93 3c f8 e5 31 3c 03 12 04 3c
       0.046679974 0.01804479 0.0108580515 0.008060935
000120 db 03 91 3c 5a 61 b2 bc cb 77 47 bd 51 45 76 bd
       0.017702034 -0.021774936 -0.048698228 -0.0601247
000130 ee 56 2b 3c 44 3a 8c 3c 39 59 0a bd 5d 75 5c bd
       0.010457737 0.017117627 -0.033776496 -0.053822864
000140 20 4d c3 3b e9 08 11 bd 71 04 2f 3b 91 fb 5f bd
       0.0059601218 -0.035408888 0.0026705528 -0.05468327
000150 42 de f4 3c 77 d8 dd ba a3 5a 53 3d 93 a9 40 bc
       0.029891137 -0.0016925473 0.05160011 -0.01175918
000160 4a 1c ab 3a 65 94 97 3c 62 5f e3 bc 39 56 1b bd
       0.0013054695 0.018503377 -0.027755443 -0.037924025
000170 3d 85 2b 3c b3 50 44 3d b6 43 49 3d 36 63 17 bc
       0.010468778 0.047928523 0.04913684 -0.009239962
000180 9d 43 1e bc a0 76 13 bd 11 d2 be bc 0c cb d2 3c
       -0.009659675 -0.0360018 -0.023293527 0.025731586
000190 3f 36 c6 3c 68 aa 63 bd 01 ad ad bb d0 78 75 bd
       0.024195788 -0.055582434 -0.0053001647 -0.05992967
0001a0 fc ee c9 3c 5c a4 af bc 0f eb fd 3c 37 20 a5 bb
       0.02465009 -0.021440677 0.030995874 -0.0050392407
0001b0 76 9d a7 bb f9 14 4f bd 7f 9e a8 bc 68 58 de bb
       -0.0051152064 -0.05055711 -0.02058339 -0.006785441
0001c0 c5 c8 56 3d b9 88 a7 3c f7 68 da 3c e8 9d 35 3d
       0.052437562 0.020450937 0.02666138 0.044340044
0001d0 8a 50 28 bd 1f 2f 62 bd 2e d3 02 3d ce 7e 15 bd
       -0.041092433 -0.05522072 0.031939678 -0.036497883
0001e0 4e a2 52 3c 9c 2b 89 3b a8 10 a7 bc 32 70 de bc
       0.012856079 0.004186107 -0.020393685 -0.027153108
0001f0 52 bd 7b bc c4 3d cd bc 8a aa 43 bc 26 7e 91 bc
       -0.015364962 -0.025053866 -0.011942515 -0.017760348
000200 84 c7 3d 3d bd 51 29 bd e9 38 79 bd e3 a1 9b bc
       0.04633285 -0.041337717 -0.06084529 -0.018998092
000210 07 00 01 3d f7 1a 27 bd e7 87 0e 3d 7f d0 40 bd
       0.031494167 -0.0407972 0.034797575 -0.047073837
000220 3b 21 ab bc bf 5e f9 3c 33 83 4c 3d 68 02 57 bd
       -0.020889869 0.030440686 0.04992981 -0.05249253
000230 de 78 14 bc cd db 52 3c 73 4d d2 bc a8 6b 81 bd
       -0.00906202 0.012869787 -0.025671696 -0.06319362
000240 b0 9e 98 3b b5 ed 13 3d 2b 47 e9 bc a5 58 70 bc
       0.004657589 0.036115367 -0.028476318 -0.014669572
000250 83 3d 49 bd c2 0e 4e bc 7c dd 56 3d c1 e6 1d 3d
       -0.049130928 -0.012576761 0.052457318 0.038550142
000260 7f 90 3f bb df d1 f0 bb 53 54 ff 3c 19 53 82 bd
       -0.0029230413 -0.0073492373 0.031168139 -0.06363506
000270 6e 1f 3b bd 51 0e 29 3d 75 49 3e bd 4c af 4a bc
       -0.04568427 0.04127342 -0.046456773 -0.012370896
000280 3c d4 ba bc 64 3f 4f 3d bf 8d 15 bd ae 17 1b bc
       -0.02280628 0.050597563 -0.036512133 -0.009466095
000290 2e e1 01 3d a7 ed e0 bc a2 f6 54 bd 2f 95 06 ba
       0.03170889 -0.027457071 -0.05199302 -0.00051339244
0002a0 28 11 68 bd b0 18 86 bc a0 47 5d bc 20 3a 35 bd
       -0.056656986 -0.016369194 -0.013505846 -0.044244885
0002b0 45 2c 2b bd fe 4a 33 bd ec 8b 32 b8 00 7b 54 bd
       -0.041790266 -0.04377269 -4.256882e-05 -0.051875114
0002c0 76 d1 13 38 ea 35 5f 3c d4 ea 0f bd c7 2b 56 3c
       3.5242607e-05 0.013623694 -0.03513606 0.013071961
0002d0 0d b2 06 3d eb 95 07 bd 29 4c 27 3d e8 cf 0f bc
       0.032884646 -0.033101957 0.040844116 -0.008777596
0002e0 c6 a4 5e bc 90 bf 0f bd 1e db 7b bd f4 95 c5 bc
       -0.01358909 -0.035094798 -0.061488263 -0.024119355
0002f0 ee 6b 43 3d 43 e0 32 bd 79 92 dc 3b 81 62 43 3d
       0.04771035 -0.043670904 0.006731328 0.047701363
000300 e0 82 4d bd af 0d 12 bd bd dd 20 bd 09 82 d9 bc
       -0.05017364 -0.03565758 -0.039273966 -0.026551263
000310 5b 1f 5a bc 23 87 27 bc 92 87 41 bb 25 88 3e bd
       -0.01331314 -0.01022509 -0.002953027 -0.046516556
000320 91 89 84 3a 44 c8 b2 bc 94 08 04 bb c8 8e 7f bd
       0.0010111799 -0.02182401 -0.0020146715 -0.062392026
000330 e0 c5 73 bd d7 70 c7 3b 89 58 2e bd 7c 89 2e 3d
       -0.05951488 0.0060864496 -0.042564902 0.042611584
000340 73 fb 5b bd c8 ce 9e 3b 78 7a 4c bd 58 3d 43 3d
       -0.053706598 0.0048464276 -0.049921483 0.047665924
000350 f0 80 0b bd 27 a8 dc 3c 49 b3 fb 3a 85 0d 05 bd
       -0.03405851 0.02693565 0.0019203211 -0.032483596
000360 55 9f 23 bd 58 18 b7 3c fc 0d d6 ba ff 41 ac 3b
       -0.039946873 0.022350475 -0.0016331072 0.005256891
000370 11 99 6f 3c eb b5 57 3d 02 8f 04 3c 62 e2 5f bd
       0.014623896 0.052663725 0.008090736 -0.054659255
000380 29 f2 29 3d 8b 11 60 bc 71 95 3e 3d 92 65 10 bd
       0.041490708 -0.013676058 0.046529237 -0.035253115
000390 c0 1d 14 bc b0 61 20 3d 35 5b 3e 3d df a8 5e 3c
       -0.009040296 0.039155662 0.0464737 0.013590067
0003a0 18 74 4f bd fe 94 34 3d bc 58 19 bd 27 c0 92 3c
       -0.050647825 0.044087403 -0.03743814 0.017913891
0003b0 3f 05 21 bd 06 2d 03 3d c2 e7 80 bd 33 53 79 bd
       -0.039311644 0.03202536 -0.06294204 -0.06087036
0003c0 b8 e0 16 3d 2c 57 14 bb f0 c7 2a 3c 7f 3c 17 3b
       0.036835402 -0.0022634966 0.010423645 0.002307683
0003d0 c4 3c 17 3d 32 bf ce 3c 99 19 63 bd 4b 58 77 bd
       0.036923185 0.025237653 -0.055444334 -0.060386937
0003e0 90 ad 2b bc 47 b2 0b 3d 06 84 45 3c 1d 49 44 3d
       -0.010478392 0.034105565 0.012055403 0.04792129
0003f0 b7 e1 2f bd a2 8a 0b 3c 9d ee 68 bd fa 91 8a 3c
       -0.042939868 0.008516939 -0.056868184 0.01691531

conv3.0.bias f4 [64]
000000 b7 85 fd 3c 44 04 42 3d 63 50 f6 bb e1 c3 48 bc
       0.03094755 0.04736735 -0.007516907 -0.012253732
000010 11 6e b4 bb f8 ef a7 3c 5e 13 85 3d d0 82 d4 3a
       -0.005506285 0.020500168 0.064978346 0.0016213302
000020 81 35 53 3d 91 67 21 3a f1 85 a1 bc 40 3a c3 3c
       0.051564697 0.0006157095 -0.019717189 0.023831487
000030 ba 5c 02 bd 32 6b 95 3d fb bc 68 bc be ec fd bc
       -0.031826712 0.072958365 -0.014205213 -0.030996677
000040 b7 34 8c 3d b5 cf 3c bc 35 ad 71 bc 9e a2 5a bc
       0.06845992 -0.011524131 -0.014750768 -0.013344435
000050 30 72 9d 3d 01 e2 2e bc 5f 4e 78 3c 56 1c 91 bc
       0.07687795 -0.010674001 0.015155404 -0.017713707
000060 25 9d 38 3d 1c 40 f8 bc 1d 79 31 3d db 4c 38 3d
       0.04507174 -0.030304007 0.043328393 0.04499517
000070 6c b2 00 3d 0c 2e 0a 3d 64 c8 7e bc dc 93 31 bd
       0.031420156 0.03373532 -0.015550707 -0.0433539
000080 9d 02 a9 3d 4d 83 a5 bc 9f 5b 29 bd 65 fd c8 bc
       0.082524516 -0.02020421 -0.041347142 -0.02453489
000090 15 39 00 3d 65 88 00 bd 63 50 b7 3d 59 6a 98 3c
       0.031304438 -0.031380076 0.089508794 0.018605398
0000a0 55 71 9f 3d cb be 0f 3c 2d a4 04 bd b1 3a 8e bc
       0.07785288 0.008773516 -0.032383133 -0.01736197
0000b0 8a d0 5c 3c 89 ed 7e 3d 55 11 1d 3d 4e 67 9c 3d
       0.013477454 0.06223825 0.038346607 0.07636891
0000c0 08 0f a4 3d ad 97 c1 3d e0 5a 93 3d 09 eb 8c 3d
       0.080106795 0.09452758 0.071950674 0.06880767
0000d0 18 ce 3c 3d c7 e3 3a 3d b5 3b 15 bd 4e fb c3 3b
       0.046094984 0.04562738 -0.036433894 0.0059808856
0000e0 c9 4a 77 3d 98 b9 b8 3d a7 b3 95 bb fb 50 31 3d
       0.060374055 0.09019774 -0.0045685354 0.04329012
0000f0 8a 40 a2 3d 7a cb 61 3d 4d 95 9a bc b7 f7 c0 bb
       0.07922466 0.05512569 -0.01887002 -0.005888905

conv4.0.weight f4 [128, 64, 3, 3]
000000 92 ba 2a 3d 8b 75 17 bd 37 87 0a bd 34 a0 3a 3b
       0.041681834 -0.036977332 -0.033820357 0.0028476836
000010 09 96 5e bc 20 1f cf 3b a3 ce be bc c4 fe c9 bc
       -0.013585576 0.006320849 -0.023291891 -0.024657615
000020 a1 12 7f bc 96 05 07 bd ee 7a e9 bc 46 0a f0 3c
       -0.015568406 -0.03296431 -0.028501 0.029301774
000030 29 cb 04 3c e7 58 4f 3c a5 6c d2 bc 33 31 4f 3c
       0.008105078 0.012655473 -0.025686571 0.012646007
000040 6e 5a 18 3d 33 3f 13 3c ac c7 d3 bc 25 f8 3b 3c
       0.037195615 0.008987236 -0.025852047 0.0114727365
000050 b5 ae 57 bc 18 d7 32 3d b2 37 11 3d bd 8d 8d bc
       -0.013164212 0.04366216 0.035453506 -0.0172795
000060 89 92 92 3b 93 1f de bc 09 d1 c8 b9 b9 a5 26 3d
       0.0044730348 -0.027114665 -0.00038302716 0.04068539
000070 34 12 96 3c 22 78 d9 3c e2 4c b2 bc b9 c1 3c bc
       0.018319227 0.026546542 -0.021765176 -0.011520796
000080 f3 4f e7 3c 42 d5 bf bc dc 8c 2d bc 6a 9e 49 3d
       0.028236365 -0.023417119 -0.0105926655 0.04922334
000090 5a 37 f9 3c 3e 4a d8 3c af bc 6d 3c 09 be 95 bc
       0.030421901 0.026402589 0.014510318 -0.018279092
0000a0 51 59 11 3c a3 99 29 3c 1c 88 19 3d 17 1b 06 3d
       0.008871392 0.010351571 0.03748332 0.03274068
0000b0 e2 51 6a 3c ab 5a 84 3c 7c 1f 3a 3c 5d d9 67 bc
       0.014301749 0.016156515 0.0113600455 -0.014150945
0000c0 3b 3b 43 3c c5 3e f5 bc 4b 81 95 bc b5 c2 8a bb
       0.011915977 -0.029937157 -0.018250128 -0.0042346367
0000d0 98 4a c4 3c 57 74 66 3d 48 2e 35 3d 9d 92 1d bd
       0.02396135 0.056263294 0.04423359 -0.0384699
0000e0 4c ce b0 bc 33 cc a8 bc e1 4c f0 bb 63 e8 cb bc
       -0.021582745 -0.020605182 -0.0073333834 -0.024891084
0000f0 b2 df 91 3c 0e d1 0a 3d 11 4e 9c 3c 81 8c 75 bc
       0.017806862 0.033890776 0.019080194 -0.014987112
000100 db 07 08 3c d3 f3 af 3b 73 88 21 3d 34 83 b4 3c
       0.008302654 0.0053696423 0.03943677 0.022035219
000110 6b 00 fe bc 72 7b d3 3c f9 34 f3 3c e5 0c 19 3d
       -0.031006059 0.0258157 0.029688345 0.037365813
000120 f0 58 de bc db ce 3c 3c 25 23 0b 3d ab 06 e8 bc
       -0.027142018 0.011523928 0.033969063 -0.028323492
000130 a6 51 c0 bc aa 03 9d bc e6 9d ba bc 5c 00 07 bd
       -0.023476433 -0.019166786 -0.02278037 -0.032959327
000140 2b 16 c5 bb ab 3e 04 3c ae e3 77 bc 56 2d eb bc
       -0.0060146055 0.008071582 -0.015129967 -0.028708141
000150 0e f1 4d 3c be 35 7c 3b f7 3d db bc 24 d6 94 3c
       0.012569679 0.0038484181 -0.026762946 0.018168516
000160 0d 8f f6 3c 91 11 f6 3a cc 00 d4 3c e2 9b 80 bc
       0.030097509 0.0018773546 0.025879286 -0.01569933
000170 81 b4 09 bd d4 db 32 3c a4 59 20 bd d5 89 ba bc
       -0.033619408 0.010916669 -0.039147988 -0.022770802
000180 0b ed 3a bd ae f7 44 3c 4f 0a 63 bc fd 4c fe bb
       -0.045636218 0.012021942 -0.013857438 -0.0077606426
000190 2c c3 20 bc dd 31 10 3c 01 87 11 3d 89 51 8e 3c
       -0.009812158 0.008800951 0.03552914 0.017372863
0001a0 86 7e 11 bc a1 ed 05 3d 97 59 04 bc a2 78 ad 3c
       -0.008880263 0.032697324 -0.0080780005 0.021175686
0001b0 2e 3d 00 bb 46 35 53 3c ae 31 2a 3c 3e eb 3b 3d
       -0.0019567716 0.012891119 0.010387821 0.04587864
0001c0 82 a3 c1 3c 45 86 ba bc 16 ce 92 3c 7f 97 f7 ba
       0.023637537 -0.022769103 0.017920535 -0.0018889754
0001d0 8f 91 95 3b e8 ec 10 3d 26 cd 3b bd 35 9b bd bc
       0.004564471 0.03538218 -0.04584994 -0.023145298
0001e0 f3 07 05 3d 01 3b 89 3c f5 39 be bc 75 c6 fc 3c
       0.032478284 0.016751768 -0.023220995 0.03085635
0001f0 c6 3f 1e 3d 96 73 67 3c 84 95 96 bc 0e 3f 45 3c
       0.038635038 0.014126679 -0.018381841 0.012038959
000200 86 5b 7b 3b a2 66 84 bc 58 3f 15 bd 29 c6 b2 b8
       0.0038354113 -0.01616222 -0.036437362 -8.5246116e-05
000210 4a bb 6a bb d8 5e 32 3d 8f 55 20 3d 94 cc 99 bc
       -0.00358172 0.04354748 0.039144095 -0.018774308
000220 4b 20 5e 3c 71 8a 16 bd 7a 5c 78 3c df 2c 8c bc
       0.013557504 -0.03675312 0.015158767 -0.01711124
000230 ad 38 d6 bc 87 0b 12 bc e5 c3 6f 3c 42 41 ca 3c
       -0.026150072 -0.008913881 0.014634107 0.02468932
000240 2d fd 65 bc 5b 1c aa bc 18 a3 7c bc 0f d4 e4 bb
       -0.014037413 -0.020765474 -0.015419744 -0.006983287
000250 0d e8 ba 3c fc 07 32 3c f6 25 10 3c 36 e2 36 bb
       0.022815729 0.010866161 0.008798113 -0.0027905828
000260 7e 7a c6 bb b6 76 1e bc 78 5b d8 bc bb 4c f0 3c
       -0.0060570827 -0.009671858 -0.026410803 0.029333463
000270 ab cc 38 3c 3e 73 ca bc 42 e5 1c bd d5 61 01 bd
       0.011279265 -0.024713155 -0.038304575 -0.03158744
000280 f1 43 3d 3d d7 57 2f 3c dd 40 ce 3c 08 8a 9f 3c
       0.046207372 0.010702095 0.025177414 0.019474998
000290 bb d3 7a bc 99 8a 22 3c 2b 96 05 3d 38 64 9f 3c
       -0.01530927 0.00992074 0.032613914 0.019456968
0002a0 a9 cd 87 bc bb a0 77 bc 9a cd 5d 3c f7 95 02 bd
       -0.016577559 -0.015114005 0.013537789 -0.0318813
0002b0 f3 e3 a3 3c ba 77 3b bd 03 06 e2 3c 53 a7 99 bc
       0.020006156 -0.045768477 0.027590757 -0.018756544
0002c0 b1 d5 da 3c b3 d1 d8 bc 8d 05 7c 3c 6a 90 c8 bc
       0.026713224 -0.02646718 0.015382183 -0.024482924
0002d0 12 31 05 3d a9 b2 78 3c 22 98 ba 3c c3 57 dc bc
       0.0325175 0.015179315 0.02277762 -0.026897317
0002e0 4c be 2c 3c dc 4a 44 bc 74 7d 5b 3d e0 ee 0e 3c
       0.010543417 -0.0119807385 0.05358644 0.008723944
0002f0 ae 82 35 3a 0a ce 0b 3d 71 67 08 3c 01 41 b0 3c
       0.0006924075 0.03413204 0.008325444 0.021515371
000300 9a 67 0e bd 67 3d 95 3c 47 6b f3 3c 7a 32 c4 3c
       -0.03476677 0.018217755 0.02971424 0.02394985
000310 3e b4 2b 3d c9 91 b8 bb ac 95 88 3c 1a 32 64 3c
       0.04191994 -0.0056326133 0.016672932 0.013927961
000320 25 f2 04 3d ff da 72 bc 94 87 90 bb 8e a4 03 bd
       0.03245749 -0.014822721 -0.0044106934 -0.032139353
000330 2f a6 96 bb 79 4c 09 3d e4 d7 04 bb f8 f7 36 3b
       -0.0045974473 0.033520196 -0.0020270282 0.0027918797
000340 c5 82 d6 bb 0e 33 6e 3c b1 ba 9b bc 7a d9 41 bc
       -0.0065463507 0.01453854 -0.01900992 -0.011831636
000350 7c 87 b8 bc 4b bb b5 bc 9b d6 12 3d 14 4f 02 3d
       -0.022525541 -0.022184035 0.035849195 0.031813696
000360 03 5a 44 bc d3 b9 0a 3d 34 5f a7 3b c3 b8 bd 3c
       -0.011984351 0.033868622 0.0051077846 0.02315939
000370 d0 fa ce bc e6 5f 99 bc 5b bf 13 bd 20 87 51 3d
       -0.025266081 -0.018722486 -0.036071163 0.051154256
000380 bd 2d 4b 3d 26 a0 01 3c 83 7d 0d 3d 19 21 5a 3c
       0.049604166 0.0079117175 0.034543525 0.013313555
000390 03 ee 67 3c e6 60 04 bb 9e 3e 60 bc 98 33 02 bd
       0.0141558675 -0.0020199358 -0.013686804 -0.031787485
0003a0 ee 2e f6 bc ff 38 2b 3d c3 83 25 3b f4 b5 b2 bc
       -0.030051675 0.041802403 0.0025255538 -0.021815278
0003b0 43 88 ac bc 4d 32 dc bb 02 ed 3f bc ab 74 a8 bc
       -0.021061068 -0.0067198635 -0.011714222 -0.020563444
0003c0 7b 5b 14 3d f4 1d c2 3c 35 ca 82 3b 7b a5 04 bd
       0.036220055 0.023695923 0.00399139 -0.032384377
0003d0 a7 2a a5 bc d8 51 1d bc 99 34 7e ba 15 65 1c bd
       -0.02016194 -0.009602033 -0.0009697169 -0.038182337
0003e0 2c 37 2d bd 96 ec 52 bc 8f ff 45 3c 08 98 9a 3b
       -0.042288944 -0.012873789 0.012084856 0.0047178306
0003f0 ab e6 96 3b 7f 48 2b 3c 6a aa 16 3a 8b 24 3b bc
       0.0046051345 0.010454296 0.00057474396 -0.011422287

conv4.0.bias f4 [128]
000000 fc 51 c0 3c d0 ed 84 3d 4c 6d 86 3b 1c cf 50 3d
       0.023476593 0.06490672 0.0041023847 0.050978765
000010 85 70 c0 3c 63 e4 9d 3c 80 8d 33 3d f6 99 20 bc
       0.023491153 0.019273942 0.043836117 -0.009802332
000020 d1 4d e6 3b 43 5e 48 bc c7 ad 7f 3d 66 fe 2b 3d
       0.0070283194 -0.012229505 0.062421586 0.04199066
000030 f2 02 05 3c 5c 36 06 bd 39 91 2b bd 43 d2 53 3d
       0.008118378 -0.032766685 -0.041886542 0.051714193
000040 a8 ef 22 3d 8c cd 02 3d e8 0b fc 3c a3 4d ed 3c
       0.039779335 0.031934306 0.030767396 0.028967684
000050 43 2b 8c 3d 23 29 4e bb 9c 15 9d bc 80 18 1a 3d
       0.06844189 -0.0031457625 -0.019175343 0.03762102
000060 96 6b 3d bc a6 97 4d 3d aa 23 a3 b9 03 ae 0c bd
       -0.011561295 0.05019345 -0.00031116355 -0.034345638
000070 c8 98 2a 3d d3 8a 84 3c 59 8f e4 bb dd d5 0e bd
       0.04164961 0.016179478 -0.006975096 -0.034871925
000080 91 71 15 3d 68 4f a4 3b 4b 32 ca 3c 67 32 21 3d
       0.03648526 0.005014349 0.024682185 0.039354708
000090 5f f3 47 bb 1f 7e 17 3d 22 62 f6 3c ba ea 4b 3d
       -0.003051005 0.036985513 0.03007609 0.0497844
0000a0 c8 09 f6 3c ea 75 b7 bc 96 71 d8 bc 6a 38 89 bc
       0.030033961 -0.022395093 -0.02642135 -0.016750533
0000b0 44 31 1d bd 84 37 e5 3c 2c 9b ec 3c 51 82 a8 3c
       -0.03837706 0.027980573 0.028882585 0.020569952
0000c0 0d da 28 3d 9a 87 b4 bc 15 c6 0a 3d 69 6e 62 bc
       0.041223574 -0.022037316 0.033880312 -0.013820269
0000d0 e3 aa 2e 3d e2 a7 50 bc d6 c9 31 bb 2a 7d 1e 3c
       0.04264344 -0.012735339 -0.002712836 0.009673396
0000e0 16 ba 19 3d 8c c7 0e 3d fd 71 13 bd 70 dc 73 bb
       0.03753098 0.03485827 -0.03599738 -0.0037210248
0000f0 60 d6 9b bc 9e 5e 09 3a 56 7c fe ba db 40 0d bd
       -0.01902312 0.00052402343 -0.0019415717 -0.03448568
000100 9b 6e 57 3d c5 a7 de 3c f6 1a d4 3b 39 2c cf bc
       0.052595716 0.027179608 0.0064729406 -0.025289642
000110 35 ff dc ba 55 61 d6 3c 2a 61 83 3a 9a 46 e3 bc
       -0.0016860726 0.026169458 0.0010023464 -0.027743626
000120 e1 09 02 3d 40 6b d8 bb 8d e5 d5 bc 3c 1c f6 3c
       0.031747703 -0.006604582 -0.026110435 0.03004276
000130 8c 01 28 bc 86 07 04 bb cb 99 18 3d 40 7a d6 bc
       -0.010254275 -0.0020146086 0.037256043 -0.02618134
000140 42 63 26 bd b1 38 2d 3b 99 93 c9 bb b1 0c 7a 3d
       -0.040622003 0.0026431496 -0.006151628 0.06104726
000150 51 ab 39 3d c1 f0 06 bc fe cc 98 bc 85 dc 87 3d
       0.045329396 -0.008236111 -0.018652435 0.06633858
000160 73 12 11 3d 73 45 ac 3c de d7 de ba c4 5e bb bc
       0.035417985 0.02102921 -0.0017001589 -0.022872336
000170 d7 2e 30 bc 9c 17 47 3d 0e b6 95 3b 89 26 a6 3c
       -0.010753355 0.0486065 0.0045688218 0.020282047
000180 24 cb c9 bc 65 0b f0 3b 5e b0 84 bb f2 d5 82 bb
       -0.024632998 0.007325577 -0.004049345 -0.0039927894
000190 4b cf 6e bc 48 06 3c bd 1d c6 bc bc a0 00 2a 3c
       -0.01457579 -0.045904428 -0.023043687 0.010376126
0001a0 fe 3e 2e 3d 1b 16 85 bd 73 4e 84 bb 0b dc 84 3d
       0.042540543 -0.06498357 -0.004037672 0.06487282
0001b0 98 fa 4e 3d ef 5e 73 bc b4 ff 2c 3d 1f 0b 61 3d
       0.050531954 -0.014854177 0.042236045 0.054942247
0001c0 e3 fa e6 b9 f6 22 1b 3c 85 4f 35 bb e9 a1 db 3c
       -0.00044055944 0.009468785 -0.0027665806 0.026810603
0001d0 84 fd 08 3d 34 0c 25 bb 11 2d 53 3d d4 be 5a bc
       0.033444896 -0.0025184276 0.05155665 -0.013351161
0001e0 7f 9e c3 bc 4e 36 db bc 0f d0 41 3d b8 18 a3 bc
       -0.023879288 -0.026759293 0.04731756 -0.019909248
0001f0 cf 01 08 bb 81 f5 38 3d 1c fa ad bc 68 eb 78 3d
       -0.002075303 0.045156006 -0.021237426 0.060771376

linear.weight f4 [14, 2560]
000000 ce 76 e0 3b ef 07 0c bc 17 d8 46 bb 29 d5 b1 3b
       0.0068501 -0.008546813 -0.0030341202 0.005427022
000010 3e 39 d9 3b 18 51 23 bc 07 51 c8 ba 2a c5 ac bc
       0.0066291383 -0.009968065 -0.0015282937 -0.021090109
000020 5d 30 f4 3b 68 00 3d 3c 0b 72 43 bc ea 9d f1 bb
       0.0074520544 0.011535741 -0.011929045 -0.007373561
000030 6d 5e fb ba a3 3d 99 bc c2 37 b4 bc c9 15 a2 bb
       -0.0019177921 -0.018706148 -0.021999244 -0.0049464446
000040 38 a3 d2 bc d5 30 48 bc 09 6d 91 3b 1a 9f 8d bc
       -0.025712594 -0.012218674 0.004438047 -0.01728778
000050 ab d8 c6 bb 03 ce 67 bc 00 e7 95 bc ad 16 a7 bc
       -0.0060683093 -0.014148238 -0.018298626 -0.020396555
000060 47 c5 46 3b 7a ba 02 3c 7e 3e 07 3c 5f 47 fe ba
       0.0030329989 0.00797903 0.008254645 -0.0019399932
000070 47 e8 00 3b b2 b0 30 3b e9 e8 1b bc 7c 3a 86 bc
       0.0019669698 0.0026960787 -0.009515979 -0.01638531
000080 35 72 ca bc da 9f cc bc 76 f9 56 3c 1f 2c b9 bc
       -0.024712661 -0.024978567 0.013121 -0.022604046
000090 ce 0e 7e 3b 6a f5 ef 3b 57 41 27 bc 3e 19 9f bc
       0.0038766149 0.007322957 -0.010208449 -0.019421216
0000a0 d0 d6 c3 3b f4 4b a5 bc 0c 36 b8 bc a9 2a 35 ba
       0.0059765354 -0.020177819 -0.022486709 -0.0006910959
0000b0 0c 8e b6 bc 57 a5 77 bb bb 6a a7 bc e4 c6 8f bb
       -0.02228453 -0.003778776 -0.020436635 -0.0043877233
0000c0 1b 2c ce bc 4c b3 5e 3c 5a 2d 4d bc 33 24 dd 3b
       -0.025167516 0.013592552 -0.01252302 0.0067487
0000d0 55 9c 80 bc 94 ce 95 3b 71 df 1a bd e9 27 1a bd
       -0.015699545 0.004571745 -0.037810747 -0.037635718
0000e0 4a cb 3e bc 1b 36 aa bc fd 20 4b 3c d8 c3 2f bd
       -0.011645148 -0.020777753 0.012398002 -0.04291138
0000f0 c3 73 ee ba 34 b5 bc 3b 7e 59 8b 3c df d4 fe bc
       -0.0018192459 0.005758906 0.017010447 -0.031107364
000100 2e 82 27 3c 93 a3 ce bc 9b 08 87 bc 90 c5 61 bc
       0.010223908 -0.025224483 -0.016483596 -0.013780013
000110 19 0b 18 bd 29 aa 68 bb e0 67 b7 3a 07 a6 ba bc
       -0.03711996 -0.0035501814 0.0013992749 -0.022784246
000120 a1 b3 8e bc 54 1a af bc f4 44 be bc aa c2 df 3a
       -0.017419638 -0.021374859 -0.023226239 0.0017071564
000130 e0 79 b6 bb 7f 79 17 bc 55 2b d8 bb a0 ea 19 3c
       -0.005568728 -0.0092452755 -0.0065969625 0.009394318
000140 1a 2d c4 3b 46 fc 42 bc de b0 c1 bc bc 1c 29 bc
       0.005986822 -0.011900967 -0.023643907 -0.010321792
000150 1a 3e b5 3b 46 20 b7 bc 00 bd 16 bb fe e8 c6 bc
       0.0055310847 -0.022354256 -0.0023000836 -0.024281021
000160 10 76 f8 bb 75 dd 85 bc 4f b6 02 3c d1 f6 82 bc
       -0.0075824335 -0.01634095 0.007978036 -0.015986832
000170 c5 e4 0d 3c ef 0d 06 bc ae b3 90 bc cc 3e 16 bb
       0.0086605 -0.008182033 -0.017663803 -0.0022925613
000180 71 f9 15 3c fb 43 ff 3b b6 fa 33 bc f3 1b bb bc
       0.00915371 0.0077900863 -0.010985067 -0.022840476
000190 b4 ea 8f bc 7d e8 22 3c 53 a5 95 bc ea 0a f8 3b
       -0.01756797 0.009943125 -0.01826731 0.0075696604
0001a0 13 05 c7 bc e5 e7 5f bc c6 96 91 bc ba 9f cd bc
       -0.024294412 -0.013666128 -0.01777209 -0.025100578
0001b0 c8 ff 90 3b 05 4a b6 bc ba a7 69 3b 03 b2 de 3b
       0.0044250228 -0.022252092 0.0035652951 0.006796123
0001c0 64 30 46 3c 84 26 98 bb ee f4 54 3c 35 ff 82 3b
       0.012096498 -0.0046432633 0.012997849 0.003997708
0001d0 82 d2 0a bc 8e df 78 b7 f6 5b ba 3a 4f 6d f5 bb
       -0.008473041 -1.4834002e-05 0.001421808 -0.0074898372
0001e0 84 9e 6b bb 6d 0c bc bc f8 5c 35 3c ee 82 43 bb
       -0.0035952637 -0.022955144 0.011069529 -0.002983268
0001f0 0d 08 1b bd f5 a7 f9 3b 1b 15 3c 3b c3 ab 2b bb
       -0.037849475 0.007618899 0.0028699103 -0.0026194907
000200 26 29 66 bc 36 8e 9d 3b 98 04 a4 bb 87 31 41 3c
       -0.0140478965 0.0048082126 -0.0050054304 0.011791593
000210 03 7c 06 bc 4f 50 dc bc 23 c0 c5 bc 55 49 c1 bb
       -0.008208278 -0.026893763 -0.02413947 -0.0058986344
000220 8f 46 15 bd 1f 60 26 bd f7 aa 20 bd 6f 3c 8f bb
       -0.036444243 -0.040619012 -0.039225545 -0.004371218
000230 54 56 fb bb 05 ef 8b bc 14 3e cc ba db b3 a9 bc
       -0.007670203 -0.017081747 -0.0015582466 -0.020715645
000240 71 29 19 3c ca db 8d bc 19 37 53 3c ab b4 b7 3b
       0.009348259 -0.017316718 0.012891554 0.005606254
000250 c4 50 5a 3c 0d c4 0d bb f6 14 58 bc a7 6a a7 3b
       0.01332492 -0.0021631748 -0.013188591 0.0051091495
000260 3b b0 b8 bc 1f 3b 9a bc a2 4f 43 bc eb df cc bc
       -0.02254497 -0.01882702 -0.011920841 -0.025009116
000270 de 38 99 3a d7 6a bc bb 1d 0f 27 3c 8f b3 79 bb
       0.0011689921 -0.005750041 0.010196474 -0.003810141
000280 75 cd 17 3c 95 40 60 bc cf 07 1d 3c 08 c7 b8 ba
       0.009265293 -0.013687273 0.009584381 -0.0014097402
000290 40 ed 6d bc 50 56 46 3c fd 6e 31 3c 2e 02 32 3c
       -0.014521897 0.012105539 0.010829684 0.0108647775
0002a0 7d 09 ca bc bb 62 c6 ba 21 38 8b 3a 91 3c bf 3b
       -0.024662727 -0.0015135625 0.0010621586 0.0058360775
0002b0 29 f5 9e bc 3e 46 ab bc 5b b3 97 bc b2 d2 1b bc
       -0.01940401 -0.020907518 -0.01851814 -0.009510683
0002c0 62 8b c4 3b 20 cb ee 3b 5e c5 09 bc 46 bf bd bc
       0.005998061 0.007287398 -0.008408872 -0.023162495
0002d0 fe 5d 95 bc ca a5 85 bc ae 74 87 3b 8b 65 20 39
       -0.018233296 -0.016314406 0.0041337823 0.00015296617
0002e0 f2 a8 57 3a fc 68 63 bc 77 c7 82 bc 94 e2 82 3b
       0.0008226774 -0.013880011 -0.015964253 0.0039942954
0002f0 5c 80 ad bc 7d ad c9 bc d8 e6 98 bb 55 12 be bc
       -0.02117937 -0.024618858 -0.0046661906 -0.0232021
000300 4a 4e 8f bb 48 3f 4e bc a7 5a 1d bc dd c3 1a bb
       -0.0043733465 -0.01258833 -0.009604133 -0.0023615279
000310 33 cf 7f bc 4b ac 1a bd e7 c8 be bc da c6 c6 bc
       -0.015613365 -0.037761968 -0.023289157 -0.024264742
000320 7c 48 7e bc 98 92 4b ba dd 12 b4 bc c3 59 4f 3c
       -0.015520211 -0.00077656796 -0.021981651 0.012655678
000330 43 00 86 bc aa 45 15 bc ca c2 44 3c e0 b7 ba bb
       -0.016357547 -0.0091108475 0.012009332 -0.005698189
000340 75 a2 bd 3b 3f fe 0c bc ee 44 74 bc 0f a1 1f bd
       0.0057871887 -0.008605539 -0.014909012 -0.038971957
000350 0f 34 00 3c 21 f0 8d bc 92 e8 4d bc da 7f 24 bc
       0.007824912 -0.017326416 -0.012567656 -0.010040248
000360 8b 11 0d bd fe 0d 07 bd db f0 07 bd 26 b2 9c bc
       -0.03444056 -0.03297233 -0.033188682 -0.019127917
000370 02 c0 1f bd 96 2a b7 bc a6 f8 8f bb 13 5b 53 bc
       -0.039001472 -0.022359174 -0.004393655 -0.012900132
000380 c8 60 7c bc 57 e4 03 ba b8 fc 8f bc f8 2d 87 bc
       -0.015403934 -0.00050312787 -0.01757656 -0.016501412
000390 35 1c 6e 3b 04 e6 5c 3c 48 6b cb 3b 57 f6 b7 bb
       0.003633273 0.013482574 0.0062078573 -0.005614083
0003a0 a7 78 32 bc 4d 78 ca 3b ee 2f d3 3b 05 62 89 bb
       -0.010893024 0.0061788918 0.0064449226 -0.004192593
0003b0 3a ac 4f 3c 6b a7 20 bc ec bb 77 bc 88 85 10 bc
       0.012675339 -0.009805541 -0.015120488 -0.008820899
0003c0 19 cf c6 bc 55 09 c9 3a 12 39 0c bc 0d 32 2a bb
       -0.024268674 0.0015337864 -0.0085585285 -0.0025969774
0003d0 78 0f c0 bc 0a 16 f4 bb 1a fb 74 ba 62 3d a8 3b
       -0.023444876 -0.0074489163 -0.00093452784 0.0051342705
0003e0 34 d7 30 bc 95 22 ab bc c8 6e e8 bb 33 33 d1 bb
       -0.010793496 -0.020890513 -0.0070932843 -0.0063842773
0003f0 e4 9b 91 3a 5d ab af bb 29 97 92 bb c7 15 a6 3b
       0.0011109081 -0.0053610043 -0.004473586 0.005068514

linear.bias f4 [14]
000000 3c 20 85 bb 0d 68 2e bd 0a 4b 3f bc 70 73 00 bd
       -0.0040626805 -0.0425797 -0.011675606 -0.03136009
000010 37 8a 02 bd 1e ec c3 bc 68 36 d1 bc 6d 10 24 bd
       -0.031870093 -0.0239163 -0.025538638 -0.040054727
000020 ee 00 06 bd 52 b3 81 3c d1 6b e3 bc 9e 7b fd bc
       -0.03271573 0.015832577 -0.027761372 -0.030942734
000030 6d 12 e6 bb 53 4c d0 bb
       -0.0070212395 -0.006356755
