CNN/Model_Weights_Logs/checkpoints_14_Epoch_no_val_improvement_in_10/latest.pth (torch, 535111 bytes, 10 tensors)

conv1.0.weight f4 [16, 1, 3, 3]
0	0xbe852105	-0.26001754
1	0xbe90168c	-0.28142202
2	0x3e983637	0.29728863
3	0x3e1531ca	0.14569774
4	0xbd805c37	-0.062675886
5	0xbe399d36	-0.18126377
6	0xbceb05b9	-0.028689252
7	0xbe8f8b7c	-0.28036106
8	0xbd80c8fc	-0.06288335
9	0x3dd55447	0.10416465
10	0xbc1ecf0f	-0.009692921
11	0x3c8a4c3a	0.01688205
12	0x3e8b77b6	0.2723977
13	0x3c0f2564	0.008736942
14	0xbe34736d	-0.17622156
15	0xbee4649a	-0.44608003
16	0x3dd71a66	0.10503082
17	0xbe853947	-0.26020262
18	0xbeaa6b4f	-0.33284995
19	0xbde3623b	-0.1110272
20	0xbd8e542d	-0.06949649
21	0x3e9564e0	0.29178524
22	0xbe28b34d	-0.16474648
23	0x3e2903a1	0.1650529
24	0xbe8a244b	-0.26980814
25	0xbeb4ce0c	-0.3531345
26	0x3e1bf707	0.15230952
27	0x3e69b03e	0.22821137
28	0xbe8cffd6	-0.27538937
29	0xbdd8a20d	-0.10577784
30	0x3d8ad6db	0.06779262
31	0x3cf948bb	0.030430188
32	0xbe7db50c	-0.24776095
33	0x3d0613a4	0.032733575
34	0xbe4112f2	-0.18854883
35	0x3e6aa7de	0.22915599
36	0x3e11ccdb	0.14238302
37	0xbcdde1ee	-0.02708527
38	0x3d8a4bde	0.06752752
39	0xbe9797dc	-0.29608047
40	0xbe8e82e3	-0.27834234
41	0x3e4a4b5b	0.19755308
42	0x3e5068e4	0.20352513
43	0x3ce60b50	0.028081566
44	0x3d61b2d2	0.055102177
45	0x3e14b833	0.14523391
46	0xbe121e8a	-0.14269462
47	0x3e52a46f	0.20570539
48	0xbe8db7fe	-0.27679437
49	0xbe7f91ef	-0.24958013
50	0x3dba69e5	0.09102229
51	0xbcd4be78	-0.025969729
52	0x3d9b8e9e	0.075955614
53	0xbeadb041	-0.33923534
54	0x3c25413c	0.010086354
55	0xbe2952c1	-0.16535474
56	0xbe0e6fc2	-0.1390982
57	0xbddc9fb1	-0.10772646
58	0x3d579b2e	0.052638225
59	0xbd66af78	-0.056319684
60	0xbd188a0e	-0.037241034
61	0xbe22eaeb	-0.15909927
62	0xbd3ba16f	-0.045808252
63	0xbec4ff2b	-0.38475928
64	0x3db92d85	0.09041885
65	0xbbdb4888	-0.006691996
66	0xbe80560f	-0.25065657
67	0x3dd82f3e	0.10555886
68	0x3d1b851f	0.03796875
69	0xbd0019e2	-0.031274684
70	0x3d7338f9	0.059380505
71	0x3e0edfcd	0.1395256
72	0xbeaf209a	-0.3420456
73	0xbecf4b42	-0.40487105
74	0xbe55ac4e	-0.2086651
75	0x3d9e320b	0.07724389
76	0xbe86a881	-0.26300433
77	0x3e981ab2	0.29707867
78	0x3d01205d	0.031525005
79	0xbe2cff66	-0.16894302
80	0x3bbfd183	0.005853833
81	0x3be051e3	0.006845699
82	0xbcd64a5a	-0.0261585
83	0xbcc279ee	-0.023739781
84	0xbe71037b	-0.23536484
85	0x3d3f1b3d	0.046656836
86	0xbe8c831d	-0.27443781
87	0xbe6abdb3	-0.22923927
88	0x3e75b009	0.23992933
89	0xbe825516	-0.2545554
90	0x3b0f28f2	0.0021844474
91	0xbe1d9ae9	-0.15391125
92	0x3e736708	0.23769772
93	0x3e880c0c	0.2657169
94	0xbe4aa83d	-0.1979074
95	0xbd2fcebc	-0.042921767
96	0x3de14b12	0.11000647
97	0x3d55a834	0.052162364
98	0xbd7f85a4	-0.06238331
99	0x3de4f3a1	0.11179281
100	0xbcb0fdd8	-0.021605417
101	0x3df1843e	0.11792801
102	0x3e3364f7	0.17518984
103	0xbc985529	-0.018595295
104	0xbd60d2dc	-0.05488859
105	0x3e88c296	0.26710957
106	0xbda41b5e	-0.080130324
107	0xbeaead28	-0.34116483
108	0x3df9a67c	0.121899575
109	0x3e87fcd0	0.26560068
110	0xbe559123	-0.20856147
111	0x3d538d16	0.051648222
112	0xbe7aeb0b	-0.24503724
113	0x3da1a464	0.07892683
114	0xbd10ed7e	-0.03538274
115	0xbe911018	-0.2833259
116	0x3dc9984d	0.09843502
117	0xbe8ede57	-0.27904007
118	0xbe9de8b4	-0.308416
119	0x3e5617e4	0.20907551
120	0x3e2aa173	0.1666315
121	0x3e34f760	0.17672491
122	0x3da91178	0.08255285
123	0x3d1bd7c1	0.038047556
124	0xbe793d5a	-0.2433981
125	0xbe9290e1	-0.2862616
126	0x3e9276ae	0.2860617
127	0xbe9f3c64	-0.31100762
128	0x3d87a0ed	0.06622491
129	0xbebaf47b	-0.3651465
130	0x3e031da2	0.12804273
131	0xbdaee8f1	-0.08540524
132	0x3e46595a	0.19370022
133	0xbe7a804d	-0.24463005
134	0xbe890feb	-0.26769957
135	0xbe471c02	-0.19444278
136	0xbe299637	-0.16561209
137	0xbe31df99	-0.17370452
138	0x3e605305	0.2190667
139	0xbe7a465f	-0.24440907
140	0x3e605b4b	0.21909826
141	0x3cb15901	0.021648886
142	0x3e0edcc0	0.13951397
143	0xbe2f0544	-0.17091852

conv1.0.bias f4 [16]
0	0xbf4f821f	-0.81057924
1	0xbf4ef63f	-0.8084449
2	0x3cc9a482	0.024614576
3	0xbe70a55b	-0.23500578
4	0x3e9084c7	0.282263
5	0x3e518a34	0.20462877
6	0x3f41a8f6	0.7564844
7	0xbee91a7d	-0.4552802
8	0xbe4ece3c	-0.2019586
9	0x3ef53046	0.47888392
10	0xbec7bcbd	-0.39011183
11	0x3bce94ba	0.0063043507
12	0xbf1556f4	-0.58335805
13	0xbf0e91a7	-0.55691
14	0xbde5c021	-0.11218286
15	0xbf5d39ff	-0.8641662

conv2.0.weight f4 [32, 16, 3, 3]
0	0x3d938516	0.072031185
1	0x3ce83ff7	0.028350813
2	0x3cf5dd62	0.03001279
3	0x3dded25c	0.108799666
4	0xbc244c41	-0.010027946
5	0xbd44d713	-0.048056673
6	0x3c30ab6b	0.010783057
7	0xbdecdf3b	-0.11566015
8	0xbdad8e53	-0.08474412
9	0x3c80c19f	0.015717326
10	0x3d788fa4	0.06068386
11	0x3d5c371a	0.053763486
12	0xbd9bcdff	-0.0760765
13	0xbdba5106	-0.09097485
14	0xbe07c2d3	-0.13257913
15	0x3d386e34	0.045026973
16	0xbd140793	-0.036140036
17	0x3c81748b	0.015802642
18	0x3c5bd5d9	0.0134176845
19	0x3c772ecb	0.01508684
20	0xbd8e1e9d	-0.06939433
21	0x3d71d3bb	0.059039813
22	0x3d8d5eb9	0.069028325
23	0xbdcda0f3	-0.10040464
24	0xbd8c089f	-0.06837582
25	0xb8eb0a81	-0.0001120763
26	0x3d20aca3	0.03922714
27	0x3d076678	0.033056706
28	0xbd0f3c45	-0.034969587
29	0xbcf96825	-0.030445168
30	0xbd8aa629	-0.06769974
31	0x3bee6d62	0.007276223
32	0xbc8c8e3b	-0.017157665
33	0xbaa0064b	-0.0012208907
34	0xbd9866f8	-0.07441515
35	0x3cb15480	0.021646738
36	0x3c82b918	0.0159574
37	0x3ce36f39	0.027762996
38	0x3cf3c712	0.02975801
39	0xbdbc1904	-0.09184459
40	0x3cf3923d	0.029732818
41	0x3d6c1917	0.057641115
42	0xbdf08a5b	-0.11745139
43	0xbd70cb75	-0.05878778
44	0x3cc6e188	0.024277464
45	0xbda69f6b	-0.08135875
46	0x3d176528	0.036961704
47	0xbc88acff	-0.016684053
48	0x3d4945fc	0.049139008
49	0xbd32cf2d	-0.04365461
50	0x3d91e002	0.07122804
51	0x3d0dc6ed	0.03461354
52	0x3d2bbb77	0.041926827
53	0x3da24224	0.079227716
54	0x3ddca6d3	0.10774007
55	0xbdbd1baa	-0.09233792
56	0xbcc8211a	-0.024429847
57	0x3e1b7292	0.15180424
58	0x3c25ff9b	0.010131742
59	0xbdc0c5fa	-0.09412761
60	0x3df06226	0.1173747
61	0xbdb044d1	-0.08606876
62	0xbd333942	-0.043755777
63	0x3d84f8a7	0.06492739
64	0xbbdcf298	-0.0067427866
65	0x3ca2378d	0.01980188
66	0x3d25cf2e	0.040480785
67	0x3d1088e1	0.035286788
68	0xba9a0c77	-0.0011752982
69	0xbbb47822	-0.005507485
70	0x3d56ff9b	0.052489858
71	0xbc45411c	-0.012039449
72	0xbba240eb	-0.0049515865
73	0xbd8148b1	-0.06312693
74	0xbdff14d9	-0.12455148
75	0xbc1a3e2c	-0.009414237
76	0xbc207ce8	-0.009795405
77	0x3d105438	0.035236567
78	0x3dc3005a	0.095215514
79	0xbc7ba535	-0.015359213
80	0x3b687ded	0.0035475448
81	0xbd473be6	-0.048641108
82	0xbdc9c236	-0.09851496
83	0xbe221522	-0.15828374
84	0x3d9924a6	0.07477693
85	0xbc3ba852	-0.011453705
86	0xbd8f88ce	-0.07008515
87	0x3de10784	0.109877616
88	0x3bc444b9	0.0059896377
89	0xbca91674	-0.02064059
90	0xbcd49c08	-0.025953308
91	0x3cad583e	0.021160241
92	0x3df573cc	0.11984977
93	0xbda09777	-0.078413896
94	0xbd8638b7	-0.06553786
95	0xbd830c86	-0.06398873
96	0xbcd8d739	-0.026469814
97	0xbdd7cf8e	-0.10537635
98	0x3d88cf9a	0.06680222
99	0x38ea0cf3	0.000111604015
100	0xbd6c18fd	-0.05764102
101	0x3db09c6a	0.086235836
102	0xb85e0293	-5.2931322e-05
103	0xbd3a0341	-0.04541326
104	0xbcecf9e2	-0.028927747
105	0x3c5cc849	0.013475486
106	0xbde30b65	-0.11086158
107	0x3c5cddc0	0.013480604
108	0x3dc9e0d0	0.09857333
109	0xbd2adbd3	-0.041713547
110	0xbcb19221	-0.021676125
111	0xbaeccd4a	-0.0018066552
112	0xbd3d182e	-0.046165638
113	0x3d6e9013	0.05824287
114	0xbbe13c74	-0.0068736617
115	0xbd68b963	-0.056817424
116	0x3c03abc2	0.008036556
117	0x3cd7f86d	0.026363576
118	0x3d612919	0.054970834
119	0xbd27132e	-0.040789776
120	0xbdbed2a8	-0.09317523
121	0xbd0ab003	-0.033859264
122	0x3dd0e389	0.10199649
123	0x3d6ee6ea	0.058325686
124	0x3c29db08	0.0103671625
125	0x3ce42eca	0.027854342
126	0x3dc20825	0.0947421
127	0x3d4addfd	0.04952811
128	0xbcdce353	-0.026963865
129	0x3dc52c49	0.09627587
130	0x3d53063f	0.05151963
131	0xbe1596f8	-0.14608371
132	0xbd73ebfe	-0.05955123
133	0xbba248e6	-0.004952538
134	0xbc892505	-0.016741285
135	0xbdd477da	-0.10374422
136	0x3d94dad2	0.07268299
137	0xbc9e185a	-0.019298721
138	0xbdc51372	-0.096228495
139	0xbdb63e7a	-0.08898635
140	0x3d9cb5e1	0.07651878
141	0x3d5846f4	0.05280204
142	0xbd1e4383	-0.038638603
143	0x3d558a8b	0.052134078
144	0xbd859c59	-0.065239616
145	0x3dcb96be	0.09940861
146	0x3d3cfa86	0.046137355
147	0x3d35092b	0.044198196
148	0x3cbe7ec2	0.023253802
149	0x3dc10375	0.094244875
150	0xbdb91818	-0.09037799
151	0x3d1d416a	0.03839246
152	0x3da13ce6	0.078729436
153	0xbb96ed04	-0.004605891
154	0x3cac1e32	0.021010492
155	0x3ca74fe4	0.020423837
156	0xbd4d168a	-0.050070323
157	0xbdb58c24	-0.0886462
158	0xbd563a32	-0.052301593
159	0xbd96fe1d	-0.07372687
160	0x3b6fc186	0.0036583855
161	0x3caa9559	0.020823168
162	0xbd593d0a	-0.053036727
163	0x3c310da0	0.010806471
164	0xbdf2e9e2	-0.11861016
165	0xbbe1532b	-0.0068763695
166	0xbd9d0b6f	-0.076681964
167	0xbcf8a2da	-0.030351091
168	0xbd4b91a1	-0.04969943
169	0xbd5babba	-0.053630568
170	0x3d9378e3	0.07200792
171	0x3cb1c4fb	0.021700373
172	0xbdea22a1	-0.11432386
173	0xbd8c35d0	-0.068462014
174	0xbd507e0e	-0.050901465
175	0x3d129251	0.03578407
176	0xbde8462c	-0.11341509
177	0xbbbe7629	-0.0058124256
178	0xbd7f1eb4	-0.06228514
179	0xbcb1d6b5	-0.021708826
180	0xbc97e70b	-0.018542787
181	0x3cafa318	0.021440074
182	0x3cab3535	0.020899395
183	0xbd923a99	-0.07140083
184	0xbcd478ae	-0.02593645
185	0xbdc8b612	-0.09800352
186	0xbd04e035	-0.032440383
187	0xbc8394cb	-0.016062161
188	0xbd072a59	-0.03299937
189	0xbce7fddf	-0.028319297
190	0xbdacc999	-0.08436889
191	0xbc7553df	-0.01497361
192	0xbc8f1405	-0.0174656
193	0x3d3044fe	0.043034546
194	0x3c8c7149	0.017143862
195	0xbc5443ef	-0.01295565
196	0xbd17ac98	-0.037029833
197	0x3d7bdbe0	0.061488986
198	0xbe16b139	-0.14716043
199	0xbdfa530d	-0.12222872
200	0x3df43367	0.11923867
201	0xbe2670a1	-0.16253902
202	0xbd66482c	-0.056221172
203	0xbb0131e8	-0.0019713584
204	0x3dcfa5a2	0.10139014
205	0x3c447a33	0.011992025
206	0x3d86ca37	0.06581538
207	0x3d06d5d2	0.03291876
208	0x3d5547b2	0.052070327
209	0xbd97b675	-0.07407848
210	0x3c0d73cf	0.008633568
211	0xbd5d83ae	-0.054080658
212	0xbd47bdfd	-0.04876517
213	0x3d712381	0.05887175
214	0xbc1ff471	-0.009762869
215	0x3c38b19e	0.011272816
216	0x3d25f0a7	0.040512707
217	0x3d3ce652	0.046118088
218	0xbd873c3e	-0.06603287
219	0xbdaa0188	-0.08301073
220	0xbc6ee03d	-0.01457983
221	0xbd3d3130	-0.046189487
222	0x3db8cdb5	0.090236105
223	0x3d4c2925	0.049843926
224	0x3db17d6c	0.086665004
225	0xbd86cf41	-0.06582499
226	0x3ccd7bf9	0.025083529
227	0xbd64537e	-0.055743687
228	0xbdf3bd65	-0.119013585
229	0xbd19cdf7	-0.03754994
230	0x3cac3fe3	0.021026557
231	0xbc882502	-0.01661921
232	0xbdc1ae97	-0.094571285
233	0xbdb8649f	-0.09003567
234	0xbd974b55	-0.07387415
235	0xbcb0739c	-0.021539502
236	0x3cf744f0	0.03018424
237	0xbd26fc10	-0.04076773
238	0xbc39e111	-0.011345164
239	0xbd6787b4	-0.0565259
240	0xbd10df04	-0.035368934
241	0xbcc1ca81	-0.023656132
242	0x3d1230c0	0.035691023
243	0xbd87bebb	-0.06628176
244	0x3d99220c	0.07477197
245	0xbda62964	-0.081133634
246	0x3c91c491	0.017793925
247	0x3d6d8980	0.05799246
248	0x3d4ffc90	0.05077797
249	0xbcdcf6a7	-0.026973082
250	0xbcec98b3	-0.028881406
251	0x3d456466	0.04819145
252	0x3cd19b0a	0.025586624
253	0xbdba0734	-0.09083405
254	0x3dadbf32	0.08483733
255	0x3c1ea860	0.009683698

conv2.0.bias f4 [32]
0	0x3eacc242	0.33741957
1	0x3d3bbaf6	0.045832597
2	0x3de7fccf	0.11327516
3	0x3da2a47f	0.079415314
4	0x3e983dd0	0.2973466
5	0x3d5212fa	0.05128763
6	0x3edf6361	0.43630508
7	0xbee499d2	-0.44648606
8	0x3ee60732	0.44927365
9	0x3e354976	0.17703804
10	0x3e8d6353	0.2761484
11	0x3f00a5dd	0.5025309
12	0xbdb8dbe0	-0.09026313
13	0x3efc0d11	0.4922872
14	0x3e8daad3	0.2766939
15	0x3e665cdc	0.2249636
16	0x3cf8ced6	0.030372065
17	0x3e1918b9	0.14950837
18	0x3e8f29f9	0.2796171
19	0xbc52edc9	-0.012874075
20	0x3e8ed289	0.27895
21	0x3ee00ec6	0.4376127
22	0x3e25461c	0.16140026
23	0xbe3e7059	-0.18597545
24	0x3e9095f7	0.28239414
25	0x3eadaa5a	0.3391903
26	0x3ebaa16f	0.3645129
27	0x3d961468	0.07328111
28	0x3d9fd04c	0.07803401
29	0x3d7c08eb	0.061531942
30	0x3db76094	0.08953968
31	0xbe941040	-0.28918648

conv3.0.weight f4 [64, 32, 3, 3]
0	0xbd913091	-0.070893414
1	0xbd5e7bdf	-0.05431735
2	0xbd612e38	-0.05497572
3	0xbdcab35d	-0.09897492
4	0x3d32b1a1	0.04362643
5	0xbcae7260	-0.021294773
6	0xbc69f005	-0.0142784165
7	0x3d55f3d9	0.052234504
8	0xbc9ac7f6	-0.018894177
9	0xbd223673	-0.039602708
10	0xbd529f67	-0.05142155
11	0x3cda19d9	0.026623653
12	0xbd09ec2c	-0.033672497
13	0xbc7b69cc	-0.015345048
14	0xbd36c202	-0.044618614
15	0x3d09962c	0.03359048
16	0xbcfd358a	-0.030909318
17	0xbcd8db6f	-0.026471822
18	0x3d618b48	0.05506447
19	0x3cc427ae	0.023944702
20	0x3d366e53	0.044538807
21	0xbd8a3b7f	-0.06749629
22	0xbd3c0288	-0.04590085
23	0x3ce8ef5c	0.028434448
24	0xbd3e8a50	-0.046518624
25	0xbd934dcc	-0.07192573
26	0x3c209784	0.009801749
27	0xbd6bbb3d	-0.05755161
28	0x3d0aed7e	0.033917896
29	0xbd981005	-0.074249305
30	0x3d3d52bc	0.04622148
31	0xbd6839eb	-0.05669586
32	0x3c5048eb	0.0127126975
33	0x3c143227	0.00904516
34	0x3916677d	0.00014343667
35	0x3d56ee5d	0.052473415
36	0x3c188577	0.009309164
37	0xbdc763e4	-0.097358495
38	0xbd2ef488	-0.042713672
39	0x3c929b5c	0.017896347
40	0x3d821e68	0.06353456
41	0x3cb526c5	0.022113213
42	0x3d0e6cd5	0.03477176
43	0xbdd393e8	-0.10330945
44	0xbda17161	-0.078829534
45	0x3ca561ea	0.02018829
46	0xbc02d2d9	-0.00798484
47	0xbcff2f70	-0.03115055
48	0x3c864a69	0.016392903
49	0x3bf560a3	0.0074883266
50	0x3b6ec6d3	0.0036434426
51	0x3d39bc97	0.04534587
52	0xbcd0e281	-0.02549863
53	0xbbda1250	-0.006655015
54	0xbd02304d	-0.031784344
55	0xbd627a6b	-0.055292528
56	0x3c8ac8d8	0.016941473
57	0xbd6fdf34	-0.058562472
58	0x3d1c3d2d	0.03814428
59	0xbcdb651e	-0.026781615
60	0x3d44b115	0.04802044
61	0x3cc160a4	0.023605652
62	0x3b1a7a89	0.0023571572
63	0xbd14f5b4	-0.036367133
64	0x3c1c5ff2	0.0095443595
65	0x3c5e9ba3	0.013586911
66	0xbd3cb90a	-0.046074905
67	0xbda02f69	-0.07821543
68	0xbcf79b70	-0.030225486
69	0x3c7a93b8	0.015294008
70	0xbd1d1dbc	-0.038358435
71	0xba624adf	-0.00086323725
72	0xbd2d5c73	-0.042324495
73	0xbd3f44ca	-0.04669646
74	0xbd2b6089	-0.04184011
75	0xbd93b677	-0.07212537
76	0xbc557553	-0.013028461
77	0xbda3ddb9	-0.080012746
78	0xbd12ab72	-0.035808034
79	0x3c426665	0.011865233
80	0x3caa22e3	0.020768588
81	0x3c570237	0.013123087
82	0x3c2b602e	0.010459943
83	0x3d866fde	0.06564306
84	0xbcbe7530	-0.023249239
85	0x3ca8003e	0.020507928
86	0x3d323742	0.04350973
87	0x3cc5b950	0.024136215
88	0x3d39baf9	0.045344327
89	0xbd585b8b	-0.052821677
90	0xbc960c73	-0.018316483
91	0xbcf9a939	-0.0304762
92	0xbd47836b	-0.048709314
93	0xbcfb123e	-0.030648347
94	0x3d35f3dd	0.04442202
95	0x3cd07322	0.025445525
96	0x3b8cef89	0.0043010158
97	0xbd8cda91	-0.06877626
98	0x3cfa1f0e	0.030532386
99	0xbc1f9fb9	-0.009742671
100	0xbd8fdcfc	-0.07024571
101	0xbd5895d7	-0.052877273
102	0xbcea612d	-0.02861079
103	0x3cd0b6f5	0.025477866
104	0xbcce3921	-0.025173726
105	0x3d80c0a6	0.06286745
106	0xbd87b488	-0.066262305
107	0x3d79a961	0.060952548
108	0xbd499ad8	-0.049219936
109	0xbd7b9b8c	-0.061427638
110	0xbd467704	-0.048453346
111	0xbca9c66a	-0.020724494
112	0x3cf3d74e	0.029765751
113	0xbd556939	-0.0521023
114	0xbcfff5db	-0.031245163
115	0xbd4731b3	-0.04863138
116	0xbd448793	-0.047980856
117	0xbd4f5d59	-0.050626133
118	0xbcc2e00b	-0.023788473
119	0xbd2c0273	-0.041994523
120	0xbcda3e01	-0.026640894
121	0xbccc1300	-0.024911404
122	0xbd0a2a55	-0.033731777
123	0xbd6cc397	-0.057803717
124	0xbd12d586	-0.035848163
125	0x3ca24a08	0.019810691
126	0x3cc1b4fe	0.023645874
127	0xbcc22577	-0.023699505
128	0xbcb9364a	-0.022608895
129	0xbd190305	-0.037356395
130	0xbd99bcf9	-0.07506747
131	0xbd4a7c07	-0.049434688
132	0xbd24380c	-0.040092513
133	0x3d4b6325	0.0496551
134	0x3bb64eb1	0.00556358
135	0xbd4e42d6	-0.05035671
136	0x3ce40095	0.027832309
137	0x3d193fb3	0.037414264
138	0x3bfe4083	0.0077591552
139	0xbd2b8e08	-0.0418835
140	0xbe03177a	-0.12801924
141	0x3c56d912	0.013113277
142	0x3c81eade	0.015859064
143	0x3ccdd40e	0.02512553
144	0xbca17b62	-0.019712154
145	0xbc243ac6	-0.010023778
146	0x3c84c88e	0.016208913
147	0x3c8b6d70	0.017019957
148	0xbd6d1eee	-0.057890825
149	0x3b504073	0.0031776696
150	0xbcbc586d	-0.022991383
151	0x3cfb6a76	0.030690413
152	0x3d41d2f4	0.04732032
153	0xbd75627c	-0.059908375
154	0x3d11e410	0.035617888
155	0xbd312617	-0.043249216
156	0xbdb29b66	-0.08721046
157	0xbbcff4b2	-0.0063463086
158	0xbd0522af	-0.03250378
159	0x3d0619cc	0.032739446
160	0xbd2c5ade	-0.042078845
161	0x3bcc6df1	0.006238692
162	0xbbbeeaa0	-0.0058263093
163	0x3d4d98df	0.050194617
164	0x3d3fb3b9	0.046802256
165	0x3c9ea3db	0.019365242
166	0xbd2102de	-0.039309375
167	0xbd0cf5a6	-0.034413956
168	0x3d0c8708	0.034308463
169	0x3d46f56f	0.048573907
170	0xbd5e4db2	-0.054273315
171	0x3d5625d8	0.052282184
172	0xbd56e7a4	-0.052467003
173	0xbc2ed7ce	-0.010671569
174	0xbb80805f	-0.003921553
175	0x3c99c802	0.018772129
176	0xbd56e99a	-0.052468874
177	0x3c36c9fa	0.011156553
178	0xbd5df4d2	-0.054188557
179	0x3ad24360	0.0016041808
180	0xbc8339e3	-0.016018813
181	0x3c820faf	0.01587662
182	0xbd4d65bf	-0.05014586
183	0x3a8c835b	0.0010720299
184	0xbb402719	-0.002932018
185	0x3cd252cc	0.025674246
186	0x3c83643b	0.016039005
187	0x3c636ae5	0.013880466
188	0xbe0742d4	-0.13209087
189	0xbbd5bfa0	-0.0065230876
190	0xbd45d19b	-0.0482956
191	0xbd9913f8	-0.07474512
192	0xbccbfb29	-0.024900036
193	0xbd857201	-0.06515885
194	0xbd91c3bd	-0.07117412
195	0xbd67b746	-0.056571268
196	0xbd0d8b02	-0.034556396
197	0xbcb85608	-0.02250196
198	0xbca5c4c8	-0.020235434
199	0x3c474b69	0.012163975
200	0xbce2d8b9	-0.027691232
201	0xbd814602	-0.06312181
202	0x3c5c351b	0.013440396
203	0xbd1bc82a	-0.03803269
204	0x3da84efe	0.082181916
205	0x3d6b5881	0.05745745
206	0x3c656b29	0.0140026
207	0xbd53bd00	-0.051693916
208	0xbcd29886	-0.025707494
209	0xbcc88799	-0.02447872
210	0x3a205dcd	0.0006117493
211	0x3a52a143	0.0008034894
212	0x3d5f5dcf	0.054532822
213	0xbd0aa6a2	-0.03385032
214	0x3c1dcbde	0.009631125
215	0x3c036329	0.008019247
216	0x3c0a6e3b	0.008449133
217	0x3cdb0985	0.026737938
218	0xbd16163d	-0.0366423
219	0xbdab44f4	-0.08362761
220	0xba8fcb97	-0.0010970709
221	0x3bdc77c5	0.006728145
222	0x3d0a098a	0.033700503
223	0xbc9e69e3	-0.0193376
224	0xbd9535b5	-0.072856344
225	0x3d1df13a	0.03856013
226	0xbd803ab9	-0.062612005
227	0x3c89ebc9	0.016836064
228	0xbc863e9c	-0.016387276
229	0x3d60994b	0.05483369
230	0xbb4dc080	-0.0031395257
231	0x3c12d683	0.008962276
232	0xbd190176	-0.03735491
233	0xbd44d213	-0.048051905
234	0xbc62b105	-0.01383615
235	0xbd972165	-0.073794164
236	0x3d887393	0.06662669
237	0xbd66ece6	-0.056378268
238	0xbbeb4067	-0.007179308
239	0x3d1b719e	0.03795015
240	0xbcaba178	-0.020951018
241	0x3cad4db1	0.02115521
242	0xbb1d5e61	-0.0024012553
243	0xbd8810c9	-0.066438265
244	0xbcffbc78	-0.031217799
245	0xbd57c7f0	-0.05268091
246	0xbc3ff7b6	-0.011716774
247	0xbc8852fa	-0.016641129
248	0x3d186dc2	0.03721405
249	0x3ce87ffd	0.028381342
250	0x3d2073b7	0.039172854
251	0xbd78c47b	-0.060734253
252	0xb9dfb352	-0.0004266748
253	0x3cc0d36c	0.023538314
254	0x3d318d3f	0.043347593
255	0x3d84c6c9	0.06483228

conv3.0.bias f4 [64]
0	0xbe86e243	-0.263445
1	0xbeaf4f76	-0.3424031
2	0xbe7734b7	-0.24141203
3	0x3b2ec244	0.0026666084
4	0xbe7fb7e8	-0.24972498
5	0x3d66dc36	0.056362353
6	0x3d0245e3	0.03180493
7	0xbf531c4e	-0.82465065
8	0xbce1acbd	-0.027548188
9	0xbd5007f4	-0.050788835
10	0x3eee1d3a	0.46506673
11	0x3e225c3f	0.15855502
12	0xbeb03655	-0.34416452
13	0xbf1d6cbd	-0.61494046
14	0xbc07ae31	-0.008281277
15	0xbe6ebbfc	-0.23313898
16	0xbe433fc8	-0.190673
17	0x3e49864c	0.19680136
18	0xbe9c234b	-0.30495676
19	0xbea4eb25	-0.3221065
20	0xbe557692	-0.20846012
21	0xbef815d6	-0.4845416
22	0xbe65025d	-0.22364183
23	0xbf082c2a	-0.5319239
24	0xbee405fd	-0.4453582
25	0xbe030f3c	-0.1279878
26	0xbf05266b	-0.52011746
27	0xbebe6073	-0.3718296
28	0xbe5240b0	-0.20532489
29	0xbdaf4995	-0.085589565
30	0xbf198be5	-0.5997909
31	0xbd9eb38f	-0.07749092
32	0xbe616d65	-0.22014387
33	0xbe9f9413	-0.3116766
34	0x3de3dd33	0.11126175
35	0x3e0ec8b4	0.1394375
36	0x3d0dc6ad	0.0346133
37	0x3e07669c	0.13222736
38	0xbe78e659	-0.2430662
39	0x3e7c1aaf	0.24619554
40	0xbe793b0e	-0.24338934
41	0x3e9f0086	0.31055087
42	0xbdc49af3	-0.09599867
43	0x3e2645c0	0.16237545
44	0x3deb0fc3	0.11477616
45	0xbd3a5940	-0.04549527
46	0xbeecb2c2	-0.4623013
47	0xbe06b35d	-0.13154359
48	0xbdee53c3	-0.1163707
49	0x3e9e96c7	0.3097441
50	0xbdb1d896	-0.086838886
51	0xbe88a58d	-0.26688805
52	0xbe3edf42	-0.18639854
53	0xbe82a90c	-0.25519598
54	0xbe110d60	-0.14165258
55	0x3e771a55	0.24131139
56	0xbe3c8950	-0.18411756
57	0xbe8b6f2c	-0.27233255
58	0xbe72722a	-0.23676363
59	0x3ed39da7	0.41331217
60	0x3e6159e2	0.22006944
61	0xbe74f845	-0.23922832
62	0x3e814c33	0.25253448
63	0xbda37276	-0.07980816

conv4.0.weight f4 [128, 64, 3, 3]
0	0xbd1f2432	-0.038852878
1	0x3c797bfc	0.015227314
2	0x3c62758d	0.013821972
3	0x3ca86d05	0.020559797
4	0xbc4505c8	-0.012025304
5	0xbd4ed484	-0.05049564
6	0x3d83cbc2	0.06435348
7	0xbd6ad7ad	-0.05733459
8	0x3c4a1084	0.012333039
9	0xbd1de4c0	-0.03854823
10	0x3d044eed	0.032301832
11	0xbc8e0397	-0.017335696
12	0xbd16d8e0	-0.036827922
13	0xbcb51335	-0.022103885
14	0xbc940a30	-0.018071264
15	0x3d03d0b8	0.03218147
16	0xbcf33744	-0.029689439
17	0xbbb071b4	-0.005384648
18	0xbcdd163a	-0.026988138
19	0x3cd733c8	0.026269808
20	0x3b932adc	0.004491193
21	0x3c98af96	0.018638413
22	0x3cf24063	0.029571718
23	0xbbded9ab	-0.0068008504
24	0xbd306754	-0.04306729
25	0xbc735274	-0.014851201
26	0x3c883552	0.016626988
27	0x3cbb5d4f	0.022871641
28	0xbd104131	-0.03521842
29	0xbcb17dfc	-0.02166652
30	0x3b55032c	0.0032503111
31	0x3cea3c18	0.028593108
32	0xbb97ea8d	-0.004636115
33	0x3ca6b4a1	0.020349802
34	0x3ce45c16	0.027875941
35	0xbcff302e	-0.031150904
36	0x3b9cecd6	0.004788975
37	0xbc854c88	-0.016271845
38	0x3cae50ef	0.021278827
39	0x3c98ef68	0.018668845
40	0x3b96e48a	0.0046048807
41	0xbd177f16	-0.036986433
42	0x3cbbdc4e	0.022932198
43	0x3d20dc4c	0.03927259
44	0x3c684fdc	0.014179196
45	0x3b52b745	0.0032152694
46	0x3b0c8b9a	0.0021445514
47	0xbd0a4e7d	-0.03376626
48	0xbc529e6a	-0.012855152
49	0x3c945e8c	0.01811149
50	0xbc53f60c	-0.01293708
51	0xbd825062	-0.06362988
52	0xbcc519c5	-0.02406014
53	0xbd04b429	-0.032398377
54	0xbd36d895	-0.044640142
55	0xbc41d66c	-0.011830907
56	0xbd0280e2	-0.031861193
57	0xbcd60dc0	-0.026129603
58	0x3c48f47f	0.012265324
59	0xbc8778f8	-0.016537175
60	0xbc26e204	-0.010185722
61	0xbc3d014e	-0.011535956
62	0xbc68a8bd	-0.014200387
63	0xbcc213f8	-0.023691162
64	0x3c57f1a5	0.013180171
65	0xbc64eab7	-0.013971976
66	0x3c95ab54	0.018270172
67	0xbc9296d5	-0.017894188
68	0x3c85f334	0.01635132
69	0xbd07d8c2	-0.0331657
70	0xbbbade5a	-0.005702776
71	0xbca09060	-0.019600093
72	0x3c0fef3c	0.008785065
73	0x3c07acee	0.008280976
74	0x3ce8c9a9	0.028416472
75	0xbcbb9e8b	-0.022902748
76	0xbcc1bddc	-0.023650102
77	0x3c8fdc5b	0.017561128
78	0xbb5908a6	-0.0033116727
79	0xbc48108a	-0.0122109745
80	0x3d00d259	0.031450603
81	0x3d13b004	0.036056533
82	0xbd722618	-0.05911836
83	0xbda7de31	-0.081966765
84	0xbbbd95b7	-0.0057856697
85	0xbcfd7a1b	-0.030942013
86	0xbda34bc9	-0.07973439
87	0x3d8228ab	0.06355413
88	0x3c948ca2	0.018133465
89	0xbaa8a145	-0.0012865445
90	0xbb9ad7f7	-0.004725452
91	0xbd2f6d6b	-0.04282896
92	0x3c1fd946	0.009756392
93	0xbdd17698	-0.10227698
94	0xbcbefbb2	-0.023313377
95	0x3d9343f9	0.07190699
96	0x3c81288a	0.0157664
97	0x3c8d3405	0.017236719
98	0x3cb892ca	0.022530932
99	0xbc12095a	-0.008913362
100	0x3cbbaf58	0.022910759
101	0xbd0bb3dc	-0.034107074
102	0x3c298f4b	0.010349105
103	0x3d70d668	0.058798224
104	0xbd3a6bf8	-0.045513123
105	0x3d1360c2	0.035980947
106	0xbce49e0f	-0.0279074
107	0xbcbe9197	-0.023262782
108	0x3c7bf047	0.015377111
109	0x3cca1e01	0.02467251
110	0xbaf66911	-0.0018799623
111	0xbd06b54e	-0.03288775
112	0x3daba894	0.08381763
113	0x3b89cc8b	0.0042052916
114	0xbbb79ead	-0.0056036324
115	0xbd7ab48c	-0.06120734
116	0xbce5475f	-0.027988134
117	0xbc00812b	-0.007843296
118	0xbd391956	-0.045190178
119	0xbcc10105	-0.023560056
120	0x3c08e5a9	0.0083555365
121	0x3d0c89b5	0.034311015
122	0x3cbf8fe3	0.02338404
123	0xbc25e799	-0.010126018
124	0xbd18bc5c	-0.03728901
125	0x3d27b90b	0.040947955
126	0xbd03458a	-0.03204874
127	0xbd613790	-0.05498463
128	0x3cd4b17f	0.025963543
129	0xbd8dd1a7	-0.06924754
130	0x3caa9618	0.020823523
131	0xbd270af6	-0.040781938
132	0xbd5969fb	-0.053079586
133	0x3d054faf	0.032546695
134	0xbbad7a5e	-0.0052941283
135	0x39dbb2b7	0.00041904088
136	0xbcff0e2d	-0.03113469
137	0xbd6c1d2f	-0.05764502
138	0x3d4415f6	0.047872506
139	0x3d81ceab	0.06338247
140	0x3c7fd3af	0.015614434
141	0xbcc973e9	-0.024591403
142	0xbcd8fbb3	-0.026487207
143	0xbc923f89	-0.017852562
144	0xbd24623d	-0.04013275
145	0xbd0e5a11	-0.034753863
146	0xbc3a4f4a	-0.011371443
147	0x3cd9cc05	0.026586542
148	0x3cd374b8	0.025812492
149	0xbc5288da	-0.012850011
150	0x3c3e5a24	0.011618171
151	0x3d1b153b	0.037862044
152	0x3befbe67	0.007316399
153	0xbd11ed85	-0.035626907
154	0x3c906033	0.017623996
155	0x3d121a16	0.03566941
156	0x3c3e73ad	0.011624259
157	0x3b41945c	0.0029537892
158	0xbc4c93df	-0.012486427
159	0xbd2a2889	-0.041542564
160	0x3ba064b5	0.0048948177
161	0xbdb4baff	-0.08824729
162	0xbca5ef16	-0.020255607
163	0xbc5ca59c	-0.013467219
164	0x3cc51c4d	0.024061346
165	0x3bbf7a1d	0.0058434145
166	0x3ce24984	0.027622946
167	0xbd439216	-0.04774674
168	0x3d0f2545	0.034947652
169	0xbc0e1202	-0.008671286
170	0x3bb292d4	0.005449632
171	0xbbbc34b2	-0.0057435865
172	0xbad83f35	-0.0016498329
173	0x3cf62948	0.030048981
174	0x3c884d38	0.016638383
175	0x3afbac32	0.0019201098
176	0x3a32860e	0.0006810137
177	0xbc213bbd	-0.009840903
178	0xbc7de20d	-0.015495789
179	0xbd8cd440	-0.06876421
180	0xbcd8b18c	-0.026451848
181	0xbcc75557	-0.024332685
182	0xbcd92277	-0.026505692
183	0xbc33da7f	-0.0109773865
184	0xbcc934c7	-0.024561299
185	0xbc02216f	-0.0079425415
186	0x3d17f05d	0.037094463
187	0xbd04355b	-0.032277446
188	0xbce3bf33	-0.027801132
189	0x3cab2d80	0.02089572
190	0xbd50fca5	-0.05102219
191	0xbd82d8f7	-0.06389039
192	0xbe0085e7	-0.1255108
193	0x3d08388d	0.033257056
194	0xbc715ab1	-0.014731095
195	0x3d6c3916	0.05767163
196	0x3d08cbf4	0.03339763
197	0xbd31af93	-0.04338033
198	0xbd6d1e2c	-0.057890102
199	0x3cb9ceba	0.022681583
200	0x3d1f32a4	0.038866654
201	0xbb9976c9	-0.0046833497
202	0x3c457aac	0.012053173
203	0xbc3049df	-0.0107598
204	0xbd2250b4	-0.039627746
205	0x3c9ed884	0.019390352
206	0x3ba06b50	0.004895605
207	0xbd30ba22	-0.04314626
208	0xbcdaa07f	-0.026687859
209	0x3c195d33	0.009360599
210	0xbc949b8f	-0.018140582
211	0x3cc3491f	0.023838578
212	0x39e9b894	0.00044578745
213	0x3c0e2b3f	0.008677303
214	0xbca302d3	-0.019898808
215	0xbd91b10a	-0.07113846
216	0xbd5cf9aa	-0.053949036
217	0x3c36769b	0.011136676
218	0x3c66c8c3	0.014085951
219	0x3bc33476	0.0059571816
220	0xbbe36c3e	-0.0069403937
221	0xbd556cc8	-0.052105695
222	0x3bc5be5e	0.0060346564
223	0x3d09c82f	0.033638176
224	0x3b882f92	0.0041560614
225	0xbc5f4cb2	-0.013629125
226	0xbcd23dbd	-0.025664205
227	0x3c97bfaa	0.01852401
228	0x3d0f868a	0.035040416
229	0xbc3a7ce8	-0.011382319
230	0xbd1822e9	-0.037142668
231	0xbd36f490	-0.044666827
232	0xbcad0faa	-0.021125633
233	0xbccca3c2	-0.02498043
234	0xbd01fcd7	-0.031735267
235	0x3cf08ad1	0.029363068
236	0x3bd72fc1	0.006566972
237	0xbb9e7699	-0.0048359153
238	0xbd1994d3	-0.037495445
239	0x3d3a1715	0.04543217
240	0x3cba1530	0.022715181
241	0xbcf45a19	-0.029828118
242	0x3c5bcc79	0.013415449
243	0xbab53cbf	-0.0013827308
244	0x3ca96020	0.020675719
245	0xbcba1208	-0.022713676
246	0x3c91491e	0.01773506
247	0xbc8dc7df	-0.01730722
248	0x3c996626	0.018725466
249	0xbd1c7524	-0.03819765
250	0xbc2683aa	-0.010163227
251	0x3c04a6d0	0.008096412
252	0xbd348329	-0.044070397
253	0x3c4015b1	0.011723922
254	0xbc8e3797	-0.017360492
255	0x3e011bda	0.12608281

conv4.0.bias f4 [128]
0	0xbc69d359	-0.014271581
1	0xbdb7392d	-0.08946452
2	0xbd998a11	-0.07497037
3	0x3d971099	0.073762126
4	0x3e531799	0.2061447
5	0x3e51ff23	0.20507483
6	0x3e096ee8	0.13421214
7	0x3be19b66	0.00688498
8	0xbe0440ec	-0.1291539
9	0x3e197fde	0.14990184
10	0x3ecb82d1	0.39748242
11	0x3d8817dd	0.066451766
12	0x3e1951e3	0.14972644
13	0x3cea8aa2	0.028630558
14	0x3ce78f6f	0.028266637
15	0xbdcd49b7	-0.100238256
16	0x3eb7260d	0.35771218
17	0x3df6895a	0.120379165
18	0xbd9ea9ea	-0.07747252
19	0x3dffddbc	0.12493464
20	0x3e2f2faa	0.17108026
21	0xbd8717ab	-0.06596311
22	0x3cfb4bc4	0.030675776
23	0xbdd9caae	-0.10634361
24	0x3ea40c69	0.32040718
25	0x3e6b09b1	0.22952916
26	0xbe1ee6f8	-0.15517795
27	0x3eae98a9	0.34100845
28	0x3e151387	0.1455823
29	0xbd69a5bd	-0.057042826
30	0x3e8612f2	0.2618633
31	0x3d5e90fa	0.05433748
32	0x3e6860af	0.22693132
33	0x3d9d96e1	0.076947935
34	0x3dfb329f	0.122655146
35	0x3a7c1c54	0.00096172583
36	0x3dc263cc	0.09491691
37	0x3e1c5f6a	0.15270773
38	0x3e3250a1	0.1741357
39	0x3ebb9ecb	0.36644587
40	0xbbd3879c	-0.006455375
41	0x3d20a4a5	0.039219517
42	0x3dcb085e	0.09913705
43	0x3d976bf1	0.07393635
44	0x3eb25b1a	0.3483513
45	0x3ed5b306	0.41738147
46	0xbd0c594d	-0.03426485
47	0x3d4d9855	0.050194103
48	0x3c5a7768	0.013334133
49	0x3d804f3c	0.06265113
50	0x3e81714c	0.2528175
51	0xbbea3d4d	-0.007148421
52	0xbdf27c59	-0.11840124
53	0x3da7328e	0.081639394
54	0x3ed2a232	0.4113937
55	0x3d4d1638	0.050070018
56	0x3d0ef8b6	0.034905158
57	0xbe17a71e	-0.14809844
58	0xbdc597b7	-0.09648078
59	0xbc840d50	-0.01611963
60	0xbd14978f	-0.03627735
61	0x3e0ba270	0.13636184
62	0x3e3c856f	0.18410276
63	0x3dc31bf1	0.09526814
64	0x3d28fee6	0.041258715
65	0xbdd81acc	-0.10551986
66	0x3ec90f43	0.39269456
67	0xbe0a3f4f	-0.13500713
68	0x3dfdc3d4	0.12390867
69	0x3e924868	0.28570867
70	0x3d90de76	0.07073681
71	0x3d3fd1b5	0.04683085
72	0x3f0e9909	0.55702263
73	0x3caeb899	0.021328257
74	0x3eab2cb7	0.33432552
75	0x3eaab5bb	0.33341774
76	0xbc295df1	-0.010337339
77	0x3c5d07f4	0.013490666
78	0xbbc12ff3	-0.0058956086
79	0x3e4ac360	0.19801092
80	0xbcec5f6a	-0.02885409
81	0x3e595e96	0.21227488
82	0xbd5b2a2c	-0.053507015
83	0xb9fd8158	-0.0004835229
84	0x3d34a360	0.04410112
85	0x3d53bbf9	0.051692937
86	0xbdb0f3fe	-0.08640288
87	0x3e9c1e1b	0.3049172
88	0xbd899531	-0.06717909
89	0x3ee163c5	0.4402143
90	0xbde886ae	-0.11353813
91	0xbbece3f3	-0.007229322
92	0xbc8c4c3a	-0.017126191
93	0x3e363db2	0.17796972
94	0x3d975152	0.073885575
95	0x3d7cb44b	0.06169538
96	0x3dc4ec38	0.09615368
97	0x3d8ca08a	0.06866558
98	0x3e08a3f0	0.13343787
99	0x3d4b2521	0.049595956
100	0x3e38c22c	0.1804282
101	0x3eafd5de	0.34342855
102	0xbe7ecf05	-0.24883659
103	0x3db3eaf5	0.08785049
104	0x3e5c6619	0.21523322
105	0x3e1ef386	0.15522584
106	0x3d1dc516	0.038518034
107	0x3d10e62c	0.03537576
108	0x3e56c893	0.2097495
109	0x3c9c8b21	0.01910931
110	0x3b961ade	0.0045808395
111	0x3f4728f6	0.77796876
112	0x3e54cce1	0.2078128
113	0x3c56d1ef	0.0131115755
114	0x3d7410a6	0.05958619
115	0xbdb1e31b	-0.08685895
116	0x3eaeb75f	0.34124276
117	0xbcedb49d	-0.029016787
118	0x3f0a29a0	0.53969765
119	0x3e975afc	0.29561603
120	0x3efa5990	0.48896456
121	0x3d7309f9	0.059335683
122	0x3ead65b6	0.33866662
123	0x3cbd74d5	0.023126999
124	0x3d98c29a	0.07458992
125	0x3db3fe2d	0.087887146
126	0x3e8bd6e9	0.273124
127	0x3efd61fe	0.49488825

linear.weight f4 [14, 2560]
0	0xbc9a9705	-0.01887084
1	0xbcc14d52	-0.02359644
2	0xbb8444db	-0.0040365285
3	0xbc4a9db6	-0.012366703
4	0x3c05c968	0.008165695
5	0xbbb930a5	-0.005651551
6	0xbc81f56a	-0.015864093
7	0xbc3e0eb3	-0.011600184
8	0xbc5118dc	-0.012762275
9	0xbcca6018	-0.024704024
10	0xbc0ab9d5	-0.008467157
11	0xbc64ba67	-0.013960457
12	0xbc20fea7	-0.009826339
13	0xbb9f60f9	-0.004863855
14	0xbab4ffe6	-0.0013809174
15	0xbca9d150	-0.02072969
16	0xbbc591c5	-0.00602934
17	0xbba52bd5	-0.0050406256
18	0xbba34b15	-0.0049833157
19	0xbbbcabb8	-0.005757775
20	0xbc4fcbb3	-0.012682843
21	0xbbed1dbb	-0.00723621
22	0xbc6665c0	-0.014062345
23	0xbc4b17be	-0.012395797
24	0xb95d2cb6	-0.00021092859
25	0xbc23fc35	-0.010008861
26	0x3bbd07c4	0.005768748
27	0xbbe56440	-0.007000476
28	0x3c131f04	0.008979563
29	0xbcbbf505	-0.022943983
30	0xbc8e256d	-0.01735183
31	0xba02a7c9	-0.00049841084
32	0x3b8bba96	0.004264186
33	0xbcb8f455	-0.022577444
34	0x3bca2613	0.0061690896
35	0x3bddcc1f	0.006768718
36	0xbc160df6	-0.009158602
37	0xbc7375bd	-0.014859614
38	0xbcc29a41	-0.023755195
39	0x3c53f072	0.012935745
40	0xbc11c8ca	-0.0088979695
41	0xbc37c779	-0.011216992
42	0xbbf85559	-0.0075785336
43	0xbc5feb3b	-0.013666923
44	0x3c463ae6	0.012099003
45	0xbcc7d20f	-0.024392156
46	0xbaa35704	-0.0012461846
47	0xbbbbce7f	-0.0057314034
48	0xbc4b997d	-0.012426731
49	0xbcb00840	-0.021488309
50	0xbc3a92c7	-0.0113875335
51	0x3b881a84	0.0041535515
52	0xbc3076f5	-0.010770549
53	0xbc201051	-0.009769515
54	0xbc799d07	-0.015235192
55	0xbb5c9cb9	-0.003366275
56	0xbb4bb20f	-0.0031081473
57	0xbcc494c9	-0.023996728
58	0xbb6998f7	-0.0035644153
59	0xbbd59028	-0.006517429
60	0x3c24cd13	0.010058659
61	0xbc748f19	-0.014926695
62	0x381f18c5	3.7931623e-05
63	0xbc979fa5	-0.018508742
64	0xbbaacd01	-0.0052124267
65	0x3bbbe09d	0.005733563
66	0xbc98a7da	-0.018634725
67	0xbc3fca36	-0.011705926
68	0xbb19d1f8	-0.0023471098
69	0xbc9609cf	-0.018315224
70	0xbcadefbd	-0.02123248
71	0xb8c6902a	-9.4682284e-05
72	0xbc40f44a	-0.011776993
73	0x3b3723ec	0.0027944995
74	0x3bc8cd86	0.006128016
75	0xbd01de1a	-0.031705953
76	0xbc1f789a	-0.0097333435
77	0xbc8e83d5	-0.017396847
78	0x3a81cd98	0.0009903191
79	0xbef04b94	-0.46932662
80	0x3c171a88	0.009222634
81	0xbc33ee8e	-0.010982169
82	0xbbc84675	-0.0061119148
83	0xbcc3e5ae	-0.02391323
84	0xbc04dd4e	-0.008109404
85	0xbafba615	-0.0019199277
86	0x3a2df3e5	0.00066357694
87	0xbc015518	-0.007893823
88	0xbb8da964	-0.0043231715
89	0xbc94eef7	-0.018180354
90	0xbb6fbe32	-0.003658187
91	0xbc4fd352	-0.01268466
92	0xbcf41b46	-0.029798161
93	0xbbcb5edb	-0.006206376
94	0xbc8e87f5	-0.017398814
95	0xbb4c12b4	-0.0031139078
96	0xbcd4bbfd	-0.025968546
97	0xbc5c2775	-0.013437142
98	0xbc3f9b49	-0.011694738
99	0xbcb4a0a0	-0.022049248
100	0xbd914213	-0.07092681
101	0xbc3378c4	-0.010954086
102	0xbbb86ef5	-0.0056284615
103	0x3c09bcf6	0.008406868
104	0xbbfe7f7b	-0.0077666617
105	0x3b894ca1	0.004190043
106	0x3c1ade6b	0.009452443
107	0xbc54f86a	-0.01299868
108	0x3b867134	0.0041028503
109	0xbc2c667c	-0.010522481
110	0xbc75bd82	-0.014998795
111	0x3c2f7e4e	0.010711266
112	0xbc1ef8d8	-0.009702884
113	0xb9321766	-0.0001698412
114	0xbb066b93	-0.0020510897
115	0xbcf3f768	-0.029781058
116	0xbc97ed85	-0.018545875
117	0x3c0c8fbe	0.008579193
118	0x3bd1f267	0.0064070704
119	0xbc323b91	-0.01087846
120	0xbacdbc0b	-0.00156963
121	0xbc2c1964	-0.0105041005
122	0x3bf07b35	0.007338906
123	0xbc7ed841	-0.015554489
124	0xbb9b2cc6	-0.004735562
125	0xbc91a69c	-0.01777964
126	0xbb9740ca	-0.0046158778
127	0x3a03cc00	0.0005027652
128	0xbc4c7ead	-0.012481374
129	0x3b0f1fff	0.002183914
130	0xbcc6e4d4	-0.024279036
131	0xbcb1226f	-0.021622865
132	0xbcabe1a9	-0.020981627
133	0xbb6f45d3	-0.0036510124
134	0xbcf6ff24	-0.030150957
135	0xbc89dd92	-0.016829286
136	0xbcab1a07	-0.020886434
137	0xbc454273	-0.0120397685
138	0xbd003ef8	-0.03131005
139	0xbd2e3001	-0.04252625
140	0xbcbb8e70	-0.022895068
141	0xbca19504	-0.019724376
142	0xbc4ee9e4	-0.012629006
143	0xbbc8ba8b	-0.0061257533
144	0xbcd1f5f7	-0.02562998
145	0x3c2ca22d	0.010536713
146	0x3b88ef3f	0.004178911
147	0xbc9ecb56	-0.019384068
148	0xbc847b50	-0.016172081
149	0xbc441666	-0.011968231
150	0xbc682f3f	-0.014171421
151	0xbca66ccc	-0.02031555
152	0x3b72f68f	0.003707323
153	0xbc1b78a7	-0.009489215
154	0x3c317e34	0.010833312
155	0xbcac70f9	-0.021049963
156	0x3b8babed	0.0042624385
157	0xbc9933f1	-0.018701525
158	0xbcdcdea0	-0.026961625
159	0x3c2e17a9	0.010625758
160	0xbc9f5bd8	-0.019452974
161	0xbc147ef0	-0.009063467
162	0xbbb8df67	-0.005641866
163	0x3c22dd63	0.009940478
164	0xbc523876	-0.012830844
165	0xbba5b2c7	-0.0050567123
166	0x3bdc81e2	0.0067293504
167	0xbc948336	-0.018128973
168	0xbb1fa52e	-0.002435993
169	0xbb6e269b	-0.0036338929
170	0x3bf07a54	0.0073388014
171	0xbc35a83e	-0.011087475
172	0xbcbc79c8	-0.023007289
173	0x3c3fe3de	0.011712043
174	0xba70fde6	-0.0009193107
175	0x3a554a18	0.0008136346
176	0xbcbb3876	-0.022854071
177	0xbb9d250e	-0.004795677
178	0x3c47fdb6	0.0122064855
179	0x3baa72d5	0.0052016773
180	0x3c27bbe1	0.010237665
181	0x3c1199fa	0.0088868085
182	0xbc363ae5	-0.01112244
183	0xbb63bad4	-0.003474881
184	0xba0ec48c	-0.0005446158
185	0xbc36fe51	-0.011169032
186	0xbbcf1e50	-0.006320752
187	0xbcb16776	-0.02165578
188	0x3c4310fc	0.011905905
189	0xbc0d22c9	-0.00861425
190	0xbab1b38d	-0.0013557539
191	0x3bc7406e	0.0060806787
192	0x3b3cfbce	0.002883661
193	0xbbe7064f	-0.0070503126
194	0xbd31abcc	-0.04337673
195	0xbd8d1a88	-0.06889826
196	0xbb7818ca	-0.0037856572
197	0xbb105532	-0.0022023437
198	0xbcafe48d	-0.021471286
199	0xbd39c790	-0.045356333
200	0x3be54c98	0.006997656
201	0xbebd4306	-0.36965197
202	0xbd02b260	-0.031908393
203	0xbc96a34a	-0.01838841
204	0xbcc57ca4	-0.024107285
205	0xbe19e169	-0.15027393
206	0xba635bd0	-0.0008673044
207	0xbc8aea3e	-0.016957399
208	0xbc37d268	-0.011219598
209	0xbb4f11a1	-0.00315962
210	0xbcb3d38a	-0.021951456
211	0xbc8f0ba6	-0.01746161
212	0xbea5bae3	-0.32369146
213	0xbea22582	-0.3166924
214	0xbd930a27	-0.07179671
215	0xbcd81f2f	-0.026382057
216	0xbe599214	-0.2124713
217	0xbe91e3e2	-0.28494173
218	0xbe34d516	-0.17659411
219	0xbd130894	-0.035896853
220	0xbbfcb0a7	-0.0077114883
221	0x3ad143b5	0.0015965613
222	0xbcc006d0	-0.023440748
223	0xbb2fbf08	-0.0026816744
224	0xbc48fa96	-0.012266776
225	0xbbb1ae3d	-0.005422382
226	0x3c48c495	0.0122539
227	0x3c2d82bf	0.010590254
228	0xbc49aa8b	-0.012308727
229	0xbbd24329	-0.0064166975
230	0x3b6edc04	0.0036447058
231	0x3b912307	0.0044292244
232	0xbc2f4793	-0.010698217
233	0xbba91074	-0.005159432
234	0xbc1318ab	-0.008978049
235	0xbae3c7ab	-0.0017378231
236	0x3bc052e7	0.0058692577
237	0x3bc4fa1e	0.0060112616
238	0xbc94869b	-0.018130591
239	0xbc8c1cc5	-0.017103562
240	0xbc8b43c4	-0.017000087
241	0x3b6b8fc5	0.0035943848
242	0xbc4fa74a	-0.012674162
243	0xbc3cf139	-0.011532121
244	0xbca9fe21	-0.02075106
245	0x3aa596cc	0.0012633442
246	0x3b7ce359	0.0038587658
247	0xbc0fd8f7	-0.008779756
248	0xbcb4b84c	-0.022060536
249	0x3c51af14	0.0127980895
250	0xbcb6eef1	-0.022330733
251	0x39aaf988	0.00032610842
252	0xbc9bd5a6	-0.019022774
253	0xbcba29be	-0.022724982
254	0xbb7bf3af	-0.0038444807
255	0xbc9b17dc	-0.018932275

linear.bias f4 [14]
0	0xbd892ce1	-0.06698013
1	0x3d4e3fbb	0.050353747
2	0xbd0a9fa2	-0.033843644
3	0x3b6ec915	0.0036435772
4	0xbdc33be4	-0.095329076
5	0xbdc31b36	-0.095266744
6	0xb844a543	-4.6883953e-05
7	0xbbb5c1a8	-0.0055467673
8	0x3d053128	0.032517582
9	0xbe144027	-0.14477597
10	0xbd52c836	-0.051460467
11	0x3d85ab46	0.065268084
12	0x3d926f4c	0.071501344
13	0x3dc0f4f6	0.094217226
