CNN/trained/checkpoints_14_Epoch_no_val_improvement_in_10/highest_val_acc.pth (torch, 535111 bytes, 10 tensors)

conv1.0.weight f4 [16, 1, 3, 3]
000000 27 c1 9e be dc 9f 34 be 08 33 86 3e 2b f6 96 be
       -0.3100674 -0.17639107 0.2621081 -0.29484686
000010 42 a3 80 be c1 d2 83 3e 23 1d 10 3e 86 ef c9 3d
       -0.25124556 0.2574673 0.14073615 0.098601386
000020 92 75 7e be 12 68 07 be 84 34 8b 3d ee 88 01 3d
       -0.24849537 -0.13223293 0.06797126 0.031624727
000030 6d b6 15 be bb 9f 2f be 86 d4 10 be 92 de 07 be
       -0.14620371 -0.17150776 -0.14143571 -0.13268498
000040 82 18 e3 3d 39 40 87 3d 88 44 86 3e f3 d0 2b 3e
       0.11088659 0.066040464 0.2622416 0.16778927
000050 78 6b 82 bd 46 04 69 3c 2d 42 59 3e ee 89 26 3e
       -0.06368154 0.01422221 0.2121665 0.16263554
000060 98 df ee bd 22 46 7d be 9e 0c b6 bd fc ff 41 3d
       -0.11663741 -0.24733785 -0.08889125 0.047363266
000070 8c e6 63 bb b0 d1 71 be d8 8a 8a 3e 2a c2 a4 be
       -0.0034774868 -0.23615146 0.27059054 -0.32179385
000080 55 73 13 3d d8 27 ad 3d b4 c2 00 3e 4f d1 12 3e
       0.03599866 0.08454865 0.12574273 0.14337657
000090 6f 43 22 be 2e c2 9e 3d fe 95 59 be 4d 7d 93 3e
       -0.15846036 0.077518806 -0.21248624 0.28806534
0000a0 eb cc f6 bd 08 34 2f 3e 10 d2 87 3e 19 55 04 be
       -0.12050804 0.17109692 0.26527452 -0.12923087
0000b0 2e 90 41 3e 7c 67 8b be 18 70 a2 3e a4 54 4b 3e
       0.18902656 -0.2722739 0.31726146 0.19856507
0000c0 81 48 f6 bd 94 70 30 3e 1e 1a a7 be 8e 0f 49 3d
       -0.12025548 0.17230445 -0.32637113 0.0490871
0000d0 d3 2d 40 3e fc 2a 18 3e 36 8f d7 3b 59 6c b8 bd
       0.1876748 0.14860147 0.0065783514 -0.09005041
0000e0 32 27 48 3e 2e 75 6a 3c 28 94 8e 3e 26 8e a1 be
       0.19546202 0.014310164 0.2784741 -0.31553763
0000f0 a5 e5 e8 3d 17 59 35 3e 6e 46 69 3e 31 e9 55 be
       0.11371926 0.17709766 0.22780773 -0.20889737
000100 95 52 8b be 97 59 92 be 23 c4 4d 3c e1 97 fc bd
       -0.27211443 -0.28583977 0.01255897 -0.12333656
000110 2b 9f 97 bd de fb 2d 3e 5a ad b9 3d dd 33 c2 bd
       -0.07403406 0.16990611 0.09066267 -0.094825484
000120 ed 9f 25 3e af df 4d bd 52 58 63 3e c9 27 80 3d
       0.16174288 -0.05026215 0.2220166 0.062575884
000130 a7 cb 8e 3e 08 0b f2 3d ca 3e f9 3d 1e 7c 29 bd
       0.2788975 0.1181851 0.12170179 -0.041378133
000140 f6 a0 a0 bd 23 66 8b 3d a3 0b ac be 0c 76 62 3e
       -0.07843201 0.068065904 -0.33602628 0.22115344
000150 32 0f 68 3e 13 d5 43 be 05 78 f3 bd 23 ea 83 3e
       0.22662047 -0.1912425 -0.11888126 0.2576457
000160 4c ec 69 3e c3 38 86 3c de 04 54 bd 4d ee f8 3d
       0.22844046 0.016384488 -0.051762454 0.12154827
000170 a9 33 78 3e 02 1a 4b bd ff 88 5b 3d cb 3e 6b 3e
       0.24238457 -0.04958535 0.053597447 0.22973172
000180 9f 11 0d 3e 98 51 91 bc f2 04 35 3e 8f 33 4c 3e
       0.13776253 -0.017739102 0.17677668 0.19941543
000190 59 b1 6a be d9 90 d5 3d 6b f9 13 3d 5a df 8a 3e
       -0.22919215 0.10428018 0.036126535 0.2712353
0001a0 cb 51 0c be 47 0f 16 bd c9 4c 98 3d 6f 26 4f be
       -0.13703077 -0.036635663 0.074365206 -0.20229505
0001b0 8c 73 b1 bc b5 93 c4 3d c6 5d 59 be e1 71 00 be
       -0.021661542 0.095984854 -0.21227178 -0.12543441
0001c0 37 77 b4 3d df bf f7 bd da 29 8f bd 88 b2 ec bd
       0.08811801 -0.120971434 -0.069904044 -0.1155749
0001d0 7f 2c fb bd c5 74 0d 3a 1c a6 2c 3e 0e 1a 0f be
       -0.12264346 0.0005396123 0.1686024 -0.13974783
0001e0 e9 af 06 be cf 63 81 3e dd 2d e6 bd 87 21 14 3e
       -0.13153042 0.2527146 -0.112392165 0.14465915
0001f0 b9 9f 53 3e 77 d5 3a be 06 ef 1d 3e e9 95 6b 3d
       0.20666398 -0.18245493 0.15423211 0.057516012
000200 8b 9c 87 3c 47 c5 44 bd 71 d7 ac be a2 a1 3b 3d
       0.016554138 -0.0480397 -0.3375812 0.045808442
000210 8a 24 81 be e1 7e 82 3c 17 27 63 be 15 7a 7f 3e
       -0.2522319 0.015929641 -0.2218288 0.24948914
000220 90 11 9e 3e fd ce 7c 39 43 18 1a 3e 70 98 ce bd
       0.30872774 0.00024109702 0.15048318 -0.10087669
000230 cf 22 5c be 03 ea a5 be 8b a1 68 be b7 2d bb 3d
       -0.21497653 -0.324051 -0.22717874 0.09139579

conv1.0.bias f4 [16]
000000 02 09 fa 3d 3b 6f 5b 3d bd e9 0c 3d 86 13 9a be
       0.12208749 0.053572875 0.034402598 -0.3009302
000010 21 5c a2 3c 3b 05 34 be f8 4f 9c be 46 5f 8e 3e
       0.019819321 -0.1758012 -0.3052976 0.27807063
000020 22 1b 73 be b7 2d 3c bd 12 4b 5c 3e 0b 99 92 3e
       -0.23740819 -0.045942035 0.21513012 0.28632388
000030 f6 48 80 3d 0c 32 ab bd 59 8c c9 3d f4 53 65 be
       0.06263916 -0.08359155 0.09841222 -0.22395307

conv2.0.weight f4 [32, 16, 3, 3]
000000 2e 70 33 bd 4f 9a 11 bd 36 c9 b3 bc 83 d7 95 bd
       -0.043808155 -0.03554755 -0.02194653 -0.07316496
000010 b0 8c 59 3d 3b c7 75 bc 96 ea 6c 3d 2c f0 a5 3d
       0.053112686 -0.0150011135 0.057840906 0.0810245
000020 59 13 18 3c 19 de 0d bd d0 bb 00 bd 94 25 69 3d
       0.009281957 -0.034635637 -0.031429112 0.056920603
000030 70 37 99 3d 5d c8 23 bd 6e 78 88 bc f4 88 38 3d
       0.07481277 -0.039986003 -0.016658988 0.045052484
000040 41 90 3b bd a0 16 79 3d 2c f5 f4 bc d2 8c da 3c
       -0.045791868 0.060812593 -0.029902063 0.026678476
000050 7c b6 78 3b 3f 33 83 bd cd 85 95 3b e3 69 1a 3d
       0.0037950566 -0.06406259 0.0045630694 0.037698638
000060 ce ea 98 3d cb 6e 84 bd 39 ec 44 3d a6 53 14 3d
       0.074666604 -0.064664446 0.048076842 0.036212586
000070 18 f9 86 3c 27 56 f2 3a 02 8b 8c 3c 9a 8a 64 bd
       0.016476199 0.001848881 0.017156128 -0.055796243
000080 d6 66 00 bd 0d d0 9a bd ac d0 9c 3c 3a 39 3c bd
       -0.031348072 -0.07559214 0.019142471 -0.045953013
000090 6a 0b 5b 3d 76 03 13 3d 8a 7e 43 ba bb ee 7f bd
       0.053477682 0.035891972 -0.00074575155 -0.06248353
0000a0 b8 77 0a 3d a5 1b eb bc 90 f2 86 3d b7 89 f0 3c
       0.03380558 -0.028699705 0.06589234 0.029362543
0000b0 57 3e d5 bc 8b 44 0f 3d 7f 81 6f bd cd 18 4b 3d
       -0.026030703 0.034977477 -0.058473106 0.0495842
0000c0 c5 fe d4 3c 1c 8f 80 bd df a7 5d bd 0c 44 e9 3c
       0.02600039 -0.06277296 -0.054115172 0.02847483
0000d0 ba 39 d7 3c 9d 1c 9f bd f1 88 09 bd 8d 60 9f bd
       0.026272643 -0.077691294 -0.033577863 -0.077820875
0000e0 e6 40 ee 3c 06 de ae bd 66 d0 03 3d 50 1e 0a 3d
       0.02908368 -0.08538441 0.032181166 0.033720315
0000f0 13 d3 9e 3d 5a 7e 69 3d e0 6d 8d bb 10 8b 91 bd
       0.07755103 0.057005264 -0.0043160766 -0.07106602
000100 ed 6f 29 bd f6 ac 83 3d 49 8c bf bb ab 1b ef bc
       -0.041366506 0.06429474 -0.0058455807 -0.029187998
000110 c4 bf ee bc 15 8b ba bd 6b d9 8d bd 19 59 69 bb
       -0.029144175 -0.09108559 -0.06926235 -0.0035606085
000120 24 26 86 bd e5 72 45 bd 23 4e a7 bd af e8 76 bd
       -0.065502435 -0.048205275 -0.081692 -0.060280498
000130 41 29 21 3d 26 ad 9e bc 13 17 13 3d 2f 77 47 bc
       0.039345983 -0.019369673 0.035910677 -0.012174412
000140 09 aa e5 bc 8f f9 5d 3c 1f c3 f3 ba c3 e2 3d bc
       -0.02803518 0.013548269 -0.0018597579 -0.011589709
000150 5b 5e 05 bd 6f 87 0e 3d 5c 91 aa 3d 49 fd d8 3b
       -0.032560688 0.03479713 0.08328506 0.006621991
000160 c0 71 7b bc b1 e2 89 3d 43 d3 a1 3d d4 cd 23 bd
       -0.015346944 0.06732691 0.07901623 -0.039991215
000170 c3 66 d5 bb a3 9c 9f 3d 73 07 a0 bd fd ac b4 bc
       -0.0065124943 0.07793548 -0.07813921 -0.022055143
000180 7d 7a a6 bd 8e d7 43 bd b8 79 ef 3c 57 d4 23 bd
       -0.081288315 -0.04781299 0.029232845 -0.039997425
000190 2d bc 3c 3c 17 53 54 3d 89 1c 19 bd ef d5 1a bd
       0.011519474 0.051837053 -0.03738073 -0.03780168
0001a0 53 4f b0 3d 8b 46 4c bd ab 78 31 bd 5d e3 99 3c
       0.0860888 -0.049871963 -0.04332797 0.018785173
0001b0 81 54 3e 3d 1f 7a 8a bd 5f 1e 21 bd 16 3f a9 bc
       0.046467308 -0.06761574 -0.039335605 -0.020659965
0001c0 69 4f 36 bd cc f9 2e bd 0d 78 59 bd 9b 14 0c bd
       -0.044509325 -0.042718694 -0.053093005 -0.03419934
0001d0 cb d7 5a bd 50 de b5 39 f4 2c a9 3d 3d 05 e5 3b
       -0.053428452 0.00034688646 0.08260527 0.00698915
0001e0 8c e4 86 3c bb a5 15 3c 04 4b 59 3d 30 c3 54 3c
       0.016466402 0.0091337515 0.053050056 0.012985989
0001f0 cf 70 78 bd bb f2 35 3c 14 00 86 3c ab 1c 5e 3b
       -0.060654458 0.011105235 0.01635746 0.00338916
000200 08 5a 90 3d ff a7 20 3d 5a c4 43 bc 7d 25 19 3d
       0.07048422 0.039222714 -0.011948669 0.037389267
000210 38 a7 da bc b2 21 a0 3b a8 13 36 bd 13 2c 4c 3d
       -0.026691064 0.0048868293 -0.04445234 0.04984672
000220 fd 7f 5c 3c f8 0a 2b bd 57 1f cc 3c 04 84 29 bd
       0.013458249 -0.041758507 0.024917288 -0.041385666
000230 7a 84 70 bd 89 41 04 3d 03 42 64 3c 87 4b 48 3d
       -0.05872009 0.03228906 0.013931754 0.048900153
000240 41 45 31 3d b0 90 9d bd 90 07 21 3d a0 35 0e 3d
       0.043278936 -0.076936126 0.039313853 0.03471911
000250 9c 98 b8 3c 8e 46 58 3d 3e e2 15 bd 40 5c 33 3d
       0.022533707 0.05280166 -0.036592714 0.04378915
000260 fa b3 95 3d dc 49 38 3d 4c fc 1d bd b8 d9 29 bd
       0.073097184 0.044992313 -0.038570687 -0.0414674
000270 81 a1 8a 3d e5 8f b0 bd c6 2b 89 3d d6 30 06 3c
       0.06769086 -0.08621196 0.06697802 0.008190354
000280 c2 69 13 bd 67 49 9b bd d4 c8 8a bd d4 5a 4f 3d
       -0.03598953 -0.0758236 -0.06776586 0.05062373
000290 e9 18 90 3b 31 90 29 3d 05 39 97 bd 56 29 76 3c
       0.004397501 0.041397277 -0.073839225 0.015024504
0002a0 9e eb 02 3d d7 ab 1b 3d cf ac 50 bd 21 dc 3c 3d
       0.031962983 0.038005676 -0.050946053 0.04610837
0002b0 74 2e 9d 3b e0 2a 8a bd 94 97 f6 bc 40 77 47 3d
       0.0047967974 -0.06746459 -0.030101575 0.04869771
0002c0 ec 1b 10 3d 75 ca a7 bc 1a 69 ad bd d7 f1 ac 3b
       0.03518288 -0.020482281 -0.08467312 0.005277853
0002d0 b1 3e 43 bd 8e 2c 58 3c 02 ec b6 bd 20 cd 8b 3d
       -0.04766721 0.013194216 -0.08931734 0.06826234
0002e0 f7 6d 0e bd 56 60 87 bd a8 ca 43 bd 13 bf a2 3c
       -0.03477284 -0.066101715 -0.04780069 0.019866502
0002f0 ea ba d0 3c 36 56 8b 3c db b2 b1 3b 1c ea 8b 3d
       0.025479753 0.017008882 0.0054229326 0.06831762
000300 40 1c 9b bd 03 26 15 3d c4 42 2a bd 0a dd ac bc
       -0.07573748 0.036413204 -0.04156758 -0.021101493
000310 fe b7 7a bd 4f 75 92 3d 61 3a 8f 3d f2 62 ab bc
       -0.061210625 0.07151281 0.06993557 -0.020921204
000320 f5 e6 1b 3d 4f 52 79 3c a4 53 88 bd ab be e5 bb
       0.038062055 0.015217378 -0.06656578 -0.007011255
000330 89 f7 a1 bc 4a 26 95 bd 56 8b 0f bc a3 84 23 bd
       -0.019771354 -0.07282694 -0.008761248 -0.039921414
000340 1d 1b b3 bd 85 4e 80 bd 13 cc 24 3b 83 2a bc bd
       -0.08745406 -0.062649764 0.0025146052 -0.09187796
000350 5b 8b 1e 3d ac 17 80 3d 5b 10 83 3d bb 8a 44 bd
       0.03870712 0.06254515 0.06399604 -0.047983866
000360 56 9b ac bd 5c 90 2e bd e5 f5 ba bd bc 06 95 bd
       -0.084280655 -0.04261814 -0.09128932 -0.07276675
000370 d4 0c e9 3b 8e f2 d7 3c 7b 05 89 3c 5e e3 91 bc
       0.007112125 0.026360776 0.016726246 -0.017808612
000380 db fa bd 3c 11 49 2c bd 04 b0 81 bd 48 15 97 3c
       0.023190906 -0.04206187 -0.063324004 0.018442765
000390 81 6f 04 3d 5d ab ae bd f8 cc 88 3d 02 c6 83 bd
       0.0323329 -0.08528779 0.0667972 -0.06434251
0003a0 7a 75 82 3d 0a 32 fe 3c df 95 45 bd fc a8 3f bc
       0.06370063 0.03102972 -0.04823863 -0.011698004
0003b0 fc 1f 87 3d 41 ed 1d bd 01 d2 56 3d 25 6f 19 3d
       0.065978974 -0.03855634 0.05244637 0.03745951
0003c0 21 f7 13 bd b1 ff 78 3d f3 5a c4 bd a0 10 10 3d
       -0.036124352 0.06079072 -0.0958766 0.035172105
0003d0 0b 04 fe bc d5 8e be bc 6a f6 08 ba 5b b0 50 3c
       -0.031007787 -0.023261467 -0.0005224707 0.012737359
0003e0 77 f5 8b 3c f6 8e 22 3c 81 ca ae bb f1 4b 86 3d
       0.01708482 0.00992178 -0.005334199 0.065574534
0003f0 70 35 7a 3c c9 4e a1 bc 8d a3 29 bd d1 25 af 3d
       0.01527153 -0.019690888 -0.04141574 0.08552135

conv2.0.bias f4 [32]
000000 6b 23 9d bd 98 11 8d 3d bb 5f 7c bd 7c e1 af 3d
       -0.07672771 0.06888121 -0.061614733 0.085879296
000010 fb da 9b 3d ea 18 8d bd e2 4e 38 bd ab 6a 11 3d
       0.076101266 -0.068895176 -0.044997104 0.035502117
000020 29 64 5f 3d 55 87 ac bd 1f 35 57 3d 9f 77 75 bd
       0.05453888 -0.0842425 0.052540895 -0.059928533
000030 b7 dd 3d 3d 59 ea a2 bc 5e 63 d6 bc ae b1 93 bd
       0.046354022 -0.019887136 -0.026170429 -0.07211624
000040 d9 a7 d3 3b 3e 85 d1 bc 20 10 8a 3c 65 40 b5 3c
       0.006459218 -0.02557623 0.016853392 0.022125432
000050 01 6d f9 bc 17 c3 ec 3b 4f ba 63 3d 52 34 29 3c
       -0.030447485 0.007225405 0.0555976 0.010327416
000060 f9 6e bd bc 75 ce 2c 3d a8 ad 23 bd c7 d1 00 3d
       -0.023124205 0.04218908 -0.039960533 0.03145006
000070 bf f2 f8 ba ff 8f 25 bd 65 aa a9 3d 99 bb 28 bd
       -0.0018993242 -0.04042053 0.08284453 -0.041194532

conv3.0.weight f4 [64, 32, 3, 3]
000000 04 40 f6 3c 8f 5f f9 3c 47 05 c5 bc 3f 21 d8 bb
       0.030059822 0.030441074 -0.024050368 -0.00659576
000010 25 54 b5 3b 2e af 06 3d 36 51 fc 3b e4 8c 46 bc
       0.0055337125 0.032881908 0.007700111 -0.012118552
000020 9f af 86 bd 17 ca 7b bd fa b7 96 3c 43 2a b8 3c
       -0.06576466 -0.061472025 0.018398274 0.02248109
000030 79 10 55 3d bc 8a 4b 3d 48 79 14 bd aa fc 28 bd
       0.052017663 0.049692854 -0.036248475 -0.041256584
000040 e1 79 18 bc 29 a1 3e bc a4 74 14 3c 90 51 29 3d
       -0.009306402 -0.011635103 0.009061012 0.04133755
000050 fa 18 0d bc a3 8e 54 bc 36 f5 bb 3c 13 10 19 3d
       -0.008611912 -0.01297346 0.022944074 0.037368845
000060 33 cb 78 bc d7 23 a0 3c be 61 94 bc 15 52 dc 3c
       -0.015185165 0.01954834 -0.018113013 0.026894609
000070 7e 0e 8f 3c 47 b2 73 bd fa 3e 1a 3d b1 0e 0d bd
       0.017462965 -0.05949619 0.037657715 -0.03443784
000080 21 15 e8 3c 6b e3 63 bd 7c f4 40 bd 16 55 09 3d
       0.028330388 -0.055636805 -0.04710816 0.03352841
000090 62 af b2 bc f1 fa e6 3c 83 f7 64 bd 67 51 31 3d
       -0.021812145 0.02819583 -0.055900108 0.043290522
0000a0 91 2b 25 bc c6 aa f4 3c ca e3 df bc 34 7c 40 3c
       -0.010081188 0.029866587 -0.027330298 0.011748362
0000b0 22 d2 c3 bc 18 c0 dc 3c 60 1c 4b 3c 61 9a d8 bc
       -0.02390391 0.026947066 0.012396902 -0.026440801
0000c0 ba 97 fc bc b4 e4 2c bd d8 0d 3b bd 0d f1 5c bb
       -0.030834068 -0.042210296 -0.0456675 -0.0033713013
0000d0 63 2d a7 3c 60 e6 64 bd ab 48 09 3d e1 a9 ac bc
       0.020407384 -0.055883765 0.033516567 -0.021077098
0000e0 80 ab ea 3c 8f d7 f0 bb 6e 18 67 bb b1 42 34 bd
       0.02864623 -0.0073499153 -0.0035262364 -0.044008914
0000f0 ca 13 8f 3d 9e 5a 48 bd 58 d7 c1 bc 8c a9 cc bc
       0.06986196 -0.048914544 -0.023662254 -0.02498319
000100 ce 7b 8e bc 3c fd fb bc 01 c7 2b bd 81 0e 39 bc
       -0.017393019 -0.0307604 -0.04193783 -0.011294962
000110 14 d4 d9 3b 2b bd e2 3c 86 0a 65 bd d3 c9 e1 3c
       0.006647596 0.027678093 -0.05591824 0.027562058
000120 d7 6b 3e 3b 8c 5a 81 bd 05 f3 11 3d b7 4b 21 3d
       0.0029055977 -0.063160986 0.035632152 0.039378848
000130 10 e5 c4 3c dc 06 22 bc 71 a2 0b bd fe 9b 1a bd
       0.024035007 -0.009889331 -0.034090463 -0.037746422
000140 72 2a 38 3c c5 68 2d 3d d6 c1 0c 3d 29 16 56 bd
       0.0112405885 0.042336244 0.034364544 -0.052267227
000150 a5 bf c2 3c a6 6f 22 3d 4b dd 25 3d b2 6a 05 3d
       0.023773024 0.039657257 0.040494245 0.032572456
000160 a9 37 3b bd 77 53 89 bd 19 55 69 bc 7d 8d f8 ba
       -0.04570738 -0.06705373 -0.01424148 -0.0018963065
000170 90 0c 04 3d 5d 93 71 bd 4c 68 86 bd 24 1e 59 bd
       0.032238543 -0.058978427 -0.06562862 -0.05300726
000180 ea 1d 1b bd 74 fe 49 3c 20 7c 55 bc fb 75 c6 bb
       -0.037870325 0.012328733 -0.013030082 -0.006056545
000190 9a 72 dd 3c d2 b9 1e bd 39 ed ef bc 63 74 6f bd
       0.027032185 -0.03875143 -0.029287921 -0.058460604
0001a0 cd 19 29 bd 19 c8 a0 39 f6 be 81 3c d4 4f ad bb
       -0.04128437 0.00030666662 0.015838128 -0.0052890573
0001b0 70 79 2b bd 53 77 0a bd 3d 99 07 bd ef fa d1 3b
       -0.04186386 -0.033805203 -0.033105124 0.0064080874
0001c0 6b bc 4f 3d 98 1e 54 3c d0 db 52 bd df 0e 80 bd
       0.0507168 0.012946747 -0.05147916 -0.062528364
0001d0 bb a4 21 bd 53 87 13 3d af 13 d9 bc 83 c1 a6 3c
       -0.03946374 0.036017727 -0.026498644 0.020355945
0001e0 3d c1 80 bd e6 87 69 bc 21 5d b3 bb 50 a7 9e 3c
       -0.06286857 -0.014253592 -0.0054737483 0.01936689
0001f0 c9 6b 14 3d a8 90 25 3d 6f bf 6e 3c dd bd 9b b9
       0.036235604 0.040421158 0.0145720085 -0.00029705363
000200 e9 bc 55 bd 0f 35 0d 3c 51 48 0d 3c c3 95 87 bb
       -0.052182112 0.008618607 0.008623199 -0.004137726
000210 1a 05 5b bd 1b 32 9f bc 48 41 fd 3c 70 8d 3c 3d
       -0.053471662 -0.019433072 0.030914918 0.046033323
000220 02 56 7f bd 31 93 46 bd 31 a3 36 3d 9d 0f cb bb
       -0.062337883 -0.048480216 0.044589225 -0.0061969296
000230 49 79 d2 3b b4 b7 04 3c 96 ad a1 3c 71 0c 20 3d
       0.0064231497 0.008100439 0.019736093 0.039074365
000240 96 54 5b bd 77 1b 44 3d 29 db 08 3c ee 33 44 3d
       -0.053547464 0.047877755 0.008353033 0.047901087
000250 37 9a 2e 3d 3d d0 64 bd 40 10 01 3c 63 fa 1c 3c
       0.04262754 -0.055862654 0.007877409 0.009581181
000260 01 be 1c 3d ea 97 0e bd dd e7 c9 bc 93 5f 32 3d
       0.03826714 -0.034812845 -0.024646694 0.043548178
000270 a7 03 f5 bb 8d 29 10 bd 41 bb f8 3c bc 44 64 3d
       -0.007477242 -0.035195876 0.030362727 0.055729613
000280 23 c7 2d 3a ef c4 39 3d f1 fd e5 3c a7 86 5b bd
       0.00066291 0.045353826 0.02807519 -0.05359521
000290 74 9b 27 3d a3 54 1e bd 57 fd 2e bd 66 87 03 bd
       0.040919736 -0.038654935 -0.042722072 -0.032111548
0002a0 56 e1 fa bc e0 8d fa 3c 54 83 8c bc 35 22 39 bd
       -0.030625027 0.03058523 -0.017152466 -0.045198638
0002b0 2e 85 c9 3c 5c 8b b4 bb d8 a7 03 bd b3 4c b6 bb
       0.024599638 -0.005509777 -0.03214249 -0.0055633425
0002c0 4f d6 fd bc 9f f0 21 bd 0f de 86 bd 07 07 76 bd
       -0.03098598 -0.039536115 -0.06585323 -0.060065296
0002d0 dd df 4d 3d 11 27 ab bc 57 7e 2b 3d 07 88 46 bd
       0.05026232 -0.020892652 0.041868534 -0.04846957
0002e0 92 37 f0 3c 66 76 a3 3c 3c 90 36 3c cb 19 43 bd
       0.029323373 0.019953918 0.011142787 -0.04763202
0002f0 5b 4a e3 bc 95 71 06 bd ce cf 72 3a 05 94 c9 bc
       -0.027745416 -0.032823164 0.00092625327 -0.024606714
000300 0f 49 9c bc 83 80 20 3d 1a 2d ab bb ac 97 db bc
       -0.019077806 0.03918506 -0.0052238824 -0.026805721
000310 38 34 55 3d 41 c5 65 3d dd 73 f2 3c 50 11 4e bd
       0.052051753 0.05609632 0.029596264 -0.05030948
000320 1c f6 75 bb 93 c2 59 bd 86 9a 8a bc f5 d5 94 3c
       -0.0037530726 -0.053164076 -0.016919386 0.018168429
000330 28 87 67 3d ba 4c d3 bc a0 12 06 3b b5 9f a0 bc
       0.05652538 -0.025793422 0.0020457879 -0.019607404
000340 96 de 11 3d 26 d2 4b bd 50 40 8f b9 15 1e 11 bc
       0.035612665 -0.04976096 -0.00027323002 -0.00885727
000350 c0 43 93 bc 4d e2 ef 3c 3e df 4a 3c 16 31 13 3d
       -0.017976642 0.029282713 0.012382327 0.035935484
000360 31 c1 48 bd 5d ed 6c bd 94 2f ec 3b 16 b3 1e bd
       -0.049012367 -0.057843555 0.00720782 -0.03874501
000370 23 e3 b4 3c 81 fa d0 3c a9 24 86 3d 40 d3 06 bd
       0.022080963 0.025510075 0.06549961 -0.032916307
000380 0d 6d 2e bd 05 c4 9c 3b c8 89 3b 3d 91 00 79 bc
       -0.042584468 0.0047841095 0.045785695 -0.015197889
000390 aa b0 be bb f3 45 29 3b d9 a0 b9 bb dc 7f c3 bc
       -0.0058194 0.0025829046 -0.0056649265 -0.023864679
0003a0 df a7 0d 3d 4b 1d 78 bd 68 36 53 3d a1 3b 6f bd
       0.034583922 -0.06057481 0.051565558 -0.058406476
0003b0 e3 a7 8a bd c2 a1 d5 3c f1 59 2a 3d 26 fe ad 3c
       -0.06770303 0.026078109 0.04158968 0.021239351
0003c0 8f 7f 32 bd 50 ef 2c bd af 90 65 bd a8 33 e4 bc
       -0.04357868 -0.042220414 -0.056046184 -0.027856663
0003d0 14 ee d8 3c bf d8 cd 3c 77 1d 58 bc 25 b5 85 bd
       0.026480712 0.025127767 -0.013190619 -0.06528691
0003e0 e8 7c 0b bd fb f4 70 3c 98 d3 98 3b 9d c2 4c 3c
       -0.034054667 0.014706845 0.004663896 0.012497571
0003f0 36 48 9e 3c 50 bf 46 bd 76 1d 74 bd c3 fa e9 bb
       0.019321542 -0.048522294 -0.05959841 -0.007140489

conv3.0.bias f4 [64]
000000 cb 46 bf 3c 51 21 0e bc fa 1a 86 bd 59 f5 a3 bc
       0.023349186 -0.008674935 -0.06548114 -0.020014452
000010 3c 4f a7 3c 5d 56 1f bd f2 fc 59 bd 26 08 0e 3d
       0.020423524 -0.03890072 -0.053219743 0.03467574
000020 6f 94 99 bb 65 2e e7 bc fa 4e 6e bd 05 4a 64 bc
       -0.004686884 -0.028220365 -0.058180787 -0.013933663
000030 6f 09 6c 3d a0 8a e0 3c ad 64 4b bd 14 12 e4 3b
       0.057626184 0.027409852 -0.04965656 0.006960163
000040 22 90 06 bd c3 16 c9 bb fe 37 65 bd 2a b7 17 3d
       -0.0328523 -0.0061367466 -0.0559616 0.037039913
000050 bc 2c 90 bc f2 1e 19 3d d1 ac 52 3c 5d 53 c9 bb
       -0.017599456 0.037383027 0.012858585 -0.006143971
000060 4c 98 73 3d 78 1c bb 3b 09 ec f5 bc ec b6 4b 3d
       0.059471413 0.005710181 -0.030019777 0.049734995
000070 aa d1 5f bd e6 ce 7a bc 81 6f 12 bd 35 66 da 3c
       -0.05464331 -0.0153081175 -0.03575087 0.026660064
000080 b6 fc 0f bd 3e cb 75 bd f3 3d 86 3c 41 4e 15 bd
       -0.035153113 -0.06000828 0.016386962 -0.036451582
000090 e9 fe 17 3d 76 c3 72 bd fb 9e 4b bd 9c ab 88 bc
       0.037108336 -0.059268437 -0.049712162 -0.016683392
0000a0 1f a9 fe bb 60 cf 46 bd 45 e1 be bc a5 1c 38 3d
       -0.0077716256 -0.048537612 -0.023300776 0.044949193
0000b0 76 e5 3a 3d d2 90 17 3a 31 5e 69 bc fd 12 bd 3c
       0.045628987 0.0005781773 -0.014243648 0.023080343
0000c0 d2 15 fa bc 39 41 58 3b fe 1b d9 bb 42 9b 20 bd
       -0.030527983 0.003299786 -0.0066256514 -0.039210565
0000d0 8d 79 0a 3d 9f d8 3c bd db 7e cc bc a9 d0 a4 bc
       0.033807326 -0.046105023 -0.024962833 -0.020119028
0000e0 69 3a db 3c f1 fd a5 3b fe d0 77 3c be 9e c2 bc
       0.02676125 0.0050656726 0.015125511 -0.023757335
0000f0 d7 90 85 3c f7 dc a8 bc ec 9f 0f bc f1 d5 1c bd
       0.016304417 -0.020613177 -0.008766156 -0.038289968

conv4.0.weight f4 [128, 64, 3, 3]
000000 85 10 18 bd 4e 2c 37 bd 54 25 e9 3c f2 62 5c bc
       -0.03712513 -0.044719987 0.028460182 -0.013451325
000010 28 ac 12 bd e1 33 e3 3c f1 06 e5 3b 78 b6 46 3c
       -0.035808712 0.027734699 0.006989353 0.012128465
000020 97 e6 e3 bc bc 3f 41 3b c5 a2 cc bb b4 0b 68 3c
       -0.027819915 0.0029487452 -0.0062449896 0.0141629465
000030 f0 fa d8 bc c4 98 cb bc e4 5c eb bc a6 76 1d bb
       -0.026486844 -0.024853118 -0.028730817 -0.0024027019
000040 27 6b d0 bc 4a 19 66 bb dd 9e f3 bc 79 ac 1a bd
       -0.02544172 -0.0035110288 -0.029738838 -0.03776214
000050 03 e2 29 3c 0b 95 c0 bc 2e 87 9b bc 4e 8f 20 bd
       0.010368827 -0.02350857 -0.018985357 -0.039199166
000060 23 dc 76 3c 09 92 a6 bb e4 99 06 bd 20 21 0f bd
       0.015067133 -0.0050833267 -0.032861605 -0.0349437
000070 31 e4 0c 3d b4 8b f2 bc 76 b8 f6 bc ef 6c ee 3c
       0.034397308 -0.029607631 -0.030117255 0.029104678
000080 ec 4e 32 bd 3a 9c 25 3c cd 5b 15 3d d3 95 fe bb
       -0.043532297 0.010108048 0.0364645 -0.0077693253
000090 8b 26 95 3c f0 de e1 ba 14 2a bb ba ed 32 a0 3c
       0.018206855 -0.0017232578 -0.0014279508 0.019555533
0000a0 c7 df d0 3c 72 ef 4b bd d8 9b 20 bc 3d d1 38 bd
       0.02549733 -0.0497889 -0.009802781 -0.04512142
0000b0 5e 81 1a bc d9 ae 90 bc 44 87 72 bb dc af 1c bc
       -0.009430258 -0.017661499 -0.0037006894 -0.0095634125
0000c0 66 74 15 bd dc 48 03 bd f7 0f 82 b9 ba 09 d6 bc
       -0.03648796 -0.032051906 -0.00024807427 -0.026127685
0000d0 eb 84 ca bc 5d e3 c1 b9 74 4c e1 bc fb da 19 bd
       -0.024721583 -0.00036981227 -0.027502276 -0.03756235
0000e0 f1 87 fd bb 4a a4 09 3d db 58 0d 3d af 11 1b bd
       -0.0077371527 0.033603944 0.034508567 -0.03785866
0000f0 ab c1 f6 3c a9 65 32 3c 3a 18 0f bd 19 0e 2f bc
       0.030121645 0.0108884955 -0.034935214 -0.0106845135
000100 27 d0 c1 3b e6 bf 3d 3b a9 b8 1c 3d cc e4 ca 3c
       0.0059147063 0.0028953492 0.038262043 0.024767302
000110 a4 c3 83 3b c9 0d 77 3c 2a a0 ed bc f2 82 fe 3c
       0.004021125 0.01507897 -0.029007036 0.031068299
000120 33 39 06 3d c3 df f6 3c 50 09 63 3c c7 0b a6 bc
       0.032769393 0.030135995 0.013857201 -0.020269288
000130 47 7a 27 bd 78 e4 a0 3c 7e 55 2d bd ca 7b 20 bd
       -0.040888097 0.019640192 -0.04231786 -0.039180554
000140 12 a1 f7 bc c9 6a 1a bd ec 2c 09 bc 9a f9 b2 bc
       -0.030228171 -0.037699495 -0.008372527 -0.021847535
000150 8a be 90 bc 15 d1 30 3c 87 0d 74 bc 50 27 b9 3c
       -0.017668981 0.010792037 -0.014895803 0.022601753
000160 84 63 fd bc 78 4b 3b bd e4 bf 82 3c de 84 63 3c
       -0.030931242 -0.04572627 0.015960641 0.0138866585
000170 e8 6c cb 3c 3a 98 1e bc 5f 4b 19 bd ef 81 a9 3c
       0.024832204 -0.009679848 -0.037425395 0.02069184
000180 b9 6e 7a 3a d5 52 11 3d 7c 13 eb 3c 34 5c 52 bc
       0.0009553242 0.035479385 0.028695814 -0.012839366
000190 f3 aa 0c bc 3c d2 ce bc a3 bd ba 3c 53 ea b5 3c
       -0.008585679 -0.025246732 0.022795504 0.022206461
0001a0 e8 fc a6 bc d2 2d 10 bc 5c 41 fd bb c5 74 fc bb
       -0.020384267 -0.008799987 -0.0077287387 -0.0077043497
0001b0 a0 9b 26 bd 86 40 da 3c 61 45 8e bc 85 fd 05 bd
       -0.04067576 0.026642095 -0.017367067 -0.03271248
0001c0 d5 b5 8d bc 18 7d 71 3c 2d 7f 17 bd 69 54 3f bc
       -0.017298618 0.014739297 -0.03698652 -0.01167784
0001d0 e2 a9 c8 bc 50 5c 0f 3d 4f f2 62 3c 70 f4 98 bc
       -0.024495069 0.035000145 0.013851716 -0.018671244
0001e0 b7 cd f6 3c 64 0a 8f 3c 56 7b 2c 3c 94 bc a7 bc
       0.03012739 0.01746101 0.010527452 -0.020475663
0001f0 95 f6 e0 3c 82 2a 99 bc 00 ff 18 3d d7 bc fc 3b
       0.02746133 -0.018697027 0.037352562 0.007712941
000200 1b 13 ab 3b 09 db 9e bc 99 c4 85 bc dc cd 5e 3b
       0.0052207834 -0.019391553 -0.016329097 0.0033997213
000210 c5 0b 09 bd f0 9a 58 3c ee 7a aa 3c b3 c5 fb 3b
       -0.03345849 0.013220534 0.02081057 0.0076834797
000220 2b 4b fd 3b f3 27 8b bc 16 8f fa bc fa 53 8d bb
       0.007729908 -0.016986823 -0.030585807 -0.0043129893
000230 14 be 07 bd c5 0d 81 bc cb e5 86 3b ef d9 25 3d
       -0.033140257 -0.015753636 0.004116749 0.04049104
000240 e2 e9 12 ba af 36 06 bc 42 6d c2 bc 3a 0d 08 3d
       -0.0005604309 -0.0081917485 -0.023733739 0.03321574
000250 79 c9 fc bc a3 60 82 bc 15 9f 67 bc 82 c6 86 3c
       -0.030857788 -0.01591522 -0.014137049 0.016452078
000260 4c 9c 28 bd 3e f3 74 3c 07 97 d0 3c 5b b0 97 bc
       -0.04116468 0.014950572 0.02546264 -0.01851671
000270 6c 3e 91 bb e8 e1 3d bd 5f e5 da ba 38 87 0a bc
       -0.00443249 -0.04635802 -0.0016700438 -0.00845509
000280 b2 f0 59 3b 3b f8 19 3c 50 2c 1c 3d a7 2c 25 bd
       0.0033255038 0.009397562 0.038128197 -0.040325787
000290 e4 0e ff 3c ed f4 32 3a 80 72 8d 3c a3 d7 45 3c
       0.03113503 0.0006826658 0.017266512 0.012075338
0002a0 87 57 26 bd 80 34 93 bc a7 03 82 3a 9f bd c2 3c
       -0.040610816 -0.01796937 0.0009919301 0.023772059
0002b0 f9 6b 2b bd d2 f6 ac bc c3 05 1a 3c ff 4b 4d 3c
       -0.041851018 -0.021113787 0.009400788 0.012530326
0002c0 0c 9e 48 bd 0a a3 a0 3c 7c 4e a9 bb 6a 91 0e bd
       -0.04897885 0.019608993 -0.005166827 -0.034806646
0002d0 04 48 e2 bb 13 fa 7f 3c c4 5d c8 3c 9e bc 83 bc
       -0.0069055576 0.015623587 0.024458773 -0.01608115
0002e0 ca b3 f3 3c 20 76 aa 3c 8b 64 56 3c d4 e7 61 3b
       0.029748816 0.02080828 0.013085495 0.0034470456
0002f0 c8 69 35 3c cd 21 12 bd d9 45 6d bc 76 8e 56 ba
       0.0110725835 -0.035676766 -0.014481985 -0.00081846805
000300 25 78 d5 3c 7c d7 0d bd 9a eb 36 bd 0c d1 07 3d
       0.026058266 -0.03462933 -0.04465828 0.033158347
000310 03 b5 f9 3c e7 9f e6 bc b0 a3 b9 3c 68 50 01 3d
       0.03048182 -0.02815242 0.02266106 0.031570822
000320 8c ef 25 bc 86 a5 08 3a 9e 33 a5 bc 9e 77 a5 bc
       -0.010127913 0.0005212653 -0.020166215 -0.02019864
000330 76 6b 7f bc 22 62 4a 3c a4 57 24 bd 19 c2 09 bd
       -0.0155895855 0.012352498 -0.040122643 -0.03363237
000340 25 e1 38 3c 54 9a 82 3c 13 5d f6 bc c9 29 3d bd
       0.011284147 0.01594273 -0.030073678 -0.046182428
000350 fb 32 c8 3c a8 c5 06 bd 2e d7 eb bc af 3c cd bb
       0.024438372 -0.032903343 -0.02878913 -0.0062633376
000360 f0 c2 fe 3c bc a5 9c bc 79 d6 16 3d a7 33 33 bd
       0.031098813 -0.019121997 0.03682563 -0.04375043
000370 6c 30 11 3d 51 6e 46 3c ee aa 14 3c 96 71 9f bb
       0.03544657 0.012111262 0.009073956 -0.0048658354
000380 27 39 b6 3c b9 04 f4 bc 79 cb 06 bd 2d 34 dd 39
       0.02224405 -0.029787408 -0.03290889 0.0004219128
000390 bc 2b 54 3c 02 f6 35 bd 01 11 03 bd 34 9a d6 3c
       0.01294988 -0.044424064 -0.031998638 0.026196577
0003a0 e6 d0 b0 3c ff e7 10 3d 83 2c 38 bd 7d c0 12 3b
       0.021583986 0.0353775 -0.044964325 0.0022392564
0003b0 0b c5 48 bd 7b 63 ff 3c 0f 2c fb bc 22 d4 33 bd
       -0.04901604 0.031175366 -0.030660657 -0.043903477
0003c0 b1 11 87 bc e5 06 f7 3c 3b de 25 bd 24 c2 29 3c
       -0.016487928 0.030154655 -0.04049514 0.010361228
0003d0 29 20 14 bd 4c 9c 5e 3c 20 d2 fa bc b1 86 f7 3c
       -0.036163483 0.013587069 -0.030617774 0.030215593
0003e0 73 e6 36 bd 6d 6b 84 3c 45 71 69 bc 81 c6 6a bc
       -0.044653367 0.016164506 -0.014248197 -0.014329554
0003f0 34 80 0c 3d dd c6 e9 3c 87 72 99 bc 6a 1c b8 3c
       0.03430195 0.028537208 -0.018731369 0.022474486

conv4.0.bias f4 [128]
000000 1b 52 08 bd 8a 99 61 bc 52 76 e0 3c 74 38 39 3d
       -0.033281427 -0.013769517 0.02740017 0.045219854
000010 19 66 04 3d 1f 70 03 bd fc ef 3f 3d 0f 0d e5 bc
       0.03232393 -0.03208935 0.046859726 -0.027960328
000020 4d 55 dc 3c 02 b9 a1 bc 7c c7 b4 3b c6 e5 dc 3c
       0.026896143 -0.019741539 0.0055169445 0.026965033
000030 a9 60 63 bc bf c8 cd 3c 70 95 13 3c 62 36 36 bd
       -0.013878026 0.025120137 0.009007797 -0.044485457
000040 b5 59 e0 3c f0 b0 1f bd 75 f1 cf 3c 09 f0 1b 3d
       0.027386526 -0.0389871 0.02538369 0.038070712
000050 81 40 19 bd a4 35 89 3c 31 86 25 bd 5d ec e0 bc
       -0.03741503 0.01674921 -0.040411178 -0.027456457
000060 0c a1 29 bc 7f 77 58 3c 1b 09 8c bc ff 1c c6 3c
       -0.010353338 0.013212084 -0.017094186 0.024183748
000070 26 ad ec bb 1a 8d d3 3c cd 0a fc bc 85 e1 1d 3d
       -0.0072227893 0.025824118 -0.030766869 0.03854515
000080 79 02 0d bd 85 71 09 bd 32 9b 3f 3b 47 8a 71 bc
       -0.034426186 -0.033555526 0.002923679 -0.014742441
000090 1c 94 ad bc a4 4f 44 3d 07 5c d9 3b b5 fe 14 3d
       -0.021188788 0.047927514 0.006633285 0.03637572
0000a0 a1 57 7e 3c 0a c2 a3 3b 97 d6 e4 bc ac de 5b 3c
       0.015523822 0.0049974965 -0.027934356 0.013419788
0000b0 7d 14 e0 3c 70 64 56 3c 80 d0 93 3c 63 4a d3 3b
       0.02735352 0.01308547 0.018043756 0.0064480766
0000c0 65 2f bd bb 12 30 68 bc ef e5 22 bd 01 f8 7e bb
       -0.005773472 -0.014171617 -0.039770063 -0.0038905146
0000d0 f5 d9 01 3c 1c 1c f6 39 5c b9 d4 3c 58 b6 df 3b
       0.0079255 0.0004694172 0.025967292 0.006827157
0000e0 be 32 e3 3c 68 41 ca 3c c0 77 cf 39 ee e9 14 3d
       0.027734157 0.024689391 0.00039571337 0.036355905
0000f0 c9 13 86 bc b2 bb c8 b9 d1 f7 69 3c 74 09 05 bd
       -0.016366856 -0.00038286817 0.014280275 -0.03247972
000100 e4 d1 ae 3c 81 5f ad 3c b6 d6 04 3c a5 e2 d9 bb
       0.021340318 0.021163704 0.008107832 -0.0066493326
000110 75 fb fd 3a 9d cf 0a bc 86 bb 84 bc b8 33 61 b8
       0.0019377308 -0.00847235 -0.0162027 -5.3692347e-05
000120 4b d8 90 b7 3d 42 83 3c ac 7d bf bc 4f ea bc 3c
       -1.7266857e-05 0.016022796 -0.023375355 0.023060946
000130 43 a5 d8 3b 8b fe 2e 3c 98 de cc 3c a6 8b 28 bc
       0.0066114976 0.010680805 0.025008485 -0.010287201
000140 e8 17 06 bd d2 da db 3c b2 bb 25 3c 53 0f 9e bc
       -0.032737643 0.02683774 0.010115551 -0.019294417
000150 d9 11 5f bb 27 1e e9 3c f5 cf 58 3a f6 5d ff bc
       -0.0034037738 0.02845676 0.0008270734 -0.031172734
000160 98 ba 40 bd 48 9a c4 bc fd 71 a5 bc 0e d0 ab bb
       -0.04705295 -0.023999348 -0.020195955 -0.005243308
000170 ad e6 4d bb 7a 85 40 bc e3 25 04 3b ca e8 0a bc
       -0.003141801 -0.011750573 0.0020164184 -0.008478353
000180 a2 53 b4 bb d6 dd b8 3c dd 28 4c bc 50 c4 95 bc
       -0.005503134 0.022566717 -0.012460914 -0.018282086
000190 74 5a ba b8 f9 fb c3 3b 8f 20 6c bc 64 e6 f7 bc
       -8.886019e-05 0.005980965 -0.014412059 -0.030261226
0001a0 46 d6 0b 3c 4d e8 39 3d f7 63 ad 3c b3 ca cd 3c
       0.0085349735 0.045387555 0.021165831 0.025121069
0001b0 67 39 80 3c 4a 3b d9 3b c3 d1 48 bd a3 ce 03 bd
       0.015652372 0.0066293823 -0.04902817 -0.032179486
0001c0 9f 89 28 3c de 09 06 bd 90 b6 53 bc d7 66 28 3d
       0.010286718 -0.032724254 -0.012921944 0.0411137
0001d0 bf fe 92 3c 89 32 07 bd b8 e6 f9 3c ee 7b 17 3d
       0.017943738 -0.03300718 0.030505523 0.036983423
0001e0 6f c4 d9 3c 15 21 19 bd 1d ae 85 3c 43 5c aa bc
       0.026582925 -0.037385065 0.016318375 -0.020795947
0001f0 ce 1b 93 3c 17 6e 3a 3d c1 1b 23 bc 9a 98 05 3d
       0.017957594 0.045515146 -0.0099553475 0.032616235

linear.weight f4 [14, 2560]
000000 27 b1 54 bc 3e 35 a8 3c fc f8 dd 3b 08 01 9f bb
       -0.01298169 0.0205332 0.006774066 -0.004852418
000010 db ca bf bb b1 0b 19 bc a3 bd 28 3c ad 58 8e 3c
       -0.0058530397 -0.009341166 0.010299119 0.017376268
000020 c3 c1 55 3c 56 4c bc 3c ed ec 7b 3c 59 86 ec ba
       0.013046685 0.022985619 0.015376312 -0.001804541
000030 c9 eb 96 ba 38 19 95 bc 03 33 cc ba e7 84 b5 bc
       -0.0011514361 -0.018200502 -0.0015579168 -0.0221581
000040 7b 4e da 3a 57 7f d4 bb 2f 7d fa bb fb 31 a9 bc
       0.0016655469 -0.0064849067 -0.0076443176 -0.020653715
000050 50 87 2e ba 84 e5 3a bc e7 14 0e bc 90 b8 5c 3c
       -0.00066577364 -0.01140726 -0.008671976 0.0134717375
000060 2c 95 1e bc 13 c0 52 bc a0 bb 93 bb e1 d4 70 3c
       -0.00967912 -0.012863177 -0.0045084506 0.014699192
000070 d5 a5 a8 3c a4 8d b1 3b c6 6e 07 bc a8 a5 03 bc
       0.020586887 0.005418496 -0.008266157 -0.008035101
000080 18 1a 62 bc 91 da 97 3a fe b0 6f bc 76 5a bb bb
       -0.013800167 0.0011585524 -0.014629601 -0.005717571
000090 cc 79 5b bb 1b 33 2e bc 62 72 46 ba 5d 6b 7c bc
       -0.0033489345 -0.010632302 -0.0007570145 -0.015406457
0000a0 2f 50 2c 3c 1b d1 a5 3c dc 68 84 bc 09 30 df 3b
       0.010517164 0.02024131 -0.016163282 0.006811146
0000b0 bc b3 b2 3b 47 4b 59 bb 6b 6d 48 3b e0 33 4a bc
       0.005453555 -0.003315644 0.0030582796 -0.0123414695
0000c0 2a 53 a5 3c d1 fb c4 ba be d0 9c 3b 47 4a c3 3c
       0.020181257 -0.001502866 0.004785626 0.02383913
0000d0 6b 3b d3 bc a4 0e 2f 3c 57 70 d8 3b 1f 14 88 3c
       -0.025785169 0.010684643 0.006605189 0.016611157
0000e0 ac c4 00 bd 34 b1 58 bc ac 25 4a b9 6b 84 3f bc
       -0.03143756 -0.013225842 -0.00019278255 -0.011689286
0000f0 b0 04 7b 3c c7 d2 c0 bb 9e ef 80 3c d1 0c 44 bc
       0.015320942 -0.0058845016 0.015739258 -0.011965946
000100 93 ca e3 bb 38 aa c8 3b 59 21 f4 ba 3f 08 d2 3b
       -0.006951639 0.0061238073 -0.0018625661 0.0064096744
000110 a0 c8 b4 3c 01 ec 92 3a 64 80 0b bc c5 17 c6 ba
       0.022068322 0.0011209251 -0.008514497 -0.0015113285
000120 68 1b c2 bc d6 fe be bc 34 3a 5c bc 12 6a b7 bc
       -0.023694709 -0.023314875 -0.013441611 -0.022389445
000130 10 6a ee bc 1f a0 02 3c 7a 7a 35 38 b3 a4 31 bc
       -0.029103309 0.007972746 4.3267828e-05 -0.01084249
000140 d2 a1 94 3b 10 97 38 bb e6 a7 bc 3c 20 5c 98 3b
       0.004535892 -0.0028166212 0.023029279 0.004649654
000150 6f 1b 48 ba 28 36 00 bc 80 6c ec bb 11 95 8f 3b
       -0.00076334825 -0.007825412 -0.0072150826 0.004381784
000160 b9 61 f5 3b b2 71 2c 3c ac 6b ed bb 9d a4 43 bb
       0.007488456 0.010525154 -0.0072455015 -0.0029852756
000170 8b 26 40 3b c7 51 a9 bc 11 58 35 3c 96 7d 71 bc
       0.0029319848 -0.020668877 0.01106836 -0.014739415
000180 78 8e 29 bc fc a4 7c 3c b3 b9 8d 3c ec 66 8a bc
       -0.010348909 0.015420195 0.017300462 -0.01689478
000190 e5 2b 86 bc f2 7b 5a bc d4 32 1f 3c 81 f2 48 3b
       -0.016378352 -0.013335215 0.009716708 0.0030662122
0001a0 16 a6 cb 3b 26 c1 68 ba 4b 3d 95 bc c9 2b db 3a
       0.0062148673 -0.0008878879 -0.018217703 0.0016721423
0001b0 a7 15 75 ba dd 12 93 3c 5f b4 af 3c bd 35 85 bc
       -0.0009349235 0.01795333 0.021448312 -0.016260976
0001c0 2b ba 58 3c 8c a6 08 3c 05 8d 36 bc 75 29 38 3b
       0.01322798 0.008340489 -0.01114202 0.0028100882
0001d0 2b 8e 77 bc 16 88 fb 3a 78 da 9a bc 5c 88 86 bc
       -0.015109579 0.0019190337 -0.018903002 -0.016422443
0001e0 40 e4 e7 3a 40 8d d2 3b 2c fc 3b bc c7 ec e2 bb
       0.0017691925 0.0064255297 -0.011473697 -0.0069251987
0001f0 0b 6d f7 bb 9d 3f 5e 3c ea 25 8f 3c 4f 56 56 3b
       -0.0075508407 0.013564971 0.017474134 0.0032705253
000200 e3 fd 95 3c 12 0e 9b 3c 1b 90 3f bc 57 52 bc 3c
       0.01830954 0.018927608 -0.011692072 0.022988481
000210 7e 09 36 bc 90 82 ea 3a 64 82 ef bb d4 39 f8 3b
       -0.011110662 0.0017891694 -0.007309245 0.007575253
000220 1b 16 dc 3b 1a da aa bc 7c 49 80 bc 3e a5 d7 bb
       0.0067165024 -0.020855952 -0.01566004 -0.0065809777
000230 8f 80 92 3c b7 1a 87 3a 58 4f 97 3c 04 80 0b bc
       0.017883567 0.0010307644 0.018470451 -0.008514408
000240 6b b9 cb bb 9c 35 d4 3b aa 0f 18 bc 70 dc e9 bb
       -0.006217172 0.0064761173 -0.009281078 -0.007136874
000250 b3 a4 34 bb c3 ec 36 bc ba d5 dd 3b 76 f6 33 bb
       -0.0027563989 -0.011164847 0.006769863 -0.0027460135
000260 92 a7 89 bc 7b 1e a2 3c 16 f6 20 3c 50 47 91 bc
       -0.016803537 0.019789925 0.009824296 -0.0177342
000270 6f 3c a7 3c 87 41 12 bc 51 a0 43 3c 6a 86 54 bc
       0.02041456 -0.008926756 0.011940078 -0.0129715
000280 25 70 ec bb 23 06 ec bb 24 bd 93 bb ca 10 e8 bb
       -0.007215517 -0.00720288 -0.0045086313 -0.0070820795
000290 8a 6c 89 bb 9a 4f 20 bc ec 3d 50 bc 64 e1 0c 3c
       -0.004193847 -0.0097846035 -0.012710076 0.008598659
0002a0 61 15 24 3c bc 15 82 bb 8e f8 d6 bb da 0e 61 3c
       0.010014863 -0.003969876 -0.0065603917 0.013736451
0002b0 88 b0 06 bc be 65 96 3c 8d f6 87 bc eb 0a 5b bc
       -0.008220799 0.018359061 -0.016597057 -0.013369302
0002c0 84 bf 6b bc 34 3a d3 bb 39 f5 4f bc f8 75 14 bc
       -0.014388923 -0.0064461473 -0.012692743 -0.009061329
0002d0 58 dd ee 3b 8b c5 2e bc 81 4c e4 3b 07 c0 47 ba
       0.00728957 -0.010667215 0.006967128 -0.0007619862
0002e0 10 40 c1 bb 58 8d 19 3b b4 ef 8a 3c db aa dc 3b
       -0.0058975294 0.0023430195 0.016960002 0.0067342347
0002f0 49 af 4c bc f3 d7 43 bc 74 95 f2 ba ec bc 49 bc
       -0.012492963 -0.011953342 -0.0018507675 -0.012313109
000300 f9 7a 08 bc 0d 25 7c 3c ce 68 61 bc 7b e6 04 3b
       -0.0083301 0.015389693 -0.013757898 0.0020278979
000310 d2 14 cf 3c e6 8d b1 bc 2f 9a a3 bc a9 28 74 bc
       0.025278483 -0.021674108 -0.019970981 -0.014902272
000320 14 24 af 3c 84 55 4e bc ae a3 4f 3c b2 5c dd bb
       0.021379508 -0.012593631 0.012673302 -0.006755435
000330 21 4f 4f bc b4 1c 19 bb d7 c0 1a 3c 6a e1 2c 3c
       -0.012653143 -0.0023363056 0.009445391 0.01055179
000340 3b ef 29 bc 73 c0 f0 bb e1 b7 bd 3c 1a d5 80 3c
       -0.010371978 -0.0073471605 0.02315897 0.015726615
000350 ff 81 82 3b 28 2f 1a bc 1e 39 30 3b 58 3a f9 ba
       0.003982782 -0.009410657 0.0026889513 -0.001901458
000360 30 d5 96 bc a8 ea 35 bc 74 6f f9 bb d3 3d d6 bc
       -0.018412203 -0.01110331 -0.007612163 -0.026152527
000370 d9 25 6c 3b 18 09 32 3c 71 f5 00 3c 08 c2 30 3c
       0.00360333 0.010866426 0.007871018 0.010788448
000380 f4 ec f8 3b 02 df 61 3c 89 da 22 bc a1 56 8b 3b
       0.0075966064 0.013786079 -0.009939798 0.0042522703
000390 47 05 52 bc 76 30 1a bc 63 2d c8 bc 94 8f 13 bb
       -0.012818641 -0.009410968 -0.024435705 -0.0022516
0003a0 ff e9 a0 bc 53 2f dd bc ac 88 3c 3c bb 03 87 3c
       -0.019642828 -0.027000105 0.0115071945 0.016481271
0003b0 c3 ad da bb 47 9e 91 bc 63 e7 89 3c af c2 52 bc
       -0.006673546 -0.017775668 0.016833967 -0.012863799
0003c0 16 7c bf 3c 25 3b e3 ba a6 d7 53 3c f7 51 e7 bb
       0.023374598 -0.0017336352 0.012929833 -0.0070593315
0003d0 0c 1b 89 3c e6 d7 bf 3c 3b 13 d9 3b bd 09 29 3b
       0.01673653 0.023418378 0.006624607 0.0025793158
0003e0 0f 50 42 3c cf e6 4c bc 67 0c e6 3b b9 1b 4a 3c
       0.011859908 -0.012506201 0.0070205214 0.012335711
0003f0 02 56 a4 bc 54 d6 4b bc f9 5d 19 bc a0 73 12 bb
       -0.020060543 -0.0124412365 -0.009360784 -0.002234675

linear.bias f4 [14]
000000 aa 17 87 3c e8 49 b5 ba 0b 14 b7 bc ea ba d7 bc
       0.016490776 -0.001383123 -0.022348424 -0.026334245
000010 a2 62 e8 bc 6d 0b e1 bc df 96 04 bd 06 9d 0a 3c
       -0.028367344 -0.027471269 -0.032370444 0.008460289
000020 03 1a bd bb 73 c9 d1 ba 2c ba f6 bc 57 23 2c bd
       -0.005770923 -0.0016005471 -0.03011807 -0.04202589
000030 2f 47 d6 bc c1 76 3f 3c
       -0.02615699 0.011686028
