CNN/trained/checkpoints_14_Epoch_no_val_improvement_in_10/lowest_val_Loss_.pth (torch, 535111 bytes, 10 tensors)

conv1.0.weight f4 [16, 1, 3, 3]
000000 4b c8 66 be 3d 2f 92 be da c4 9b 3e ef 3b 01 3e
       -0.22537343 -0.28551665 0.30423623 0.12620519
000010 79 1f 2b bd 64 65 2f be 1c a8 3e bd 3e b7 85 be
       -0.04177806 -0.17128521 -0.04654704 -0.26116365
000020 2c be 65 bd c1 1b 21 3e 76 a3 97 bb 25 80 87 3c
       -0.056089565 0.15733244 -0.0046276404 0.016540596
000030 cb 14 97 3e 83 dd eb bb 32 49 38 be 05 9c be be
       0.2950805 -0.007198037 -0.17996672 -0.37228408
000040 25 c5 df 3d a9 6f 66 be ad 74 ad be 8c f7 7b bd
       0.10926274 -0.22503532 -0.3387808 -0.061515376
000050 7f e5 97 bd 80 37 92 3e 4b 45 2d be b4 0e 39 3e
       -0.0741682 0.28557968 -0.16920964 0.18072015
000060 2a d5 84 be 30 48 a4 be 42 48 35 3e 1c 4a 7b 3e
       -0.2594388 -0.32086325 0.17703345 0.24539989
000070 08 a6 87 be 54 3d aa bd 39 64 a0 3d 66 54 1b 3d
       -0.2649386 -0.08312479 0.07831616 0.037922285
000080 00 a5 6b be 79 a3 d4 3c 65 5d 25 be ea b4 8a 3e
       -0.23012161 0.025956856 -0.16148908 0.2709115
000090 eb 3a 2e 3e 40 31 fc bc a8 1e c6 3d 71 54 80 be
       0.17014663 -0.030785203 0.09673816 -0.25064424
0000a0 f6 4e 90 be 1a 10 64 3e 0a 10 73 3e 16 d4 72 3c
       -0.28185242 0.22271767 0.23736587 0.014821073
0000b0 9b d3 d3 3d fe 9b 22 3e e3 7b 1b be 6c 3f 73 3e
       0.10343095 0.15879819 -0.15183978 0.23754662
0000c0 98 f5 55 be e3 9c 67 be 82 b7 c7 3d 33 ba 9a 3c
       -0.20894468 -0.22618441 0.09751798 0.018887615
0000d0 c6 a6 4c 3d 74 b2 9e be 40 81 f5 3c a6 a5 ae bd
       0.049963735 -0.30995524 0.029968858 -0.08527689
0000e0 33 4e 23 bd d1 cc 30 be b6 17 48 3d e1 d2 16 bd
       -0.0398695 -0.17265631 0.048850738 -0.036822204
0000f0 bd 63 f4 bd 95 96 fd bd 94 4c ba bb d6 e6 a1 be
       -0.11933086 -0.12382237 -0.0056853984 -0.31621426
000100 9c 3b c9 3d da dc 4f 3c 87 57 6f be c9 9f ae 3d
       0.09825823 0.012686932 -0.23373233 0.0852657
000110 9d a6 63 3d 01 09 72 bb e9 a5 94 3d d1 1d 35 3e
       0.055578817 -0.0036931636 0.07258207 0.17687155
000120 29 25 77 be a9 1d a3 be a2 2f 59 be 9b 06 e2 3d
       -0.24135269 -0.31858566 -0.21209577 0.11036416
000130 79 50 7f be 88 bf 9c 3e ad c0 3e 3c 30 15 49 be
       -0.24933042 0.30614877 0.011642617 -0.19636989
000140 54 40 f4 3c f2 93 3d 3c f6 6d d6 bd 2e bf 04 bd
       0.02981583 0.011570917 -0.10470192 -0.032408886
000150 ca 51 4e be 15 3d 7c 3d ef 32 aa be 2c 83 5f be
       -0.20148388 0.06158169 -0.33241984 -0.21827382
000160 b6 f5 71 3e bc 1a 82 be 19 f8 e3 3c 85 b5 04 be
       0.23628888 -0.25411022 0.027828263 -0.12959869
000170 d2 ea 8a 3e 3e 81 90 3e 83 60 49 be 8e 66 09 bd
       0.2713228 0.28223604 -0.19665723 -0.03354507
000180 6d cd 1b 3e 81 45 81 3d 22 e2 81 bd dd eb 06 3e
       0.15215082 0.06312085 -0.063419595 0.13175912
000190 62 d0 e5 bb be 79 10 3e 3a e2 56 3e 24 63 30 bd
       -0.0070133666 0.14108941 0.20984736 -0.043063298
0001a0 67 d9 3d bd 14 fb 96 3e 82 aa b4 bd e0 4d a6 be
       -0.04634991 0.29488432 -0.08821584 -0.3248129
0001b0 a6 35 39 3e a3 49 8c 3e 97 01 37 be 1c 8a e0 3d
       0.18086872 0.2739993 -0.178717 0.10963842
0001c0 a2 8a 73 be a7 e9 8a 3d d7 1e 6e bd 14 e0 84 be
       -0.23783353 0.06782847 -0.05813488 -0.25952208
0001d0 ed 3d ff 3d c2 de 88 be e4 28 92 be ab 97 86 3e
       0.12462983 -0.2673245 -0.28546822 0.26287588
0001e0 23 27 43 3e 46 a0 16 3e 49 31 9d 3d 39 b7 5b 3d
       0.19057898 0.14709577 0.07675416 0.05364153
0001f0 c0 a8 83 be c4 05 83 be 10 72 9a 3e fb d4 97 be
       -0.25714684 -0.25590336 0.30165148 -0.2965468
000200 fa 5e a3 3d 0e c9 a4 be 9e 79 d7 3d c7 c2 70 bd
       0.079771 -0.32184643 0.105212435 -0.058779504
000210 b1 7e 5a 3e e6 9d 74 be c6 50 2f be 1d 9c 23 be
       0.21337391 -0.23888358 -0.17120656 -0.15977521
000220 c0 13 11 be fc 5f 0e be b8 8d 6f 3e 2a fb 77 be
       -0.1416769 -0.13903803 0.23393905 -0.24216905
000230 d2 de 67 3e 47 4d 37 3d 5c 1d 08 3e c2 16 24 be
       0.22643593 0.04475143 0.1329245 -0.16024306

conv1.0.bias f4 [16]
000000 11 61 07 bf 18 0e ba be ce 2d 1a 3d 2b 0d 98 be
       -0.52882487 -0.36338878 0.03764134 -0.29697546
000010 9e a4 7d 3e 08 b4 82 3e 8a 74 20 3f b2 fe d9 be
       0.24769828 0.25527978 0.62677824 -0.4257713
000020 0f b4 af be 46 71 93 3e c1 db a8 be e0 4b 1c bc
       -0.3431706 0.28797358 -0.3298016 -0.009539574
000030 69 a8 84 be 68 86 b3 be 8a 2e a1 be a8 15 57 be
       -0.25909737 -0.3506348 -0.3148082 -0.21004355

conv2.0.weight f4 [32, 16, 3, 3]
000000 ae 4e ed 3c a8 18 c8 3c ed 37 5a 3c 9a 3f b0 3d
       0.028968181 0.02442582 0.013318998 0.08605881
000010 f1 fb fb 3b 27 74 2a bd e1 3c f6 bc 3c 04 d0 bd
       0.007689946 -0.041614678 -0.030058326 -0.10157058
000020 2a 86 c5 bd 80 a6 46 bb 0e 59 35 3d 32 c9 09 3d
       -0.096447304 -0.0030311644 0.044274382 0.03363914
000030 e9 de 98 bc f9 d7 7d bd 91 15 99 bd 5b f5 15 3d
       -0.01866098 -0.061973546 -0.074748166 0.036610942
000040 1c 09 03 bc 7b e9 59 3c 45 7f 3c 3c 42 a7 04 bc
       -0.007997777 0.013300295 0.011504953 -0.008096518
000050 99 9f 33 bd a6 17 60 3d 9a 7b 33 3d 5c ba b4 bd
       -0.043853376 0.054710053 0.043819048 -0.08824608
000060 4c 97 83 bd 40 33 ac bb b3 0a df 3c 71 fc 03 3d
       -0.06425342 -0.005255133 0.027226781 0.03222317
000070 e7 71 02 bd 56 99 27 bd de 34 95 bd dd 56 00 3d
       -0.031846907 -0.040917717 -0.07285474 0.03133284
000080 11 6d c6 bc 57 2e 17 bd 32 64 b7 bd 9e 11 0d 3d
       -0.024221929 -0.036909427 -0.089546576 0.03444063
000090 3b 3b f4 3c 1a 7b 35 3b 67 5f 6c 3c f5 dc 92 bd
       0.0298134 0.0027691782 0.014427043 -0.071710505
0000a0 da 01 19 3c 05 4b 51 3d ba c9 a1 bd ad 03 65 bd
       0.00933882 0.051096935 -0.078998044 -0.05591171
0000b0 a6 4e 99 3c cf 3e 94 bd ff 75 00 3d a6 a2 53 bc
       0.01871426 -0.07238542 0.03136253 -0.012917196
0000c0 c1 4e 19 3d 22 87 0c bc 1f b2 86 3d a9 0e cd 3c
       0.03742862 -0.00857714 0.06576943 0.025031405
0000d0 7d 9a 8a 3d 92 17 7b 3d af 1d 83 3d 54 6b 01 bd
       0.067677476 0.061301775 0.06402146 -0.031596497
0000e0 23 f5 2a 3d 30 32 24 3e 7a 73 83 3d 70 85 75 3d
       0.041737687 0.1603477 0.0641851 0.05994171
0000f0 6b 33 3f 3e 02 e5 43 3d 8f 9c 9e 3d 74 85 90 3d
       0.18671958 0.04782582 0.07744705 0.07056704
000100 30 a0 5e bc c2 ab c2 3c 69 bb 2e 3d 25 98 01 3d
       -0.013587996 0.023763541 0.042659197 0.031639237
000110 e9 de 13 bc bd 2b 43 3c 60 e1 39 3d a8 62 46 bc
       -0.009025314 0.0119122835 0.04538095 -0.012108482
000120 19 fa 10 3d 6f 75 1a bd 93 d4 5d bd a7 68 7d bd
       0.03539476 -0.03770965 -0.054157805 -0.061867382
000130 f7 25 10 bd e2 e4 3c 3d 5f dc 97 3d 1b c7 60 bc
       -0.035192456 0.046116717 0.07415079 -0.013719345
000140 db 9b 8a 3c d2 d7 19 bd f2 40 49 bd af 7d bb bd
       0.01692002 -0.037559338 -0.049134202 -0.091548316
000150 c6 26 e8 bb 43 33 56 3c 1d d3 74 bd 5e eb c9 3d
       -0.0070847003 0.013073745 -0.059771646 0.09859346
000160 f5 2f 3b 3d ce 00 90 3c 1e 3a c4 bc 82 38 d7 3b
       0.045700032 0.017578509 -0.023953494 0.0065680156
000170 24 5c b8 3d cb f1 90 bd 8f dc 5b bd a8 84 94 bd
       0.090019494 -0.07077368 -0.053677138 -0.07251865
000180 b4 2a 94 bc 7d 75 b2 bd ec eb 6d 3d 8f 8b 21 3c
       -0.018086769 -0.08713815 0.05808632 0.0098599335
000190 ee 43 85 bd c4 53 9c 3d b7 d9 d8 3a ef 06 6d bc
       -0.06507097 0.076331645 0.0016544376 -0.014466985
0001a0 09 47 0a 39 10 e5 4e 3c c4 72 96 bd 8a cb 28 3c
       0.00013187168 0.012627855 -0.073461086 0.010302434
0001b0 11 77 9c 3d 1c 2c c4 bb 90 d4 b6 bc d3 da 96 3b
       0.076398976 -0.0059867036 -0.022318155 0.0046037226
0001c0 e2 37 48 bd 63 e0 8b 3d 07 91 86 3c 34 ae d2 bc
       -0.04888142 0.06829908 0.016426576 -0.025717832
0001d0 89 ed 0b bb ae 3e b4 3b 27 45 49 3d 28 a4 0c bd
       -0.0021351299 0.005500636 0.049138214 -0.03433624
0001e0 90 f7 5b bd 43 1c 6e bc d6 0a 9b 3d 30 38 89 3d
       -0.05370289 -0.014533105 0.07570426 0.0670017
0001f0 a0 35 ee 3c 94 19 b0 3c 95 32 a7 3d 12 2e 65 3d
       0.029078305 0.021496572 0.08163945 0.05595214
000200 c7 0c 28 bd 31 8e 2b 3d c9 4a 55 3d fb 0d af bd
       -0.04102781 0.04188365 0.052073274 -0.085475884
000210 4a 77 85 bd f0 3d 05 3d 97 7c c8 bc 75 3b bb bd
       -0.06516893 0.03252977 -0.024473472 -0.091422
000220 b2 ce 85 3d 00 99 09 bd db 16 9b bd ef 4e a6 bd
       0.065335646 -0.033593178 -0.07572719 -0.08120524
000230 1f 01 94 3d 13 88 a2 3d e0 f3 2b bd ff fb 32 3d
       0.07226776 0.0793611 -0.041980624 0.043697353
000240 95 48 b6 bc 18 17 a7 3d 6c 6c 6b 3d 9c 4b 88 3c
       -0.022251407 0.08158702 0.057476446 0.016637616
000250 2f 70 b7 3c 31 39 6f 3d 2d 5d 58 bd 58 fc 3d 3c
       0.02239236 0.05840415 -0.052823234 0.011595808
000260 a8 02 74 3d e4 22 b5 bc 2b f8 17 3d 4c 55 00 3d
       0.059572846 -0.022111364 0.037101906 0.031331345
000270 25 ce ea bc 90 2c ad bd 87 9d 24 bd 50 92 23 bd
       -0.02866275 -0.08455765 -0.040189292 -0.039934456
000280 01 9a ae 3c 26 47 29 3d 53 59 94 bd 98 79 80 3c
       0.02131367 0.041327618 -0.072436 0.01568298
000290 df 74 cd bd 7d 38 21 bc 29 aa 90 bd f7 3a 5d bc
       -0.10032057 -0.009840128 -0.070637055 -0.013502828
0002a0 64 7f 31 bd aa d4 45 bc 87 fa 4a 3d 74 9f d2 bb
       -0.04333438 -0.012074629 0.049555328 -0.0064276997
0002b0 58 0a ad bd 3b 96 2b bd a4 6c e4 bc 99 ae 96 3d
       -0.084492385 -0.041891318 -0.027883835 0.073575206
0002c0 20 83 c4 bd 7c 5a 45 3c 4b 36 71 bd b2 6a 3f bc
       -0.095953226 0.012045499 -0.05888967 -0.011683153
0002d0 68 3b a4 bc ac 37 9d 3c 98 06 b6 3c a8 92 25 bd
       -0.020047858 0.019191585 0.022219941 -0.040423065
0002e0 21 fe 36 3b 44 a2 79 bd e2 ef 0d bd 4d b0 07 bb
       0.0027922469 -0.060945764 -0.0346526 -0.0020704449
0002f0 ce 8b b5 bc a4 b9 b3 3c 07 63 a3 bd e1 8f 81 bc
       -0.02216139 0.021939106 -0.07977872 -0.015815677
000300 b3 f8 3f bc 2c 10 7f 3d 18 fe e4 3c 7e 39 9a 3b
       -0.011717009 0.062271282 0.027953193 0.0047065606
000310 45 f1 13 bd 17 ad 81 3d d0 57 b3 bd 31 e1 d2 bd
       -0.036118764 0.063318424 -0.08756983 -0.10296858
000320 80 37 86 bc 26 f1 81 bd 87 13 cd 3c 21 72 cd bc
       -0.016383886 -0.063448235 0.025033725 -0.025078835
000330 88 33 ba 3d 1d 38 e3 3b 59 b8 d2 3c fa 18 b4 3c
       0.0909186 0.0069341795 0.02572267 0.021984566
000340 dd ae 85 3d 2d 91 a8 bd 86 37 27 3c 4d 10 17 bd
       0.06527493 -0.08230815 0.010206109 -0.03688078
000350 2f d8 89 bc c0 38 7a 3d 86 b0 61 bc 1d 63 45 3c
       -0.016826717 0.061089277 -0.013774997 0.012047556
000360 3d 84 e8 3c cb b3 64 3d 19 6b fb bc d3 71 a1 bd
       0.028383369 0.055835526 -0.030690717 -0.07883038
000370 7c ec ea bb 50 b9 c6 bc a5 c3 8e 3d aa 28 43 3c
       -0.0071693044 -0.024258286 0.0697091 0.011911551
000380 71 81 8e 3d c1 2b 8b bd fe 8c 30 3d 75 61 87 bd
       0.06958283 -0.06795455 0.04310321 -0.06610385
000390 7d bf ad bd 02 aa a5 bd 51 4b c5 3c fb 3e 3a 3d
       -0.08483789 -0.08089067 0.024083765 0.04547022
0003a0 86 b3 96 bd 39 6e 50 bd 42 75 7f bd 3c 98 05 bd
       -0.0735846 -0.050886367 -0.062367685 -0.032615885
0003b0 bb 62 10 3d 45 0d c3 bc ad 90 46 3b ef c9 40 bd
       0.035250407 -0.023810038 0.0030298636 -0.04706758
0003c0 0c 5c 87 bd 9e 0c f8 bc 11 e1 e5 3c af 1e 98 bd
       -0.066093534 -0.030279454 0.028061422 -0.074277274
0003d0 25 b0 93 3d aa 12 81 bd ce d2 0f 3d 66 07 8e 3d
       0.07211331 -0.06302388 0.03511315 0.06935005
0003e0 ec eb 4f 3d 20 f2 0e 3c 11 c6 d9 bc b8 5d 44 3d
       0.050762102 0.008724719 -0.026583703 0.04794094
0003f0 2e 3b 95 3c 30 28 6a bd 93 e6 46 3d df 63 d6 3c
       0.018216696 -0.057167232 0.048559736 0.02617067

conv2.0.bias f4 [32]
000000 e2 2c 86 3e 78 e8 95 bd 53 75 8f 3d 75 93 05 3d
       0.26206118 -0.073197305 0.070048 0.03261133
000010 2a 60 29 3e 7e c0 2f 3c 0f 74 85 3e e2 3e 53 be
       0.1654059 0.010727046 0.26065108 -0.20629457
000020 aa 73 45 3e 6c cf 05 3e 10 18 3a 3e c8 f7 9f 3e
       0.19282404 0.13067406 0.18173242 0.3124373
000030 53 95 e7 bd d6 9f 6a 3e ab e0 8c 3e 69 3f 84 bd
       -0.11307778 0.22912535 0.27515158 -0.06457407
000040 07 0c 22 bc 69 9f 48 3e 11 c5 a8 3d 9c a6 a2 bd
       -0.009890563 0.1959206 0.082407124 -0.079419345
000050 61 f2 19 3e aa 17 97 3e 3f 75 98 3d b1 c5 79 bd
       0.15033866 0.29510242 0.07444238 -0.06097955
000060 9f 03 4d 3e d6 ad 0f 3e 0e 1c 66 3e b3 ef 0d 3e
       0.20020913 0.14031157 0.2247164 0.13860969
000070 6a 0b 6a 3d ca e5 06 3d 2e 75 82 3d b1 e9 80 bd
       0.05713979 0.032933988 0.063700065 -0.06294573

conv3.0.weight f4 [64, 32, 3, 3]
000000 33 71 fb bc e5 47 71 bd 8e eb 37 bd d6 a4 5e bd
       -0.030693626 -0.058906455 -0.044902377 -0.05435642
000010 67 38 23 3d 9f ea ac 3c 43 8f 3d 3c a8 ec 0a 3d
       0.03984871 0.02110797 0.011569801 0.0339171
000020 dd 49 9b 3c 2c e1 08 bd 9b fb 1b bd 5b fd ee 3c
       0.01895612 -0.033417866 -0.038081747 0.029173544
000030 8c 2e 2f bc 02 75 2a bc 77 17 97 bc e5 e2 22 3d
       -0.01069225 -0.010403873 -0.018443806 0.039767165
000040 0f 56 6f 3c 20 60 d2 bc cd 53 63 3d 8f a1 be 3c
       0.01460792 -0.025680602 0.05549984 0.023270397
000050 96 42 41 3d 56 69 7d bd 19 ac 49 bd 1c aa 03 3d
       0.047182642 -0.061868034 -0.04923639 0.03214465
000060 f2 ed 33 bd 57 5c 81 bd aa d0 d7 3b 4d bd 62 bd
       -0.043928094 -0.063164406 0.006586154 -0.055356313
000070 6a 15 3c 3d 9d c2 7a bd 50 c7 42 3d d1 f7 1f bd
       0.04591886 -0.061220754 0.04755336 -0.039054696
000080 54 04 b1 3c b4 d6 24 bc a4 5f 95 3c e0 6d fc 3c
       0.02160851 -0.010060955 0.018234082 0.030814111
000090 7e a1 6e 3c 70 1f fa bc df b4 d5 bc df 17 0a 3c
       0.01456487 -0.030532569 -0.026087223 0.008428543
0000a0 53 f0 36 3d ce 7f 34 3d 6e 01 87 3d 33 d2 51 bd
       0.044662785 0.044067197 0.065920696 -0.051225852
0000b0 e9 f4 a7 bc 8e ca aa 3c 69 82 eb bb 5b 75 a3 bc
       -0.020502524 0.020848539 -0.007187177 -0.01995342
0000c0 b2 02 d7 3c 58 40 19 3a 7d c8 20 bc 49 7d 06 3d
       0.026246402 0.0005846075 -0.009813425 0.032834325
0000d0 61 34 a4 bc 45 1a 42 bc 8b 8a ce bb 6e 1a 02 bd
       -0.020044507 -0.011847083 -0.0063031367 -0.031763487
0000e0 e6 b0 d2 3c 18 d9 15 bd a6 c7 8a 3c 2b fc 2b bc
       0.025719117 -0.03658399 0.016940903 -0.010497133
0000f0 69 f4 55 bb 6b 4a 53 bb 55 b9 3c 3b 97 59 03 bd
       -0.00326469 -0.0032240401 0.002879699 -0.03206786
000100 2f 96 97 3c b9 ad be 3b 31 79 8b bc 1f c2 05 bd
       0.01850423 0.005819049 -0.017025562 -0.03265583
000110 7d 8f 17 bd 7d 11 d8 bb b0 43 46 bd 50 d1 06 bc
       -0.037002075 -0.0065938816 -0.048404396 -0.008228615
000120 fe 81 2f bd df dd 1e bd fe 02 66 bd 0d e8 14 bd
       -0.04284858 -0.03878581 -0.056155197 -0.036354113
000130 8f e9 79 bb 56 a7 3e bd 41 87 0a bd af bf 83 3c
       -0.0038133597 -0.046546303 -0.033820394 0.016082613
000140 4d c5 80 3b 2b 98 75 3c 29 00 f3 3a a6 18 58 3d
       0.00392977 0.014989893 0.0018539476 0.05275788
000150 00 de db bc b6 24 43 3c 9d e8 37 3d 14 ce fd 3c
       -0.026839256 0.011910608 0.04489957 0.030982055
000160 d2 ad cc 3c bd c1 52 bd 41 f6 39 bc 27 4d f2 bc
       0.024985228 -0.051454294 -0.011350215 -0.029577805
000170 b8 29 37 bd 4b 48 df bc ac 31 39 3d 75 76 2b 3d
       -0.04471752 -0.027256152 0.045213386 0.041861016
000180 5c 93 a9 3b 12 79 84 bd ad f2 f8 3c 5d 53 d9 3b
       0.0051750373 -0.06468405 0.030389154 0.006632252
000190 27 5a 3e bd b4 33 69 bd f1 f7 0d bd 1a 68 46 3d
       -0.046472695 -0.056934074 -0.034660283 0.048439123
0001a0 5e a7 58 3b 32 9b f8 3c 18 68 bf bc 6b cc 21 3d
       0.0033058743 0.03034744 -0.023365065 0.03950159
0001b0 10 f5 41 bd 18 28 39 bd b2 94 2e bd 65 4b 29 bc
       -0.04735285 -0.045204252 -0.042622276 -0.010332917
0001c0 a9 53 8c 3c 63 19 32 bd cb d2 bf bc 44 6a 09 bd
       0.017129736 -0.043481242 -0.023415944 -0.03354861
0001d0 bc 58 0e bd 49 5f f3 bc 2e 80 97 bc 24 ed f2 3a
       -0.034752592 -0.029708521 -0.018493738 0.0018533808
0001e0 5d ab ea 3b 2f ae 46 3b 86 51 8c bc bc 89 ac bc
       0.0071615414 0.0030316224 -0.017128717 -0.02106177
0001f0 60 32 25 bd 12 e6 1d 3d 01 85 32 3d e6 b7 34 bc
       -0.040331244 0.03854949 0.043583874 -0.011030173
000200 99 35 88 bc 9b 54 a4 bc 54 c5 4d bd f9 04 16 bd
       -0.01662712 -0.020059874 -0.050237015 -0.036625836
000210 0d df e7 bb 9a 67 43 3d ef 80 b4 bc 4c 0c 21 bd
       -0.0070761503 0.047706224 -0.022034137 -0.039318368
000220 92 4f e4 3c a7 63 b5 3c a0 28 2e 3d 6e 85 1f bd
       0.027869973 0.022142245 0.04251921 -0.038945608
000230 76 f9 90 bd 3f db e9 bb a8 b8 6a bc 96 83 e8 3c
       -0.07078831 -0.007136732 -0.014326252 0.028383058
000240 32 19 4e bc c9 df 01 bc 46 74 8d 3c 19 a5 0c 3d
       -0.012579249 -0.00792689 0.017267358 0.034337137
000250 c1 97 d7 bc 3b 55 74 3c 17 f6 38 bd ec 8a e4 3c
       -0.02631748 0.014912899 -0.045156565 0.027898274
000260 74 81 3c 3d 9b aa 55 bd b8 27 2f 3d 9b 31 2b bd
       0.046021894 -0.052164655 0.042762488 -0.041795354
000270 37 0a 58 bd b9 02 c1 bb de 55 ee bc 28 29 e8 3c
       -0.052744117 -0.005890217 -0.029093679 0.028339937
000280 b7 f4 16 bd 20 40 b8 3c b0 b4 09 bc eb 27 4d 3d
       -0.036854472 0.022491515 -0.008404896 0.050086897
000290 99 45 3d 3d e4 e2 31 3c 11 6c f2 bc 51 65 4f bd
       0.04620895 0.010857318 -0.029592546 -0.050633732
0002a0 ad ad ca 3c 16 97 32 3d 7e d3 80 bd ca 68 50 3d
       0.024741018 0.043601118 -0.06290339 0.050881185
0002b0 da 41 57 bd f4 75 2e bc 9a cc 40 bb a9 f6 9a 3c
       -0.052553035 -0.010648239 -0.0029418827 0.018916445
0002c0 94 21 4e bd 02 b4 c2 3c 1b a0 26 bd 5b 0f 5f 3b
       -0.05032499 0.023767475 -0.040680032 0.0034036252
0002d0 26 17 f8 3c dc 69 e3 3c 83 03 f8 bc ae fb 50 3b
       0.030284476 0.027760439 -0.030275112 0.0031888294
0002e0 cc 49 08 3d 61 ad 5d bb bf 5c 6e 3c 11 96 05 3d
       0.033273503 -0.0033825266 0.01454848 0.032613818
0002f0 aa ca ad bd 28 66 55 bb 78 ff c4 bc 57 98 79 bd
       -0.08485921 -0.003256211 -0.024047598 -0.0609363
000300 2a 24 b4 bc 2d 84 8e bd d1 ed 3e bd 0f eb 29 bd
       -0.0219899 -0.06958804 -0.04661352 -0.041483935
000310 8a 39 85 bd 70 c3 5e bb e6 07 57 bc bd 1a 88 3c
       -0.06505115 -0.0033991002 -0.013124442 0.016614312
000320 af 76 cc bc d9 72 3b bd 69 af 95 3b 4e b5 50 bc
       -0.024958936 -0.045763824 0.0045680297 -0.012738539
000330 cb 4f 5f 3d e6 ab fb 3c ff ad 53 3c 07 eb 3f bd
       0.054519456 0.030721616 0.012919902 -0.046855
000340 96 68 52 bc ed 4a f8 bc 19 9a de 3b d0 b9 09 bc
       -0.012842318 -0.030309165 0.006793272 -0.008406118
000350 7d 65 c0 3c 78 18 be 3b ef 51 24 bb 9e 7a 0d 3d
       0.023485893 0.0058012567 -0.002507325 0.034540765
000360 c9 3a c6 3a ed 64 16 3d 3d 9c fa bc f1 40 a3 bc
       0.001512372 0.036717344 -0.030592078 -0.019928427
000370 01 a1 b1 bc e9 bd 30 3d 13 67 2b 3d 57 bc bf 3c
       -0.021683218 0.043149862 0.041846346 0.023405237
000380 84 d8 5a bd ee 5e 2e 3d c6 e5 66 bd 74 4c ba 3c
       -0.05342914 0.042571 -0.056371473 0.022741534
000390 b6 ad 81 bc 3c 14 28 3d 03 8b 17 bb 66 91 2f 3d
       -0.015829902 0.041034922 -0.002312363 0.042863272
0003a0 ce 1e a6 bc be 30 47 bd 91 d7 a3 3b 41 28 1e bd
       -0.02027836 -0.04863047 0.0050000628 -0.038612608
0003b0 99 e8 64 3d 50 71 73 bd ff 76 e8 3b 6a f3 11 3d
       0.055885885 -0.059434235 0.0070942636 0.03563253
0003c0 5c a7 d9 39 65 70 00 3d 7d ac 1e bc 72 de 78 bd
       0.00041514158 0.031357188 -0.009684679 -0.060759015
0003d0 53 e0 ab bc d5 1c fd bc ba 67 b7 3a a4 5c 01 3d
       -0.02098099 -0.030897537 0.0013992705 0.03158249
0003e0 5c a3 37 3d 98 9f 25 bd 23 7d 55 3a 1a e4 68 bd
       0.044833526 -0.040435404 0.0008143952 -0.05685816
0003f0 a8 96 ca bb 31 1d da 3c 13 6d 5f 3d 14 9c 38 3d
       -0.0061825104 0.026625248 0.05454738 0.045070723

conv3.0.bias f4 [64]
000000 83 f6 1c bd e8 e3 85 bd fb 24 a7 bd ad f7 03 bd
       -0.03832103 -0.0653761 -0.0816135 -0.032218624
000010 45 f0 a9 bd 9c 8b 6c bd 77 2f 6a 3d c6 0c b5 be
       -0.08297781 -0.05775033 0.057174172 -0.35361308
000020 ae 18 06 3d c1 70 a9 bc a7 16 67 3e 76 d0 cb 3c
       0.03273838 -0.020683648 0.22567235 0.024879675
000030 9a 14 06 be a4 80 88 be fe dd 82 bc 74 ae 18 bd
       -0.13093796 -0.26660645 -0.015974995 -0.037275746
000040 94 69 75 bd c5 21 b9 bc ad ee 86 bd b0 a9 9d bd
       -0.05991514 -0.02259911 -0.065884925 -0.07698381
000050 4f 57 ae bd 27 2d 32 be a6 9c ab bd 4a 47 6e be
       -0.085127465 -0.17400037 -0.08379488 -0.23269382
000060 cb 1b 5e be db c5 7a bc f9 2a 55 be 0d 6d fa bd
       -0.2169029 -0.0153059615 -0.20817174 -0.12227831
000070 ca 5a b7 bc 63 f7 a8 bc f4 a8 5e be f3 ff 69 bd
       -0.022382159 -0.020625776 -0.21744138 -0.057128858
000080 fd 64 4e bd 4b ee 1b be 2b 59 a2 3d 32 05 fc 3c
       -0.05038928 -0.1522762 0.07927164 0.030764196
000090 9f 81 28 3d ef e9 ea 3d b0 1d ae bd 0e 92 e5 3d
       0.04113924 0.114704005 -0.08501756 0.11209498
0000a0 dc 8c 53 bd d6 19 e1 3d 9f 32 cd bc f8 56 ba 3d
       -0.051648006 0.10991256 -0.025048552 0.09098619
0000b0 96 28 b2 3c a9 a8 0f 3a 4d 98 05 be fe 0f b4 bd
       0.021747869 0.00054801494 -0.1304638 -0.08792113
0000c0 01 c2 e1 bc e5 55 ab 3d 79 e7 02 be 7f ed 24 bd
       -0.027558329 0.083659925 -0.12783612 -0.040265556
0000d0 1c 93 6c bd f6 88 b6 bd 38 78 84 bb 7b bb 04 3e
       -0.057757482 -0.08912842 -0.0040426515 0.12962143
0000e0 f6 5d 9e bd 27 0a e6 bd dd c1 67 bd 08 d4 66 3e
       -0.077327654 -0.11232405 -0.056581367 0.22541821
0000f0 5d 28 e5 3d 88 5f 80 bd b3 d4 3d 3e f6 40 84 bd
       0.11189339 -0.06268221 0.1853817 -0.06457703

conv4.0.weight f4 [128, 64, 3, 3]
000000 b4 eb 15 bd f2 db 8a 3c 2a 33 8b 3c 6f ce b5 bb
       -0.036601737 0.016950581 0.01699217 -0.0055482904
000010 cd 6d bd bc 51 8d d0 bc bf 8c 87 3c 6a dd 1b bd
       -0.023123646 -0.02545801 0.016546605 -0.038052954
000020 09 10 c6 3c ee a1 1b bd 29 74 f3 3c 16 8f 8a bc
       0.024177568 -0.037996225 0.029718475 -0.016913932
000030 4b 8c 0f bd bc 6c 38 bd 69 c0 97 bc 93 b0 f7 3c
       -0.035045903 -0.045025572 -0.018524365 0.030235564
000040 18 b4 e2 bc 01 e0 cb 3a 5c 5d be bc c8 a6 e2 3c
       -0.027673766 0.0015554429 -0.023237877 0.027667418
000050 1e f5 e1 3b ab 4e ea 3c 4d a6 c1 3c 07 ae 17 3b
       0.0068956753 0.028601965 0.023638869 0.00231445
000060 ea d7 24 bd 85 29 6d bc 64 8c ad 3c a1 18 d9 3c
       -0.040244974 -0.014475231 0.021185108 0.026501002
000070 2f c8 39 bd 5b a8 30 bd 72 83 71 3b 67 31 47 3c
       -0.045356926 -0.043129306 0.003685203 0.0121577745
000080 03 ba 97 3c 2f 86 87 3c 28 85 d9 3c 5d c9 15 bc
       0.018521314 0.016543476 0.026552752 -0.009142247
000090 6a 74 83 3b 35 c5 93 bc 9b 63 c0 3c cd 25 2d 3c
       0.0040116804 -0.018038372 0.023484996 0.010568094
0000a0 5c c7 d8 bc 00 fb 1d bd 2b 3f f8 3c 57 d6 1f 3d
       -0.02646225 -0.03856945 0.030303558 0.03902277
0000b0 e7 24 08 3c ba 01 f0 3a 00 79 70 3b 62 6c 07 bd
       0.008309579 0.0018311061 0.0036693215 -0.033062346
0000c0 0c 20 21 bc 73 09 89 bb ce 9d 85 bc 46 50 1a bd
       -0.009834301 -0.0041820346 -0.016310599 -0.03767421
0000d0 c3 ae d4 bb 96 7b ff bc 30 5a e1 bc 7e 07 32 bc
       -0.00649056 -0.03118686 -0.027508825 -0.010866044
0000e0 2f 26 2e bd 9d 89 4f ba c9 61 f3 bc cc 47 e6 bc
       -0.042516883 -0.00079169293 -0.029709714 -0.028110407
0000f0 e1 a9 21 bd a2 d8 7e bc 10 04 00 bd cd 25 8a bc
       -0.03946865 -0.015554579 -0.031253874 -0.016863728
000100 61 b0 f6 3b 7f 42 fa bc cb a8 cd 3c b3 e8 e3 ba
       0.00752835 -0.030549286 0.0251049 -0.0017388075
000110 b5 a1 81 3c c0 c0 97 bc 01 d4 8e bc 6d 84 a7 3b
       0.015824178 -0.018524528 -0.017435076 0.005112222
000120 06 be ca 3c 58 ca 07 3c d9 9a bf 3c df 75 cc bb
       0.024748813 0.008287989 0.023389267 -0.0062396373
000130 8c 09 1f bd 90 10 2a 3c 0a db 47 3b 41 6e c8 bc
       -0.038827464 0.010379925 0.0030495548 -0.024466636
000140 49 6c e3 3c 6c 6b 21 3d c3 cb 1c bd b9 55 0c bd
       0.027761595 0.039409086 -0.03828026 -0.03426144
000150 e0 61 30 3a 2d 48 ca bc 78 4d cf bc 5e 81 d4 3c
       0.00067284517 -0.02469262 -0.025305495 0.025940593
000160 e3 6d 46 bc 69 a0 75 bc 8d 18 00 bc 69 ab 2a bd
       -0.01211116 -0.014991858 -0.007818353 -0.041667376
000170 14 09 38 3a 22 0b 03 bd 1a 0f 27 bc 86 f3 f4 3c
       0.0007020396 -0.03199304 -0.010196472 0.029901277
000180 24 3e 1d 3b ed 3a b0 3b 70 1d dd bc fa 3d 3c 3b
       0.0023993338 0.0053781183 -0.026991576 0.0028723464
000190 17 35 bc 3c 43 9b 09 bd 3c 92 4b 3c 7c 5e 08 3c
       0.022974534 -0.033595335 0.012425002 0.008323308
0001a0 84 b2 2a bd fb 1a 15 3d 10 35 80 bc d8 ba e9 bb
       -0.041674152 0.036402684 -0.015650302 -0.007132869
0001b0 57 98 bc 3c 3e 63 99 3c 39 ac 84 bb 79 c0 ab bc
       0.02302186 0.01872408 -0.004048851 -0.020965802
0001c0 08 33 c3 3c 55 7a ad bc 41 65 50 3c 8b 5a 14 bd
       0.023828045 -0.021176497 0.012719453 -0.03621916
0001d0 a2 74 4e bc fa 20 35 3b 8e 6c 27 bd 7e 07 91 bc
       -0.01260105 0.0027638064 -0.04087501 -0.017703768
0001e0 77 19 11 3c bf fe c3 3c 6d e8 bb 3a 48 b8 51 bb
       0.008856169 0.023925183 0.0014336236 -0.003200071
0001f0 cf 77 23 bd ae b0 05 3d 30 6f 80 bc fc 19 3a bd
       -0.03990918 0.032639198 -0.015678018 -0.045434937
000200 34 b2 b7 3c 65 84 0b bd f9 32 20 bd a0 ee 38 bd
       0.022423841 -0.03406181 -0.03911111 -0.045149446
000210 85 5e 12 bd 3a 47 96 3c 7c a5 d2 3a 81 fd 4a 3c
       -0.035734672 0.01834451 0.0016071047 0.012389542
000220 a2 f8 01 bd 53 fb 38 bd 9b 82 fc 3c 74 eb 61 3c
       -0.031731255 -0.045161556 0.030823996 0.013789047
000230 f6 ee 2a 3c 3d 35 e2 3b 60 f8 db bc 15 3e dd bc
       0.010432949 0.006903319 -0.026851833 -0.027007142
000240 60 de ea bc da 6c 11 bd 0d 2e c1 bc 6b f7 5f 3a
       -0.02867049 -0.0355042 -0.023581529 0.0008543643
000250 75 26 2b bc ee 49 2a bc 58 dc 23 3b ca ea 51 3b
       -0.010446181 -0.010393603 0.0025003161 0.0032030814
000260 6a 47 ea 3c 68 0d f1 bc a2 01 b4 3c b7 f7 a8 3b
       0.028598506 -0.029425338 0.021973435 0.005156483
000270 8f 3e c5 3c a2 b8 24 bc 09 5d c9 bc 3c 7b a3 bb
       0.024077682 -0.0100537855 -0.024580495 -0.004989056
000280 fa ec 67 3c 83 d3 52 bd 3d fa a9 bb f3 26 e8 ba
       0.014155621 -0.051471245 -0.0051873014 -0.0017711803
000290 ac 6e d8 3c b0 15 2f 3c 16 e7 79 3c 21 d1 3d bd
       0.02641996 0.010686323 0.015252849 -0.04634202
0002a0 6b aa e9 3c 0b 4d 86 3b 2a e6 60 3c 8b 47 42 bc
       0.028523644 0.0040985397 0.01372675 -0.0118578775
0002b0 d8 ee 49 bc f2 1e e1 3c b3 44 d5 bc 12 6f a0 bc
       -0.012325011 0.027480576 -0.026033735 -0.019584212
0002c0 e7 9c cb bb cb 56 ad 3c 1f d6 67 3c fd 27 d3 bc
       -0.0062137726 0.02115955 0.014150172 -0.025775904
0002d0 81 3f d7 bc 4d 2a 9c bc a0 79 24 bc 3b 49 f2 bc
       -0.026275398 -0.01906314 -0.010038763 -0.029575935
0002e0 4a ca 12 bd 93 24 68 bc 11 61 9c 3c 6d be fa bc
       -0.03583745 -0.014168876 0.019089254 -0.03060838
0002f0 31 7a 05 bd 6b b9 2d bc 75 cf 0c bd fe 11 71 bc
       -0.032587234 -0.010603289 -0.034377534 -0.014713762
000300 29 7b a4 3c d4 b7 9a 3b ef 33 cb bc d2 8c 58 bc
       0.020078259 0.004721621 -0.024805037 -0.013217168
000310 7f 2b 1f 3d b4 5d a4 bd fe 77 58 bd 62 c2 e8 3c
       0.03885984 -0.08025685 -0.05284881 0.028413001
000320 7a fe c8 3c 0d b3 8b 3c 80 76 19 3c d0 46 94 bc
       0.024535406 0.017053152 0.0093666315 -0.018100172
000330 f5 99 e2 bc 25 a8 21 bc 31 72 5b bc 67 80 09 bd
       -0.027661303 -0.009866749 -0.013393925 -0.03356972
000340 38 07 bc bc d3 e4 67 3c 2a f8 f3 bc d2 ab 60 3c
       -0.02295266 0.014153677 -0.02978142 0.01371284
000350 62 fb 06 bd 1c 09 75 3c 72 29 f0 bc e5 cd 0e bd
       -0.03295458 0.014955785 -0.029316638 -0.034864325
000360 ae e1 c4 bc 7b b3 58 3c 24 72 ac 3c c0 fa 0f 3d
       -0.024033394 0.013226385 0.02105052 0.035151243
000370 45 99 24 3c 29 31 ed bc f0 15 af bc cd a5 0e 3d
       0.010046308 -0.028954105 -0.021372765 0.03482609
000380 16 a2 89 3c 8a 91 e6 bc d6 a3 a9 bc 4d 66 9d 3c
       0.016800921 -0.02814557 -0.020708006 0.01921382
000390 99 4f 26 bd 13 20 a7 bb b9 64 cb bb 6d 3d 60 bc
       -0.040603254 -0.005100259 -0.0062070754 -0.01368652
0003a0 4a 73 cc bb 15 40 61 bc 39 98 06 bd b1 43 ea 3c
       -0.0062393295 -0.0137481885 -0.032860015 0.02859673
0003b0 dd 8b 20 3b fd fa 8f ba 73 fa 00 bd b4 ab 02 3d
       0.0024497428 -0.0010984835 -0.031488847 0.03190203
0003c0 0c d8 c0 3c 98 db e3 bc 35 c5 23 3b 0f 47 02 39
       0.02354052 -0.027814671 0.002498937 0.00012424238
0003d0 0e 0a ab 3c 17 f7 b5 bc f0 93 8d 3b 65 16 b4 bc
       0.020878818 -0.022212548 0.004320614 -0.021983335
0003e0 21 bf 45 3c 9d 4c 08 bd 6f 5b c7 3a 00 45 2f 3c
       0.012069494 -0.03327619 0.0015209744 0.010697603
0003f0 08 f3 82 bc 61 2b cf 3b bb ec b2 bc 3f c2 13 3d
       -0.015985027 0.00632231 -0.021841398 0.03607392

conv4.0.bias f4 [128]
000000 a5 f9 33 bc ff ba 3e bc a8 af 82 bd d3 88 35 3c
       -0.010984813 -0.011641263 -0.0638116 0.011079985
000010 8a 8f 33 3e 55 de 34 3e 91 ef df 3d a3 a0 95 bb
       0.17535225 0.17662938 0.109343655 -0.0045662685
000020 9c 63 eb bc d9 00 0f 3e 81 bf 85 3e 41 6c 8d 3d
       -0.02873402 0.13965167 0.26122668 0.069054134
000030 84 8d c0 3d 09 3a fc 3b f1 21 d5 3c 29 45 9a bd
       0.09401992 0.007697348 0.026017161 -0.075327225
000040 1d 34 92 3e ed c6 1f 3e ad b4 29 bd 8d f1 64 3d
       0.28555384 0.15603228 -0.04143207 0.055894423
000050 64 91 4b 3e 48 ed e4 3c cd 83 c4 bc f2 b9 3b bd
       0.19879681 0.027945176 -0.023988629 -0.04583163
000060 b6 13 78 3e e0 6f ad 3d f7 3f 59 bd 47 d8 76 3e
       0.24226269 0.08468604 -0.053039517 0.24105941
000070 74 0b 18 3e 02 58 39 bc c1 1e 46 3e 16 d3 90 3d
       0.14848119 -0.011312487 0.19347669 0.070715114
000080 d7 85 20 3e 14 bc 44 ba f9 5d 0e 3e d0 6f 08 3c
       0.15676056 -0.00075048325 0.13903035 0.008327439
000090 db d1 f2 3d 97 3c 0a 3e 4c 98 8d 3d c7 3b 89 3e
       0.11856433 0.13499676 0.06913814 0.2680342
0000a0 66 8f 43 bd 33 32 02 bd 3f b1 f6 3b 18 97 12 3e
       -0.047744177 -0.031786155 0.0075284536 0.1431545
0000b0 29 8d 93 3e 64 e2 a6 3e a9 ca 60 bd 47 86 86 3d
       0.28818634 0.32594597 -0.05488077 0.0656858
0000c0 06 68 cb bb 47 39 ac 3c 0c f5 2c 3e 70 6e b7 3a
       -0.006207469 0.021023406 0.16890353 0.0013994705
0000d0 58 46 8d bd b2 48 16 3e 0f ba a9 3e b8 3e 6e 3d
       -0.06898183 0.14676169 0.33149764 0.058165282
0000e0 81 a6 f6 3c f8 a7 2d bd 88 ed c6 bd e1 46 88 bc
       0.030108692 -0.042396516 -0.09713274 -0.01663536
0000f0 4d bb 11 bd 49 28 c6 3d 11 8c 3f 3e e5 13 96 3d
       -0.035579015 0.096756525 0.18705775 0.07328013
000100 3a 01 4f bc 80 bf 59 bc 1d c1 9e 3e f2 fe 72 bd
       -0.01263457 -0.013290286 0.3100671 -0.059325166
000110 fb cf a6 3d a8 0c 7a 3e cc dd 77 3d 92 14 8d bc
       0.08145138 0.2441889 0.060514256 -0.017221723
000120 42 3f a4 3e 0f d5 f1 3c 25 db 86 3e e5 d5 85 3e
       0.32079512 0.02952054 0.2633907 0.2613975
000130 fc 12 e4 38 a9 3c 17 bc 0f 81 b4 bc e1 e3 10 3e
       0.00010875423 -0.009230771 -0.022034196 0.14149429
000140 4c 9a 23 3b b8 bf 49 3e 24 a2 99 bd bd c6 43 3d
       0.0024963794 0.19702041 -0.07501629 0.047796953
000150 9b c6 93 3c 94 c2 9f bc cb 61 7e bd bb 31 6a 3e
       0.018039038 -0.019501962 -0.06210498 0.22870533
000160 ca 93 b5 bc 96 45 8e 3e 3d f9 8b bd c8 b5 4f bd
       -0.022165198 0.27787465 -0.06834648 -0.05071047
000170 5b 7a a7 bd 9f 70 43 3c 02 6f 50 3d d7 ae e7 3c
       -0.08177634 0.011928706 0.050887115 0.028281612
000180 28 79 f6 3d 34 8c b7 3c 43 88 38 3d 59 ba 87 bc
       0.120348275 0.022405721 0.045051824 -0.01656835
000190 87 c7 e8 3d 94 15 86 3e ea ae 91 bd 8f 08 db bb
       0.11366182 0.26188338 -0.0711344 -0.00668437
0001a0 c2 c5 4e 3e 5e 8d 17 3e e3 c7 fa bb a5 1e 8f 3b
       0.20192626 0.14800021 -0.007653223 0.004367667
0001b0 d9 25 18 3e 94 fa 30 3c 0b 95 29 bd 0a 49 06 3f
       0.14858188 0.01080193 -0.041401904 0.524552
0001c0 65 e3 30 3e 38 d4 05 be d4 5c 9c 3d 6b 42 4f bd
       0.17274244 -0.13069236 0.07634893 -0.05060045
0001d0 fc 20 85 3e 86 c6 d1 bb 27 9b d9 3e 4f 76 72 3e
       0.26001728 -0.0064018397 0.42501184 0.23677944
0001e0 84 0d a3 3e f8 44 ce bc 50 03 8a 3e 3f 71 47 bd
       0.3184625 -0.025179371 0.26955652 -0.048691984
0001f0 10 e4 5a 3c 9f b1 16 3e fb b0 81 3e 05 cf b6 3e
       0.013360038 0.14716195 0.25330338 0.35704818

linear.weight f4 [14, 2560]
000000 2f 94 9a bc a4 4c c1 bc 10 3c 84 bb 3d 94 4a bc
       -0.018869488 -0.023596115 -0.0040354803 -0.012364444
000010 d5 c9 05 3c 82 30 b9 bb 5e f5 81 bc f1 0c 3e bc
       0.008165796 -0.0056515345 -0.01586407 -0.011599765
000020 0c 17 51 bc f0 5f ca bc 98 b1 0a bc 26 b1 64 bc
       -0.012761842 -0.02470395 -0.008465193 -0.013958251
000030 cd f8 20 bc a7 55 9f bb d3 6b b4 ba 0b 70 a9 bc
       -0.009824944 -0.0048625055 -0.0013765044 -0.020683309
000040 e6 81 c5 bb 13 1a a5 bb 9b 59 a2 bb bf 0d bb bb
       -0.006027448 -0.0050385087 -0.0049545295 -0.005708426
000050 93 c5 4f bc ba 1b ed bb 85 64 66 bc 65 14 4b bc
       -0.012681383 -0.0072359713 -0.014062052 -0.012394999
000060 7c 71 5c b9 53 fb 23 bc a4 0d bd 3b f9 5b e5 bb
       -0.00021023111 -0.010008651 0.0057694484 -0.0069994894
000070 ac 2a 13 3c 11 ed bb bc 13 1e 8e bc 8a 78 01 ba
       0.008982342 -0.02294019 -0.017348325 -0.0004938921
000080 2a dc 8b 3b 98 ea b8 bc a2 59 ca 3b ae 05 de 3b
       0.004268189 -0.0225728 0.006175236 0.0067755794
000090 4a e9 15 bc 84 50 73 bc 5f 86 c2 bc c8 29 54 3c
       -0.009149859 -0.014850739 -0.023745714 0.012949415
0000a0 37 c1 11 bc 66 c7 37 bc 8d 54 f8 bb 36 ea 5f bc
       -0.008896164 -0.011216974 -0.0075784386 -0.01366668
0000b0 ed 3a 46 3c 0f d2 c7 bc eb 56 a3 ba 67 ce bb bb
       0.01209901 -0.024392156 -0.0012461817 -0.005731392
0000c0 0c 98 4b bc 20 08 b0 bc fc 91 3a bc 26 34 88 3b
       -0.0124263875 -0.02148825 -0.011387344 0.004156607
0000d0 cb 76 30 bc 81 0f 20 bc 82 9c 79 bc 34 93 5c bb
       -0.01077051 -0.009769321 -0.015235068 -0.0033657076
0000e0 14 b1 4b bb c2 94 c4 bc 96 96 69 bb 3c 8d d5 bb
       -0.0031080889 -0.023996715 -0.0035642735 -0.0065170806
0000f0 a1 17 25 3c 48 88 74 bc 23 7c 23 38 66 9f 97 bc
       0.010076434 -0.01492507 3.897784e-05 -0.018508624
000100 45 ac aa bb 60 e4 bb 3b 3d a6 98 bc 23 be 3f bc
       -0.0052085244 0.0057340115 -0.018633956 -0.011703047
000110 b3 17 19 bb 23 00 96 bc 0a df ad bc b8 34 0c 3b
       -0.0023360073 -0.018310612 -0.021224517 0.0021393728
000120 10 9a 3d bc 80 74 4e 3b 4b 52 f5 3b f7 3e d4 bc
       -0.011572376 0.0031502545 0.0074866167 -0.02590893
000130 2b 2c 1a bc b9 7b 8d bc 7a 83 d4 3a 31 1e 36 be
       -0.0094099445 -0.01727091 0.00162135 -0.17784955
000140 95 44 17 3c 08 e0 33 bc 9e 34 c8 bb eb e3 c3 bc
       0.00923266 -0.010978706 -0.006109788 -0.02391239
000150 68 b6 04 bc 93 65 fb ba 0d 18 2f 3a eb 33 01 bc
       -0.00810013 -0.0019180052 0.0006679304 -0.007885913
000160 3b 1a 8d bb 6f de 94 bc c4 aa 6d bb 47 c4 4d bc
       -0.0043061054 -0.01817247 -0.0036265114 -0.012559003
000170 ad d7 f2 bc 45 0a c9 bb 85 73 8d bc ff 36 3b bb
       -0.029643858 -0.0061352574 -0.017266998 -0.0028566716
000180 af 02 d3 bc 1f 20 5a bc c3 95 3c bc b3 36 b1 bc
       -0.025758116 -0.013313322 -0.011510315 -0.021632528
000190 34 c0 89 bd 0d 42 33 bc 86 5e b8 bb 42 c2 09 3c
       -0.06726113 -0.010941041 -0.0056265024 0.008408131
0001a0 2b f8 fc bb ee 4f 89 3b 88 df 1a 3c 45 f7 54 bc
       -0.0077200136 0.0041904366 0.009452708 -0.012998407
0001b0 10 24 87 3b 35 59 2c bc 90 ae 75 bc f8 99 2f 3c
       0.004124172 -0.0105193155 -0.014995232 0.010717861
0001c0 08 61 15 bc 5e 8d 02 b9 da 19 f3 ba 2b f7 f1 bc
       -0.009117372 -0.0001245043 -0.0018547133 -0.029536804
0001d0 e8 b4 91 bc 54 06 0f 3c d0 a8 db 3b 39 8b 2a bc
       -0.017786458 0.008729536 0.0067034736 -0.01040917
0001e0 65 64 cd ba 26 16 2c bc a4 82 f0 3b f9 cf 7e bc
       -0.0015670179 -0.0105033275 0.0073397923 -0.015552514
0001f0 87 f8 9a bb 4c a6 91 bc b6 3c 97 bb 09 fa 03 3a
       -0.004729334 -0.017779492 -0.0046153916 0.00050345116
000200 33 71 4b bc 1e bd 11 3b 84 b3 c6 bc ba 10 b1 bc
       -0.0124171255 0.0022237967 -0.024255522 -0.021614421
000210 30 c4 aa bc 2e 54 6a bb c0 f6 f5 bc 62 65 89 bc
       -0.020845503 -0.0035755741 -0.030024886 -0.016771976
000220 b2 00 a6 bc b7 8f 3d bc 08 d1 fd bc d0 df 2b bd
       -0.020264003 -0.011569909 -0.030983463 -0.04196149
000230 54 8e bb bc 04 95 a1 bc e4 e9 4e bc 88 ba c8 bb
       -0.022895016 -0.019724376 -0.012629006 -0.006125752
000240 d8 f5 d1 bc 4b a2 2c 3c 3f ef 88 3b 56 cb 9e bc
       -0.025629923 0.0105367405 0.004178911 -0.019384068
000250 ed 7a 84 bc 66 16 44 bc 3f 2f 68 bc cc 6c a6 bc
       -0.016171897 -0.011968231 -0.014171421 -0.02031555
000260 0f 13 73 3b c3 77 1b bc 87 7e 31 3c f1 70 ac bc
       0.0037090217 -0.009489003 0.010833389 -0.021049948
000270 5d f7 8b 3b 4b 30 99 bc d1 dc dc bc 02 18 2e 3c
       0.0042714314 -0.018699786 -0.026960762 0.010625841
000280 d3 5b 9f bc e7 7e 14 bc 44 df b8 bb 7b dd 22 3c
       -0.019452965 -0.009063459 -0.0056418497 0.0099405
000290 0a 37 52 bc 49 b2 a5 bb 3a 82 dc 3b 36 83 94 bc
       -0.012830505 -0.0050566536 0.0067293914 -0.018128973
0002a0 50 99 1f bb b4 1e 6e bb a6 7b f0 3b c8 a6 35 bc
       -0.0024352856 -0.0036334218 0.007338959 -0.011087127
0002b0 04 78 bc bc b5 e9 3f 3c 72 ad 70 ba 09 b8 55 3a
       -0.023006447 0.011713435 -0.0009181119 0.00081527286
0002c0 85 31 bb bc 2c e5 9c bb 29 10 48 3c 3d 85 aa 3b
       -0.022850761 -0.0047880616 0.012210884 0.0052038715
0002d0 89 cb 27 3c b9 9f 11 3c 6f 36 36 bc 77 98 63 bb
       0.010241398 0.0088881785 -0.011121376 -0.0034728327
0002e0 c8 ea 0d ba c6 fa 36 bc 52 01 cf bb 73 45 b1 bc
       -0.0005413708 -0.0111681875 -0.006317296 -0.021639561
0002f0 8d 4a 43 3c 81 d5 0c bc e0 ec af ba 8b d5 c7 3b
       0.01191963 -0.008595825 -0.0013422035 0.0060984544
000300 87 54 40 3b b1 f7 e5 bb 79 7a 2f bd 8e 28 8b bd
       0.0029347257 -0.0070180525 -0.04284141 -0.067948446
000310 0e 48 6c bb cb 35 0c bb 27 24 ad bc b4 ac 37 bd
       -0.003605369 -0.0021394368 -0.021135403 -0.044842437
000320 75 f9 e6 3b fa 8c af be 37 ac fe bc 75 95 96 bc
       0.0070487806 -0.34287244 -0.031087978 -0.018381814
000330 60 70 c3 bc c0 08 0d be 13 9e 62 ba 3c e8 8a bc
       -0.023857296 -0.13772869 -0.0008644771 -0.016956441
000340 fc 48 34 bc 1e b5 4c bb 0f bb b3 bc 6b f8 8e bc
       -0.011003729 -0.0031235884 -0.021939782 -0.01745244
000350 db e4 9b be 3e 99 98 be 52 df 8b bd 4a e2 d5 bc
       -0.3044804 -0.29804415 -0.06829704 -0.02610888
000360 d1 d2 4b be d3 cf 88 be b0 46 28 be d7 06 0f bd
       -0.19904639 -0.26721057 -0.16433215 -0.034918632
000370 37 6a fc bb 17 56 d1 3a cb 06 c0 bc 38 bc 2f bb
       -0.0077030915 0.0015971091 -0.02344074 -0.0026815068
000380 3b df 48 bc f0 a9 b1 bb 5c c5 48 3c 78 83 2d 3c
       -0.012260254 -0.0054218695 0.012254085 0.010590427
000390 d6 90 48 bc 3c 19 d2 bb 89 3f 6f 3b c4 6a 91 3b
       -0.012241563 -0.0064116996 0.0036506376 0.0044377763
0003a0 75 50 2d bc 2f bf a8 bb a2 fe 12 bc df 92 e2 ba
       -0.0105782645 -0.005149744 -0.008971842 -0.0017286203
0003b0 b5 57 c6 3b 39 f0 c5 3b a9 5f 94 bc 77 ee 8b bc
       0.006052936 0.0060405997 -0.01811202 -0.017081482
0003c0 2a 40 8b bc e8 91 6b 3b cb a6 4f bc 92 ea 3c bc
       -0.01699837 0.0035945121 -0.012674044 -0.011530535
0003d0 39 fc a9 bc 8d b2 a5 3a bc ef 7c 3b 1b d6 0f bc
       -0.020750152 0.0012641713 0.0038595041 -0.008779074
0003e0 e8 b3 b4 bc 6c b5 51 3c 55 ed b6 bc bd ed ab 39
       -0.022058442 0.012799602 -0.022329966 0.0003279279
0003f0 bb bd 9b bc 4d 16 ba bc bd 40 7b bb 69 e7 9a bc
       -0.019011369 -0.022715712 -0.0038338148 -0.018909173

linear.bias f4 [14]
000000 69 5b 88 bd 7a 8f f2 3b 89 01 0e bd 77 48 e2 3b
       -0.0665806 0.0074023576 -0.034669433 0.006905611
000010 ee 3a c3 bd 27 d6 c2 bd 9b aa 19 3c 77 12 17 bc
       -0.09532724 -0.095135026 0.009379054 -0.009220711
000020 6d 16 8e 3c 7a e2 a1 bd 85 1a 55 bd 9c c9 19 3d
       0.017344678 -0.07904525 -0.052027244 0.037545785
000030 6c 5f a7 3d f1 6f 6c 3d
       0.08172497 0.057723943
